checkpoints_wall/baseline_best.pt (torch, 217039 bytes, 18 tensors)

net.0.weight f4 [128, 4]
000000 0d 99 9c 3e f9 d7 b4 3e 2a 9e dd bd 04 73 c8 3e
       0.30585518 0.35321024 -0.10821183 0.3915025
000010 b0 5c e0 bd 38 a2 ce 3d 10 45 79 be 28 58 96 3e
       -0.10955179 0.100895345 -0.24342752 0.29364133
000020 9a 07 fc 3e 8c 83 ac be f7 6f 93 3e d8 d5 b7 3d
       0.4922455 -0.33694112 0.2879636 0.08976334
000030 2d cb c7 3e f9 56 fa 3d 55 b0 8e 3e 07 cd 46 3e
       0.39022198 0.1222362 0.27868906 0.19414149
000040 12 54 bd 3e d4 53 d9 3d f0 ac 33 be 03 43 30 3e
       0.36978203 0.10611692 -0.17546439 0.17213063
000050 8a 71 3f be 17 4e ff bc 1e b1 7d be e6 5a 9c 3e
       -0.18695655 -0.031165166 -0.24774596 0.305381
000060 dc 2e ac be e5 7f e6 bd 48 46 a2 be 0e 66 73 be
       -0.336295 -0.11254863 -0.31694245 -0.237694
000070 74 77 b4 3c 7c dd c5 be 06 ba f3 3e e8 65 b9 be
       0.022029616 -0.38645542 0.47602862 -0.3621056
000080 c0 c7 ad 3e 9b fb 8f 3d ba 9c cb bd 78 70 c0 3d
       0.3394146 0.07030412 -0.099420026 0.09396452
000090 6c 98 51 3d 64 ff b8 3e 8a 30 aa 3d 90 c6 5a bd
       0.05117075 0.36132348 0.08310039 -0.05341202
0000a0 14 34 9f 3d 5a 1a e4 bd e6 2b bc 3e 3f 78 9f 3e
       0.07773605 -0.11137839 0.36752242 0.31146428
0000b0 a7 85 a4 3e 6c 3b 41 be 7a e7 58 3e 51 82 af bc
       0.3213322 -0.18870324 0.21182051 -0.021424444
0000c0 c8 be 75 3e 75 75 9a be 48 17 fd be 3a b7 48 be
       0.23998559 -0.30167738 -0.49431825 -0.19601145
0000d0 b3 b4 c1 be 71 ef e7 3e 54 ad bb 3c 92 27 15 3e
       -0.37833175 0.45299867 0.022909798 0.14565876
0000e0 ec 1d 1d 3e e4 2c c6 bc 42 c8 bf 3e 4e fd 8a be
       0.15343446 -0.024191327 0.37457472 -0.2714638
0000f0 53 ca 24 3d 9f 2b a0 be 8f f5 e5 3d dc 08 e8 bd
       0.040232014 -0.3128328 0.11228477 -0.11329815
000100 1a 7e 0d 3e 86 e1 da bd 56 60 ae 3e 75 ab 18 be
       0.13817635 -0.106875464 0.34057873 -0.14909156
000110 b7 e1 67 be 20 f0 99 be 0c 68 8e 3e fe 1a 26 3e
       -0.22644697 -0.30066013 0.27813756 0.16221234
000120 3e 7c b6 3e d9 3d a4 be ce f1 39 be 14 b9 41 be
       0.35641664 -0.32078436 -0.18158647 -0.18918258
000130 7e a6 b0 be 3a be 4b 3e 45 e6 42 3e 80 44 b9 3e
       -0.34502023 0.19896784 0.19033153 0.36185074
000140 e2 c1 73 be 0d 54 90 be 14 38 ed 3d 53 aa ad be
       -0.23804429 -0.28189126 0.11582962 -0.3391901
000150 92 06 82 3e a8 10 25 be ef b8 90 3e bb d5 b8 be
       0.25395638 -0.16119635 0.28266093 -0.36100563
000160 9c 2f 5f be 96 0f 38 3e 68 d5 68 3c 30 ae 67 bd
       -0.21795505 0.17974696 0.014211036 -0.056562603
000170 70 b7 7b 3e 44 a2 ad 3e 9f ee ae be 07 7c 2c be
       0.24581695 0.3391286 -0.34166428 -0.16844188
000180 7e da 02 3f 55 34 43 be 73 8a 3c be 1e f4 fa bd
       0.5111464 -0.19062932 -0.18412189 -0.12253593
000190 fd 6d 21 be ae 1d 59 3d ca 0e 58 be dc ef 69 be
       -0.15764613 0.05300682 -0.21099392 -0.22845405
0001a0 9b 92 be bb 14 89 ab be 5f 91 b0 be 67 e9 9a bc
       -0.0058158166 -0.3350302 -0.3448591 -0.018910123
0001b0 db ab c7 be 1e 4b 60 be 57 76 c0 3e 8f 96 c9 3d
       -0.38998303 -0.21903655 0.37590286 0.0984317
0001c0 8e 3b 3f bc e6 f4 f0 be 3d 3c 19 be 22 99 d6 3d
       -0.011671914 -0.47061843 -0.14964385 0.104784265
0001d0 f0 31 ac 3d 4c 7c d2 be 3e a7 f6 bd c5 f0 37 be
       0.08407962 -0.41110456 -0.12043618 -0.1796294
0001e0 71 78 9d ba 99 fa 2a be df b9 d8 3d d7 ad 40 be
       -0.0012014044 -0.16697158 0.10582327 -0.18816315
0001f0 4d 53 8f be df 4e 1e be 0e c7 12 be 5c 4b a3 be
       -0.2799324 -0.15459774 -0.14333746 -0.31893432
000200 f1 76 c0 3e 33 19 2d be 7d 70 f3 3e aa 6a 20 3e
       0.37590745 -0.16904144 0.4754676 0.15665689
000210 da ae b0 be 66 48 99 3e a9 6c 31 be d9 b3 8f 3c
       -0.345084 0.29938048 -0.17326607 0.017541813
000220 3d 25 b7 be c9 79 d5 be 9b ca e0 3c 6d 62 e3 bd
       -0.35770598 -0.41694477 0.02744036 -0.111027576
000230 b9 90 36 3e d1 3a de be 95 cc 8a 3e 42 62 c8 be
       0.17828645 -0.43404248 0.2710921 -0.39137465
000240 a4 79 e8 bd 69 9a 55 3d d2 20 3f 3e 9b 72 d5 3e
       -0.11351326 0.05214921 0.18664864 0.41689
000250 0d 49 fa 3e 58 26 a0 be a0 85 c8 3d 6a 84 24 be
       0.48883858 -0.31279254 0.09791112 -0.16066137
000260 c5 47 bf bc 13 53 90 be cc 1b d7 3e 66 5c 84 be
       -0.023349652 -0.2818838 0.42013395 -0.25851744
000270 17 c4 51 3e 22 5b 0b 3e 61 a0 4d 3e f2 12 89 be
       0.20484959 0.13608983 0.20080711 -0.26772267
000280 f1 33 b2 3e 44 5b 08 3e 8f a5 78 3e 9f 04 db bd
       0.34805253 0.13316065 0.24281906 -0.10694241
000290 9a 9d 2f 3e 8f 94 52 bd f8 bd fb bd 6c e9 b0 3e
       0.17149964 -0.051411208 -0.12292093 0.34553087
0002a0 37 6f 36 3c 03 ba 8f be 3b 4d 37 be ee 26 34 3d
       0.011134914 -0.28071603 -0.17900555 0.04398244
0002b0 d9 c9 3b 3e 01 be 83 bc be 96 0d be 75 be 10 be
       0.18338718 -0.016081812 -0.13827035 -0.14135154
0002c0 e7 92 b7 be a7 bf 25 3e 89 f9 83 3e cc b6 a4 be
       -0.35854265 0.16186391 0.25776318 -0.32170713
0002d0 c9 a3 07 3d 29 42 a8 3d 1f 0c 32 3e 3e 49 66 3c
       0.033115182 0.08215744 0.17387436 0.014055548
0002e0 1d 1f 65 3e 08 07 8f 3e bb 96 54 3e f1 00 be bd
       0.2237515 0.27935052 0.20760624 -0.09277523
0002f0 a3 9b d3 bc 1c ca da b9 ab 8b 33 be 4a 0f a0 3c
       -0.02583105 -0.00041730783 -0.17533748 0.01953854
000300 68 c3 a3 3e a9 39 e1 3e 4c fd 3f 3b d2 ff 0c be
       0.3198502 0.43989304 0.0029295264 -0.13769463
000310 80 d8 ab bd af d6 99 3c bc 3f 1f 3e 70 d0 59 3e
       -0.083909035 0.018779127 0.15551656 0.21270919
000320 38 6d b3 be 4d d0 42 be e7 9d 81 3e 68 0f 08 3d
       -0.35044265 -0.19024773 0.25315782 0.033217818
000330 36 5e 76 bd fb c9 74 be b7 20 51 be b4 e2 c5 be
       -0.06014844 -0.23905174 -0.20422636 -0.38649523
000340 0f 7d 55 be ad e0 e4 3d 9f e4 c1 3e 45 b6 8a 3e
       -0.20848487 0.11175666 0.37869737 0.27092186
000350 e1 60 f5 be e8 b2 52 be 68 dd 0e bd d6 93 c3 3e
       -0.47925475 -0.2057606 -0.03487912 0.38198727
000360 18 21 94 3d d0 97 04 be 7c d2 53 3e e8 02 43 be
       0.07232875 -0.12948537 0.20685762 -0.19044077
000370 7c 9e b6 be 2a b8 bd 3e 13 fc 99 be 1f 66 de 3d
       -0.3566779 0.3705457 -0.3007513 0.10859322
000380 a6 15 0a bf 2e de b6 3e fd 9c ce 3e b7 57 10 3e
       -0.5393928 0.35716385 0.40354148 0.1409596
000390 e1 dd c5 be 87 1f 0b bf 6b e2 b6 be b7 fd 72 3e
       -0.38645843 -0.5434498 -0.35719618 0.23729597
0003a0 c5 a0 0d 3e 4b 64 ce 3e c5 74 e4 3e ea b9 62 3e
       0.1383086 0.40310892 0.44620338 0.22141233
0003b0 21 de 8d bd 53 49 8f be 31 7c 95 be 11 44 db be
       -0.06927133 -0.2798563 -0.29196313 -0.42825368
0003c0 d6 24 63 3e 4a b3 4a be c4 7a ac bd 1a 3d 0d 3d
       0.2218202 -0.19794956 -0.08421853 0.0344821
0003d0 da 65 dd bd d5 e5 9a be 74 ba 9b be a8 60 15 3e
       -0.10810442 -0.30253473 -0.3041569 0.14587653
0003e0 42 bd 4e be 47 c8 91 3e 6e 8e 11 be 33 74 9f be
       -0.20189384 0.28473112 -0.14214489 -0.3114334
0003f0 68 e4 a4 bd 80 d1 78 be 46 3f 5f be 6c cd 53 be
       -0.080513775 -0.24298668 -0.2180148 -0.20683831

net.0.bias f4 [128]
000000 be 0d 61 3d 96 4b c3 be 82 db 76 be 9e 37 a8 be
       0.054944746 -0.38143605 -0.24107173 -0.32854933
000010 32 48 93 3e c9 17 03 bf 29 2a 8c 3e 3f de 3c bd
       0.28766018 -0.5120817 0.27375916 -0.046110388
000020 50 9e ec bc 98 e4 84 3e 18 cc 8a bd 2a 5d 8c 3e
       -0.028884083 0.25955653 -0.06777209 0.2741483
000030 d3 87 a6 3e 14 db bb be 7c 36 b5 3d 77 2a 5d 3d
       0.325255 -0.3669058 0.08848283 0.053995576
000040 3e d9 be 3d a5 be bf 3c 66 5f 35 3d e8 c2 63 be
       0.093187794 0.023406336 0.044280432 -0.2224232
000050 88 8f 35 bd 49 7c b7 3e 59 86 82 3e 63 fd ef bc
       -0.044326335 0.3583701 0.25493124 -0.029295629
000060 7f 8d bf be 2f 02 e4 bb b4 2e a5 be da 64 b7 3e
       -0.3741264 -0.006958268 -0.32262194 0.3581913
000070 75 7c 97 be f1 0b 2e bd d0 71 c2 bd 0e a4 2a bc
       -0.2958714 -0.042491857 -0.09494364 -0.01041509
000080 34 0d c6 3e e0 3c 8d 3c 52 d3 39 3e d7 7e bb 3e
       0.38681948 0.017240942 0.18147019 0.3662021
000090 e4 84 71 3e d3 77 e0 bd 76 71 50 be 50 69 58 3e
       0.2358585 -0.10960355 -0.20355782 0.21133924
0000a0 93 e7 43 be b3 f0 05 3e 70 f1 c0 bd 53 a1 d8 be
       -0.19131307 0.130801 -0.094210505 -0.4231058
0000b0 c1 a9 18 3e 8f 26 8d bd 73 0a 13 3e 92 cc 15 bd
       0.14908506 -0.0689212 0.14359455 -0.036572047
0000c0 cf 6b 86 3e 78 bc 99 3e 96 d2 08 3c c6 a7 ff be
       0.26254126 0.30026603 0.008350989 -0.49932688
0000d0 fc 34 aa be 7c 5a 5e be 7e 99 e1 be 47 08 63 be
       -0.3324355 -0.21714205 -0.44062418 -0.22171126
0000e0 a3 ba c4 be 98 91 c4 be 03 c9 a4 be 0d 2d 17 bf
       -0.38423643 -0.3839233 -0.3218461 -0.5905312
0000f0 b9 08 8e be b7 61 32 3e 92 38 bf 3e 31 ab 14 be
       -0.2774103 0.17420088 0.37347847 -0.1451843
000100 e2 e8 f6 bd 8d cf 6d 3e 67 8e 50 be 3e 52 85 be
       -0.120561376 0.23223706 -0.20366822 -0.26039308
000110 2d 15 78 3e 5d 1f c8 be 3c ea 9f ba 59 cb ae 3e
       0.24226828 -0.39086428 -0.0012200545 0.34139517
000120 51 59 ef 3c d5 7f bd 3d 4e 0f 6e be 5c 67 be bd
       0.029217394 0.09252898 -0.23248026 -0.09297058
000130 1a cb 27 3c 35 54 2f bd 89 50 bb 3d 5f d9 d6 3e
       0.010241294 -0.042804915 0.0914622 0.41962716
000140 d7 5e a2 be 27 f6 3c 3c 1e a6 5d be 9c 0d c3 be
       -0.31712982 0.011533297 -0.216454 -0.3809632
000150 72 6b 0c bd 34 57 e1 be 7a 4c 81 3e 86 c2 76 bb
       -0.034282155 -0.44011843 0.2525366 -0.0037652566
000160 c4 62 85 be 99 95 4f 3e 9e a8 be be 6b 97 04 be
       -0.26051915 0.2027191 -0.3723802 -0.12948386
000170 f9 03 ac bd 93 8f d6 be 21 cc a2 be 93 5c 69 bd
       -0.08399195 -0.41906413 -0.31796363 -0.05697305
000180 9f 98 8a 3e f3 14 b1 3e 9d e4 70 3e 66 04 9f be
       0.27069566 0.34586295 0.23524709 -0.31058043
000190 4f c7 88 be 8c 75 b2 3e 72 e9 09 3e 6e 41 be bc
       -0.2671456 0.34855306 0.13467959 -0.023224559
0001a0 24 9e 9f 3d e5 c9 d2 be 9b f5 28 be 35 0b c5 3e
       0.07793835 -0.41169658 -0.16499941 0.38485113
0001b0 87 25 de bd 3c d4 82 bd 7a 73 b4 be fe 53 5d be
       -0.108470015 -0.06388137 -0.35244352 -0.21614072
0001c0 17 e3 36 bc 01 ec 8c be 84 86 92 bd 15 ab 96 bc
       -0.011162541 -0.27523807 -0.07154563 -0.018392125
0001d0 81 7c 0e bf ff ce ce 3b 06 8c 85 be 43 25 50 be
       -0.5565873 0.006311297 -0.26083392 -0.20326714
0001e0 82 ee 3b 3e 1c 39 99 3e 89 f3 be bd 22 40 3e be
       0.18352702 0.29926383 -0.093237944 -0.18579152
0001f0 30 93 bb be 9a dc 6a be 0a 5e bb be 7b ed 2b be
       -0.36635733 -0.22935715 -0.36595184 -0.1678981

net.2.weight f4 [128, 128]
000000 ad b7 25 3c b6 97 a9 bd e3 b0 8c 3d a3 68 4c 3d
       0.0101145925 -0.0828089 0.06869676 0.049904477
000010 5d 93 c2 bd ef eb 2c bd 83 8a af 3c 8b d5 d9 bc
       -0.095007636 -0.04221719 0.021428352 -0.026591083
000020 1d 69 93 bc 54 77 23 bd f9 07 80 3d 41 16 6d bd
       -0.017994458 -0.039908722 0.06251521 -0.05788255
000030 f7 c6 84 3d 5e e0 ba 3b 1b 2e 18 3c 3f e8 77 3d
       0.06483262 0.005703016 0.009288336 0.06052422
000040 6b bf bc bc a3 7a 68 bd 3d 8b ba bc fc d0 92 3d
       -0.023040494 -0.05675758 -0.022771472 0.07168767
000050 aa 03 95 bd 8f e0 3d 3c 7d e7 b1 bd 73 0f 27 3d
       -0.072760895 0.0115891835 -0.08686731 0.040786218
000060 1b 2b c7 3c ea 8f 75 3b 69 9f f1 3c ce 83 eb bb
       0.024312546 0.0037469813 0.029494958 -0.007187343
000070 06 a7 25 3d 2f 99 a0 bd 4c 4c af bc a5 de 03 3d
       0.04044249 -0.078417175 -0.021398686 0.032194752
000080 d5 e5 a2 3d 5d 6b 38 3d c0 0c 94 bd 47 d0 73 3d
       0.07953993 0.045024265 -0.07228994 0.0595248
000090 de 87 e4 bc 3a 12 e0 bc 8e 91 b5 bd a4 f7 b6 bc
       -0.027896818 -0.027352441 -0.08865653 -0.022334881
0000a0 2a ff 5e 3d db 3b 7c 3b 1e 8b 75 bd e5 3d 9a 3c
       0.054442562 0.0038487825 -0.059947126 0.018828342
0000b0 dc 2b e8 bc 03 45 a5 3d 64 68 ad bd 3e 32 14 bd
       -0.028341226 0.080698036 -0.084671766 -0.036180727
0000c0 37 b9 be bd b7 1a 31 bd 81 43 e4 3c 7a e4 9c 3d
       -0.09312671 -0.043238368 0.02786422 0.07660766
0000d0 58 36 73 3c be 76 b1 3d d2 aa 8d 3c 22 17 51 3d
       0.0148444995 0.086652264 0.017293368 0.05104745
0000e0 ca 1d 91 3d d9 05 8b 3d 42 a4 4a bd be 11 95 3d
       0.0708576 0.06788225 -0.049473055 0.07278775
0000f0 f5 99 38 3d 5c aa 4b bd 1d c4 2c bd e8 b9 a8 bd
       0.0450687 -0.049723014 -0.042179216 -0.08238584
000100 c9 c2 60 3c e4 12 a4 bd 1f ef 18 3d 32 21 a1 3c
       0.013718315 -0.080114156 0.03733742 0.01966915
000110 e1 1f ad bd cc 4f c5 3c ba 04 7e bc 30 4f 03 3d
       -0.08453346 0.024085902 -0.015504057 0.03205794
000120 88 02 2d 3d 17 4c c3 bd 3c 03 a6 3d fa 8a 86 3d
       0.042238742 -0.09535997 0.08106086 0.065694764
000130 9d 0c 10 3d d3 71 a5 bd e6 53 01 bd 45 9d 09 bd
       0.03516828 -0.08078351 -0.031574152 -0.03359725
000140 1d 16 ba bc 25 1d 2c 3d 69 a0 03 3d 55 66 8f 3d
       -0.022715623 0.042019982 0.0321354 0.0700194
000150 85 97 07 bd 49 ae f3 3c e1 fd ca 3c 0d b7 96 bd
       -0.033103485 0.029746192 0.024779262 -0.07359133
000160 5d f8 ba bd 6d 97 5e bd 2d d5 77 3d 22 6c aa bd
       -0.09129403 -0.05434363 0.060506035 -0.08321406
000170 bb 90 9d bd 74 d0 4a 3d 92 54 43 3d 19 81 83 3d
       -0.07693621 0.049515203 0.047688074 0.06421108
000180 94 a8 88 bd ca d6 95 bd 33 3f 17 3d 7d 6b 9d 3d
       -0.06672779 -0.073163584 0.036925506 0.076865174
000190 2e 9f 58 3d 5a 97 b2 3b 38 a3 ee 3c a8 15 9b 3d
       0.05288618 0.0054501714 0.029130563 0.0757249
0001a0 c3 96 69 bd ad 5e 24 bd 28 26 5c 3d 67 61 8a bd
       -0.057028543 -0.040129352 0.053747326 -0.06756859
0001b0 f7 a1 47 bd 7b 24 84 3d 5f 76 e4 3c b0 88 a4 3c
       -0.048738446 0.064522706 0.027888475 0.020084709
0001c0 11 2c 3c bd d1 e1 9f ba c1 ac a5 3d 89 4d 59 bd
       -0.045940462 -0.0012198036 0.08089591 -0.05305246
0001d0 2a 35 fd bb 6e 1b 0c 3d b1 06 8e bd 79 81 a3 3d
       -0.007727285 0.034205846 -0.0693487 0.07983679
0001e0 c3 97 57 bd 4b 9a f0 bc 70 4b f1 bc fc ec 6b bd
       -0.052634966 -0.029370448 -0.029454917 -0.057599053
0001f0 bc a0 b1 bd d6 22 4c 3d 5d 5e c0 3c f8 8a a9 bd
       -0.08673236 0.04983791 0.023482496 -0.08278459
000200 f3 62 bb 3b ea e9 b2 3d ab 2a 2e bd 46 e1 fb 3c
       0.005718583 0.08736022 -0.04252116 0.030747067
000210 fd 13 1c bd 84 98 8c 3d 9a da ad 3b 32 5e 0c 3e
       -0.038105 0.068650275 0.0053056004 0.13707808
000220 05 d3 85 bd 9d ac 85 3d e0 b4 67 3e 74 d8 31 bd
       -0.065343894 0.06527064 0.22627592 -0.043419316
000230 12 c6 48 bd be d5 5b 3d e9 73 a1 3c 12 fd c0 3c
       -0.04901702 0.053670637 0.01970859 0.023558173
000240 f5 7d a1 bd c9 39 04 be ac 23 60 bc 93 83 a2 3d
       -0.078853525 -0.12912668 -0.01368038 0.07935252
000250 52 e1 46 bd 28 f3 98 3d ad 3e 57 3c 43 c5 a6 3d
       -0.048554726 0.074682534 0.013137502 0.081430934
000260 37 a0 96 bd 0e 9c 00 bd 9d 41 93 3d 69 26 86 bd
       -0.07354777 -0.031398825 0.07190249 -0.06550295
000270 08 ea 47 bd 6e fd 7d 3e 77 84 02 be 76 94 b5 3d
       -0.048807174 0.24803707 -0.12745844 0.08866207
000280 15 c3 f6 bc 95 cf c4 3d a5 30 7d bd 86 ea c6 bc
       -0.03012232 0.09609906 -0.06181397 -0.024281751
000290 89 93 a2 3c be 4a 28 be 0b 6f 93 bd 18 ec 8a 3d
       0.01984574 -0.16434762 -0.07198914 0.067833126
0002a0 42 4f 80 3d 3d 9b 4b bd 2b b6 e8 bd df 97 7b bd
       0.06265117 -0.049708594 -0.11362871 -0.061424132
0002b0 22 95 99 3d 98 36 6b 3d 9e 76 b0 3d 64 d6 b2 b9
       0.07499148 0.05742511 0.086163744 -0.0003411054
0002c0 9f 7e bd 3d 8c af bf 3d 37 f2 ae bc 9b c9 80 3d
       0.09252667 0.09359655 -0.021355731 0.06288453
0002d0 94 2e 83 3d e4 83 06 bb b4 bc 4d bd 92 14 90 3d
       0.064053684 -0.002052539 -0.05022879 0.070351735
0002e0 f8 a7 82 3d b7 12 16 be 7b 61 00 3e a2 ac 4e bd
       0.06379694 -0.14655577 0.12537186 -0.050457604
0002f0 6d 38 5a 3d e5 b3 59 bc 9c 3a df 3d b3 4f 77 3c
       0.053276468 -0.013287519 0.10899851 0.015094685
000300 22 99 93 bc c1 28 b8 bd 5d e8 2b 3d d9 5f 41 bc
       -0.018017355 -0.08992148 0.041969646 -0.011802637
000310 e0 24 25 bc b9 dd 38 3d f6 a6 6d 3d e7 ab 83 bb
       -0.0100795925 0.045133326 0.058020554 -0.004018295
000320 06 5d 1a bd f7 79 c2 bd 10 52 03 bd 87 53 04 bd
       -0.03768637 -0.09495919 -0.032060683 -0.03230622
000330 82 4e 46 3d df 8f ee bc ca be 6f 3d e7 aa 14 3d
       0.048414715 -0.029121337 0.05853156 0.036295798
000340 72 34 aa 3d e4 6b cd 3d 30 89 7c 3c 1d df 19 be
       0.083107844 0.10030344 0.015413567 -0.15026517
000350 56 04 06 bb 90 21 03 3d ef a8 09 bd a9 05 a7 3d
       -0.0020449362 0.03201443 -0.033608373 0.081553765
000360 d8 e9 8a 3d 24 e5 0e 3d 6f 80 80 3e 53 b9 e1 3d
       0.067828834 0.034886494 0.25097987 0.11021676
000370 24 c9 20 3d 41 a4 5f 3d 99 2f a1 3d f5 62 8d 3c
       0.039254323 0.054600004 0.07870407 0.0172591
000380 3b 50 89 3c 4a 11 76 3d 5c 80 c3 3d 51 2b 68 3d
       0.01676189 0.060075082 0.09545967 0.056681935
000390 00 ee a5 3d 4a 7d e9 bd d1 62 45 3d 6c 6a 4e 3d
       0.081020355 -0.1140085 0.04818994 0.05039446
0003a0 d3 4f b3 3d ed f9 f7 3b d2 c1 31 bd 8c f0 75 3c
       0.0875546 0.0075676353 -0.043397732 0.015010964
0003b0 03 39 08 3e 25 f9 68 3d 4e ae 14 3e 02 02 8d bd
       0.13302998 0.056878228 0.14519617 -0.068851486
0003c0 e6 4f 33 bd b8 b4 a3 3d 12 a4 ba 3d b7 69 5a 3d
       -0.04377737 0.07993454 0.09113325 0.053323474
0003d0 7c 20 fc bc 5c d5 e6 3d 41 0b 02 3d d7 c5 7f be
       -0.030777209 0.11271164 0.031749014 -0.24977814
0003e0 04 ff e5 bd c6 0a 22 3d be fd 48 3d 69 49 da 3e
       -0.11230281 0.039561056 0.049070112 0.42634133
0003f0 65 34 a8 3d 27 7a c4 bd f7 54 81 3d 79 8c 18 3d
       0.082131185 -0.09593611 0.06315034 0.03724334

net.2.bias f4 [128]
000000 91 42 b0 bc 4d 33 b4 3c 31 a1 21 bd b6 20 07 bd
       -0.021516116 0.021997118 -0.039460365 -0.03299018
000010 fd 2e f9 3c 8f f7 68 bd 1f e4 1a 3d 50 d0 76 3d
       0.030417914 -0.056876715 0.03781521 0.060257256
000020 04 63 8b 3d e8 dc 84 3d 51 50 a9 bc 29 e2 95 3c
       0.06805995 0.06487447 -0.02066818 0.018296318
000030 e9 9e cd bd a4 cb a7 bc 6b e8 28 bc 1a 12 60 bb
       -0.10040075 -0.020482846 -0.010309319 -0.0034190477
000040 25 16 f5 3b a8 d4 85 bd 35 7d 2e 3a 90 7b 88 bd
       0.0074794465 -0.065347016 0.00066562305 -0.06664193
000050 c4 93 cf bd 6a a4 36 bd 1e a0 8a bd d4 9d c7 3c
       -0.10135606 -0.04459039 -0.06768821 0.02436725
000060 8a 44 eb bb f3 b2 9e 3d 6b 84 b1 3c 58 3a bd 3b
       -0.0071798014 0.077489756 0.021669587 0.0057747774
000070 10 db 21 3d fa d9 dd 3c e1 12 8e bd 2c 5f 00 bd
       0.039515555 0.027081478 -0.069371946 -0.031340763
000080 d9 a1 ac bd 5b 8f 42 bd 27 3d 4f 3d db da 10 3d
       -0.084293075 -0.047499996 0.05059543 0.035364967
000090 a4 7f 8f 3d 67 dc f0 bc 7a 54 51 3c 8e 6d 0f 3d
       0.070067674 -0.029401971 0.012776488 0.03501659
0000a0 02 22 2d 3d 81 f8 53 bd 31 4e 43 3d d9 c9 1d 3d
       0.04226876 -0.051750664 0.04768199 0.038522575
0000b0 af 93 b9 bc cb af b0 3d b5 bf c1 3d e5 ab ce bd
       -0.022653429 0.0862728 0.09460393 -0.1009138
0000c0 53 a6 73 3d fe d6 df bd 7f 50 c9 bc 25 bb 45 3d
       0.05948479 -0.109296784 -0.024574516 0.048274178
0000d0 38 8e 1a 3d ac 14 b9 3d a1 dd 1e 3d e7 43 25 3b
       0.037733287 0.09037146 0.03878558 0.0025217475
0000e0 4a 3b 52 3d d3 b0 8e bd 09 46 b5 bc 62 83 51 bc
       0.051326074 -0.0696732 -0.022128122 -0.012787672
0000f0 fb 27 86 3d b3 d9 6a 3d 14 a0 5b 3d 02 a6 61 bd
       0.065505944 0.05733652 0.05361946 -0.055089958
000100 bb 38 95 3d 6c 14 9a 3d d0 85 39 bc 14 e3 aa 3d
       0.07286211 0.075234264 -0.011323407 0.08344093
000110 4c b5 64 bc 12 8d 37 bc 57 80 cb bc 1d ce a7 3c
       -0.01395924 -0.011203067 -0.02484147 0.020484025
000120 62 20 73 bd c4 05 07 3d 35 de 1e bc 91 bc 78 bd
       -0.059357055 0.032964483 -0.009696533 -0.060726706
000130 50 a5 84 bd bf db 38 3d 17 b8 a4 bb 85 d3 10 3d
       -0.06476843 0.04513144 -0.005026828 0.03535797
000140 16 a5 6b 3d 42 d8 a7 3d 49 53 58 3c 8a d1 90 ba
       0.057530485 0.08195545 0.0132034505 -0.0011048776
000150 70 91 ce 3c 20 d3 85 bd f4 f8 ca 3d 8b 83 70 bd
       0.025215834 -0.065344095 0.09910765 -0.0587192
000160 2f b4 d0 bc 82 48 d8 3b e1 23 f8 3d ee 12 ab 3d
       -0.025476543 0.0066004405 0.12116218 0.0835322
000170 58 0a 07 3d 48 67 a3 3d 2c e8 05 be 5f 6a 68 bd
       0.03296885 0.07978684 -0.13076848 -0.05674207
000180 24 a4 3c 3d 2f d1 43 bd 3d 31 ab 3c 9e 11 60 bd
       0.046054974 -0.047806915 0.020897502 -0.0547043
000190 00 72 27 3d 66 ea 9d bd be e5 f5 3b 4a db a8 3c
       0.040880203 -0.077107236 0.007504194 0.020612378
0001a0 6e 48 9e bd fd 72 df 3d b7 d1 8c 3d 6f e3 e8 bc
       -0.077286586 0.10910604 0.068759374 -0.028428761
0001b0 c6 70 58 bd 81 94 c4 3c cc 59 b2 bc ed 60 81 bc
       -0.052841924 0.023996593 -0.021771334 -0.015793288
0001c0 aa 76 84 3d 48 44 6b 3c 07 4c bb bd 94 7a e8 3b
       0.06467946 0.014359541 -0.091453604 0.0070946906
0001d0 ae f4 e8 bb 52 43 82 3b c1 39 28 bd ee 6f a2 bc
       -0.007109246 0.0039753104 -0.041070703 -0.019828763
0001e0 13 cd 2f 3c d4 e8 55 3d 29 7d a4 3c ed e7 f9 3c
       0.010730046 0.052223995 0.020079212 0.030506099
0001f0 46 94 67 bd 90 42 81 3d fa 82 24 3d 8a 3a 28 3d
       -0.05653789 0.06311524 0.04016397 0.041071452

net.4.weight f4 [2, 128]
000000 b9 85 0f 3b 4e e6 2a bc fb 84 5a bd 8e 4d 79 3d
       0.0021899773 -0.0104308855 -0.053349476 0.060864978
000010 5a 00 2c bd 40 37 11 bd f1 e9 eb 3c f0 18 16 bb
       -0.041992523 -0.03545308 0.028798075 -0.0022903048
000020 cf 19 97 bd 39 83 53 bc ec bb 70 bb 79 79 a6 bd
       -0.073779695 -0.012909704 -0.0036733104 -0.08128638
000030 bc 05 9b bc b2 c5 4b bd 71 d0 5c ba c3 94 4d 3b
       -0.018923633 -0.049749084 -0.0008423394 0.0031369186
000040 60 d4 ce b9 49 4b 96 3d 14 29 29 ba f7 15 2d bb
       -0.00039449614 0.07338578 -0.00064529595 -0.0026410797
000050 ba 05 02 3b 01 b7 23 b9 97 64 27 bb e2 75 19 ba
       0.001983984 -0.00015613066 -0.0025542134 -0.0005854053
000060 c6 f7 86 39 89 6c e2 3a 9f 2a 25 3b 11 be ed bc
       0.00025743077 0.0017274778 0.0025202406 -0.029021295
000070 3d 4f 97 3d 51 8a 86 bd 7c 09 c5 bc 1c 70 0f 3d
       0.073881604 -0.065693505 -0.024052374 0.035019025
000080 ca 0e 5b bd 28 9b a0 3d 69 70 e4 bc b3 67 84 b9
       -0.0534809 0.07842094 -0.027885633 -0.00025254264
000090 aa fe 3b 3c fd ee 89 bd f1 e6 b0 3d d1 32 a7 bb
       0.011474291 -0.067350365 0.086377986 -0.0051024933
0000a0 c7 78 e4 3c 32 97 58 3d 31 76 99 bd 6f 26 95 3c
       0.027889622 0.052878566 -0.07493246 0.018206803
0000b0 04 87 5f 3a 15 1a b3 bd 9e 90 73 3d 30 88 c4 bc
       0.0008526894 -0.08745209 0.05946409 -0.02399072
0000c0 0f ec ab bd 7d 7d 06 bd 0f 46 89 3d 51 ef 31 3d
       -0.08394634 -0.03283452 0.06702816 0.04344112
0000d0 77 48 8f 3c a3 d8 8a 3c 12 77 63 ba 67 6d 3d bd
       0.017490609 0.016949004 -0.00086771057 -0.046246912
0000e0 d2 a1 0c bc 37 8e 69 3d c9 10 67 3a ab 4b 6e 3b
       -0.008583503 0.057020392 0.0008814452 0.003636102
0000f0 1d ba 8a 3d 7d b3 a6 3c 5b fb 43 3d 13 ce 84 3d
       0.067737795 0.020349259 0.047847133 0.06484618
000100 f0 61 0d 3d 5b 7c 05 3d 0f 51 d4 3c c1 04 01 3d
       0.03451723 0.032589298 0.025917558 0.031498674
000110 47 70 a5 bd 6f e4 c7 bb 4b e8 86 bb b4 ee d0 bc
       -0.08078056 -0.0061002295 -0.004117047 -0.025504448
000120 2c 4b 4a bb 95 a2 a7 3a 5e 99 11 bc 13 a1 83 bd
       -0.003086756 0.0012789542 -0.008886663 -0.06427207
000130 eb 0b ea 3c 5f 18 9c 3d 8d 9d 52 bd 88 5c 83 bd
       0.028570136 0.07621836 -0.051419783 -0.06414133
000140 c0 47 52 bb 2d 55 1b bd be b0 9e bd 77 b1 74 3b
       -0.0032086223 -0.037923027 -0.07748555 0.0037337223
000150 54 42 a9 bb 5d c1 61 3d 16 c6 57 bc 5b 40 0f bc
       -0.0051653776 0.055116046 -0.013169786 -0.008743371
000160 18 83 af 3d e8 d8 a9 bd 15 a0 8e bd 4e a0 b6 bd
       0.08569926 -0.08293325 -0.06964127 -0.089172944
000170 5a c7 cb 3c de eb 22 3c d5 f9 18 3c b2 5b 7c 3d
       0.024875332 0.00994393 0.009336908 0.061610885
000180 32 8b b3 bc 16 40 2f 3b 3b a9 37 3d b3 40 8e 3b
       -0.02191696 0.002674108 0.044839125 0.004341209
000190 09 72 98 ba c4 69 33 bc cd ef 2f ba 1f 37 3e ba
       -0.0011630665 -0.010950509 -0.00067114533 -0.00072561385
0001a0 e4 6c aa 3c 5e d2 6e bd 2a eb 11 3d be ee a2 3c
       0.020803876 -0.05830609 0.03562466 0.019889232
0001b0 e3 17 f6 3c 06 f0 2b bd 01 84 12 3d 0d 78 8d bd
       0.030040687 -0.04197695 0.03577042 -0.069076635
0001c0 58 0f bc 3d 8b f9 d4 b9 f5 07 31 3b 42 e7 09 3c
       0.09182614 -0.00040621715 0.00270128 0.008416953
0001d0 34 b0 a8 bb 1f cd 49 bb 00 6e 91 bd 2c e7 b4 bb
       -0.005147958 -0.0030792428 -0.07101059 -0.005520722
0001e0 f8 a5 8f 3d f8 98 6c bc 8e 2b 18 3c 68 36 03 3d
       0.07014078 -0.0144407675 0.009287728 0.032034308
0001f0 8b bf 77 3b a8 d1 21 bd 22 de 96 3b 74 88 03 3c
       0.0037803377 -0.039506584 0.004604117 0.008028138
000200 c2 83 16 3d 58 e4 8e 3d ba 47 c9 3c 88 5b 8f bd
       0.036746748 0.06977147 0.024570335 -0.0699988
000210 7c c1 24 bc 76 0b 6f 3d 8d 79 96 3d 84 07 0d 38
       -0.010055896 0.05836054 0.07347403 3.362402e-05
000220 d2 13 41 bd e7 b8 9a bd 37 80 7f 3c 3d 7b 90 b9
       -0.047138043 -0.075547986 0.015594534 -0.0002755764
000230 a9 c8 f3 b9 2e 04 9f bc 12 bf 0d 3b b0 e2 28 3b
       -0.00046498075 -0.019411173 0.002162878 0.0025769882
000240 6e c9 dd 3a 8e a9 02 bd 4c 5f c0 b9 ae 5d 6d 3b
       0.0016920993 -0.03189998 -0.00036692095 0.0036219168
000250 ab 2a ff ba 5e 9c 57 ba 32 e2 33 39 61 5e 96 3d
       -0.0019467672 -0.00082248996 0.00017155035 0.0734222
000260 60 91 62 bb cc e6 9d 3d f2 8f b0 b9 cf b9 c2 3c
       -0.0034571514 0.07710037 -0.00033676584 0.023770241
000270 4b 7f 77 bd b7 52 73 3d 56 7a 23 3d 46 93 ea 3c
       -0.06042413 0.059405055 0.03991159 0.028634679
000280 1d 34 f3 bb 74 60 ff 3c 28 90 ab bd fd d6 9d b9
       -0.007421984 0.031173922 -0.08377105 -0.00030105552
000290 e2 31 95 3d 3a f9 5f bc df 30 8b 3c 02 eb cf bb
       0.07284905 -0.01367026 0.016991077 -0.006345154
0002a0 47 71 58 bd 73 4d 95 bc e5 45 14 bc 90 a3 68 bd
       -0.052842405 -0.018225407 -0.009049867 -0.05679661
0002b0 e3 f9 9b bb a2 92 97 bd 63 c8 90 3c 21 4b 9a 3c
       -0.0047600134 -0.07401015 0.017673677 0.018834652
0002c0 4e 45 68 3d fd 4e 88 bd 1a c9 83 bd 5c 5e 04 bd
       0.05670672 -0.06655691 -0.064348415 -0.03231655
0002d0 77 45 cc 3d b5 31 96 3d 4a 43 a4 b9 42 a2 b9 bc
       0.09974187 0.073336996 -0.00031330652 -0.022660378
0002e0 32 e4 34 3b fe c8 20 3c cf 83 97 ba 34 89 95 bb
       0.0027601835 0.009813545 -0.0011559668 -0.004563475
0002f0 95 f4 02 bd 6b fc 30 ba c0 0d 32 3d 4a 77 32 bd
       -0.031971533 -0.00067514804 0.043470144 -0.043570794
000300 a0 62 45 bb d0 fb 5c 3d c5 94 bc 3c a2 c5 83 3d
       -0.00301186 0.053951085 0.023020158 0.0643418
000310 ad 9f 90 bc 3b 63 88 3b 10 3b 25 bc db e2 a0 3d
       -0.017654264 0.00416222 -0.010084882 0.07855769
000320 24 c5 56 3b 86 04 7a bd 46 78 02 3c 73 b3 b1 3d
       0.0032771314 -0.06103947 0.007963246 0.08676805
000330 c8 a0 c1 3c 97 93 ed bc 10 35 ad 3d 89 ac 05 3d
       0.023636237 -0.02900104 0.084573865 0.032635245
000340 be b7 df ba 80 fc b4 3b 65 c7 7c 3d 69 b7 c6 3a
       -0.0017068309 0.0055232644 0.061713595 0.0015160862
000350 c1 c5 08 3b ac 25 41 3c 8b 98 76 bd 7e de e2 bc
       0.0020869824 0.011788767 -0.06020407 -0.027693983
000360 e7 53 ab bc d4 e8 e6 3c 8d 12 3d 3d e0 46 1a 3d
       -0.020914031 0.028187193 0.04616027 0.037665248
000370 2f d6 c6 3c ef 22 ad bd 32 d3 89 3b 07 4a 31 bd
       0.024272053 -0.08453929 0.0042060846 -0.04328349
000380 ea d7 96 bd 16 e4 85 b9 03 e3 72 bd 31 e3 d3 bc
       -0.07365401 -0.00025537674 -0.059298526 -0.02586517
000390 b4 8c 36 b9 87 bf 28 bd 5e 72 04 3a b0 de 1d bb
       -0.00017409289 -0.04119828 0.00050524424 -0.002408903
0003a0 48 49 bb bc 37 2b af bd ca 15 8b bd 38 ac 93 bd
       -0.022862092 -0.085531645 -0.06791265 -0.072105825
0003b0 a8 d2 4a 3d 69 a8 8e bb ae 12 9a bd 86 31 ba bc
       0.049517304 -0.004353572 -0.07523094 -0.022728693
0003c0 91 f8 33 3c 08 c4 52 bb 60 a9 84 3b 7a f9 03 bd
       0.010984556 -0.00321603 0.0040485114 -0.03222034
0003d0 82 53 45 3b 29 d9 a5 bb a9 92 52 3d e5 ee e5 3b
       0.003010959 -0.005061288 0.051409397 0.007017004
0003e0 cd ee e4 3c 82 53 7f 3c f9 78 7d bc 41 6d 05 bc
       0.0279459 0.015583875 -0.015470737 -0.008143724
0003f0 49 e0 ea 3c ea 22 31 3d 58 f5 7f 3b 3f fc 3f 3d
       0.0286714 0.043246187 0.0039056148 0.04687142

net.4.bias f4 [2]
000000 03 b4 81 bd 80 95 97 3c
       -0.06333163 0.018503904

exp_avg f4 [128, 4]
000000 c3 11 5e b5 c3 38 41 b6 08 7e 9a 33 4a be 0c 34
       -8.272729e-07 -2.879228e-06 7.194109e-08 1.3107743e-07
000010 00 00 00 00 00 00 00 00 00 00 00 00 00 00 00 00
       0.0 0.0 0.0 0.0
000020 f8 a3 ef 34 c8 76 b6 35 c3 f9 9a 34 0e bb ad 34
       4.4636522e-07 1.3594627e-06 2.886646e-07 3.235986e-07
000030 96 62 03 b5 4f 8b 4b 35 95 c0 ec b2 6b 2d 0f b3
       -4.8944764e-07 7.5826114e-07 -2.7561592e-08 -3.333609e-08
000040 d6 c2 88 b4 af 14 fb b5 4b 4b 50 33 a8 42 fa 32
       -2.5473736e-07 -1.8706977e-06 4.8497252e-08 2.9134142e-08
000050 4f e0 1a 82 ae 1e 1a 82 55 31 1f 02 2f 4c 1d 02
       -1.1378507e-37 -1.1322938e-37 1.1695633e-37 1.1556402e-37
000060 be e9 00 b5 64 b1 37 35 d5 a0 05 32 01 4e 47 34
       -4.8023855e-07 6.843095e-07 7.778188e-09 1.8561697e-07
000070 d6 26 01 b6 a4 b3 ab 35 44 07 d7 34 33 99 09 34
       -1.9245103e-06 1.2792775e-06 4.0052157e-07 1.2814853e-07
000080 40 8e 64 b3 89 e9 af b5 c0 c4 45 b3 20 af 00 34
       -5.3214762e-08 -1.3106484e-06 -4.604658e-08 1.1984639e-07
000090 12 53 0e b6 7e a1 1d b6 cf d2 6c 34 6b 91 64 b4
       -2.1208002e-06 -2.3488824e-06 2.2055904e-07 -2.1287057e-07
0000a0 16 84 77 b5 59 df 3e 35 01 f3 05 34 4c 16 40 b3
       -9.220688e-07 7.110553e-07 1.2474995e-07 -4.4723762e-08
0000b0 97 56 94 35 9e 40 4e 36 11 74 8f 34 16 6c 8f b3
       1.105206e-06 3.0734004e-06 2.6720275e-07 -6.678617e-08
0000c0 10 7c dd b4 e4 7d 86 36 9a 24 dc 34 00 27 c1 33
       -4.1254725e-07 4.008167e-06 4.1004824e-07 8.994357e-08
0000d0 78 26 2e 35 68 d4 75 35 20 d7 19 b2 a8 62 d8 b3
       6.487603e-07 9.1578704e-07 -8.954686e-09 -1.0076229e-07
0000e0 30 fc f6 b3 b2 77 a6 34 04 85 3f 34 80 ef 87 31
       -1.150114e-07 3.1007e-07 1.7836652e-07 3.956245e-09
0000f0 ee 97 8d b5 c1 e8 28 36 fb 49 18 35 b0 d6 be 34
       -1.0549536e-06 2.5169431e-06 5.673207e-07 3.5546464e-07
000100 00 ca 0b b2 43 c2 ff 35 49 38 97 34 c1 fa 9b 33
       -8.136794e-09 1.9055518e-06 2.8166895e-07 7.263362e-08
000110 46 c1 d0 b5 e8 4f 85 b4 52 af 89 34 57 eb 00 35
       -1.5553458e-06 -2.483132e-07 2.56458e-07 4.802618e-07
000120 f0 4b 1b 35 06 2d 3b 36 07 32 52 34 9c 37 5e 33
       5.7852503e-07 2.7891379e-06 1.9575974e-07 5.173898e-08
000130 a4 75 e6 35 70 c7 02 34 20 ca 8f b4 60 56 a2 33
       1.7170573e-06 1.2179748e-07 -2.678289e-07 7.5594244e-08
000140 42 86 c9 b5 20 e7 0d b5 ff 7f 83 34 c5 6d ca 34
       -1.5014741e-06 -5.2862924e-07 2.449378e-07 3.77053e-07
000150 60 74 4d 34 e2 16 4d 36 41 f5 73 34 48 e9 f4 b2
       1.913445e-07 3.05607e-06 2.2720361e-07 -2.8511423e-08
000160 56 bf 9a b5 b1 e2 54 b6 c4 9f ae b3 b6 38 0c 34
       -1.152958e-06 -3.1722413e-06 -8.1315676e-08 1.3059147e-07
000170 48 34 f3 b5 22 88 80 b6 bf d1 33 34 12 f5 80 34
       -1.8120127e-06 -3.830545e-06 1.6746979e-07 2.402017e-07
000180 a8 f7 5e 35 27 51 7a 35 3e 40 8c b3 e7 c6 0d 34
       8.306183e-07 9.325035e-07 -6.5309436e-08 1.3204009e-07
000190 66 61 9d 34 88 cd 3d b4 dc db 09 b3 b0 1c 10 32
       2.9314396e-07 -1.7676768e-07 -3.209776e-08 8.388426e-09
0001a0 4a c9 d6 b4 d6 37 e3 35 74 03 2f 34 f0 fc be b3
       -4.0007063e-07 1.6929068e-06 1.6299401e-07 -8.8935735e-08
0001b0 5f 26 92 b5 30 f0 62 34 82 5d dd 33 7f 6f d5 34
       -1.0889015e-06 2.113527e-07 1.03081234e-07 3.9755466e-07
0001c0 a2 8d 6f b6 95 15 86 36 16 c6 46 35 0b c1 8f 33
       -3.5696216e-06 3.9960237e-06 7.4049e-07 6.694071e-08
0001d0 09 65 fb b5 13 d3 68 36 14 83 28 35 ef 35 fb 33
       -1.8730362e-06 3.4693555e-06 6.277562e-07 1.1697909e-07
0001e0 2a 95 b3 b5 da 21 e5 35 35 c4 ac 34 3a 26 98 33
       -1.3379952e-06 1.7071682e-06 3.2180256e-07 7.085005e-08
0001f0 6b 64 c5 b4 68 e7 91 b5 60 fb 45 31 7e 06 6b 34
       -3.6767173e-07 -1.087069e-06 2.8810163e-09 2.1888442e-07
000200 ad 25 83 35 a0 ab 2c 36 52 e3 86 33 b0 2d 2f b3
       9.771226e-07 2.5729896e-06 6.2812106e-08 -4.0786915e-08
000210 66 a2 02 35 90 2b 04 b5 aa 24 a1 33 ec 70 82 33
       4.8665095e-07 -4.9237224e-07 7.503816e-08 6.074137e-08
000220 70 25 9e b5 e0 a7 d7 b3 d8 c5 83 34 1c 63 0e 35
       -1.1782813e-06 -1.0042254e-07 2.4544602e-07 5.3043345e-07
000230 ac da 8a 35 14 9a b3 36 a5 68 90 34 fa 13 c5 33
       1.0345443e-06 5.3525528e-06 2.689823e-07 9.177161e-08
000240 da 83 83 b5 cf d3 52 b5 6a ed a3 33 7e c6 01 34
       -9.798634e-07 -7.853932e-07 7.633464e-08 1.2086272e-07
000250 c8 06 15 35 a9 a6 fc 35 43 f7 a9 34 35 0e e3 34
       5.5516693e-07 1.8823968e-06 3.165861e-07 4.2292382e-07
000260 16 0a e9 b5 f8 21 37 35 56 b0 9e 34 bf 4d cc 33
       -1.7362788e-06 6.8222243e-07 2.9558095e-07 9.513632e-08
000270 72 4f af b5 25 fb 08 b6 61 57 2f 34 f5 46 e8 b3
       -1.3061638e-06 -2.0411765e-06 1.6329933e-07 -1.0816249e-07
000280 86 a2 e9 b4 de 84 f2 b4 92 14 94 32 6a b6 2c 33
       -4.3517883e-07 -4.5172686e-07 1.7238822e-08 4.0212775e-08
000290 20 43 60 33 82 86 05 36 59 3e 5f 34 da 47 9a 33
       5.2215114e-08 1.9896838e-06 2.0791175e-07 7.1842535e-08
0002a0 3c d4 42 b6 ad e5 58 36 27 3f 44 35 95 3c 12 34
       -2.903179e-06 3.2320197e-06 7.310759e-07 1.3619349e-07
0002b0 4a d6 19 02 34 66 16 82 7e a6 17 82 85 50 1a 02
       1.1302163e-37 -1.104959e-37 -1.1141509e-37 1.1337241e-37
0002c0 00 59 80 b4 44 bf ea b5 88 47 27 34 a4 24 79 34
       -2.3906614e-07 -1.7490024e-06 1.557911e-07 2.3203262e-07
0002d0 25 9a 9c b4 99 23 c3 b4 31 e4 0a 33 52 6f 32 33
       -2.916942e-07 -3.634748e-07 3.2338168e-08 4.15451e-08
0002e0 c0 fd c1 b5 29 b4 1a b6 1a e0 56 34 c1 ae 3b b4
       -1.4453472e-06 -2.3052655e-06 2.0011831e-07 -1.7479307e-07
0002f0 44 8d 1a 82 e0 b7 1a 82 9f 6e 14 82 8a ce 14 02
       -1.1354674e-37 -1.1366903e-37 -1.090507e-37 1.0932597e-37
000300 7e c4 03 b6 64 16 7e b6 b5 81 2c 34 6e c6 37 b4
       -1.9634895e-06 -3.7861982e-06 1.6065935e-07 -1.7115391e-07
000310 55 15 da b5 8e c0 8f b5 0c 9d 82 34 52 b4 4b 34
       -1.6248474e-06 -1.0710371e-06 2.4328654e-07 1.8971448e-07
000320 56 81 7d b5 1a ec ba b5 36 11 b8 33 68 8b f9 34
       -9.4438053e-07 -1.3926795e-06 8.571298e-08 4.6481296e-07
000330 6f 7f 1b 02 2f ff 12 82 22 09 1e 82 4d a5 1e 82
       1.1424173e-37 -1.079962e-37 -1.1610628e-37 -1.1655446e-37
000340 b3 20 a6 35 29 3c 08 35 d4 94 22 b4 56 0d 41 b3
       1.237748e-06 5.075149e-07 -1.5141569e-07 -4.4948443e-08
000350 88 66 0c b5 ba 62 73 b6 3c 63 04 b3 b0 8e cb 34
       -5.2303267e-07 -3.6267288e-06 -3.0823898e-08 3.7915515e-07
000360 00 00 00 00 00 00 00 00 00 00 00 00 00 00 00 00
       0.0 0.0 0.0 0.0
000370 20 90 c4 34 a0 32 15 34 e8 85 bd 33 50 27 9f 32
       3.661271e-07 1.3895124e-07 8.825356e-08 1.8527913e-08
000380 0d e2 0f 36 38 06 f8 34 5c bc 91 b4 20 71 da b2
       2.144024e-06 4.6198124e-07 -2.7145404e-07 -2.5429983e-08
000390 ca 0a 5f b6 a8 32 8d 34 7f 7a 1b 35 0e 2d 03 34
       -3.323587e-06 2.6300154e-07 5.7920255e-07 1.2216717e-07
0003a0 31 8e 4f b6 9b 69 3d b6 a0 dc a3 34 7c 4a 28 34
       -3.092817e-06 -2.8224665e-06 3.0521642e-07 1.5673317e-07
0003b0 2a 4e 1c 02 96 e3 16 82 56 50 12 82 32 9b 14 82
       1.1483502e-37 -1.1085573e-37 -1.0749441e-37 -1.0917862e-37
0003c0 c8 8d 21 34 83 3d e7 34 77 07 ce 32 fa 9c a6 32
       1.5045873e-07 4.307186e-07 2.3984951e-08 1.9396328e-08
0003d0 f0 b8 8c b5 bc bc 01 36 88 1d b3 34 5f 36 e6 34
       -1.0484637e-06 1.9332356e-06 3.3362835e-07 4.28804e-07
0003e0 4c 4b 02 b5 be c2 48 b6 14 6a 4b b4 f4 41 d1 b3
       -4.8538345e-07 -2.9915677e-06 -1.8944439e-07 -9.744318e-08
0003f0 9e 3d 27 b6 f9 46 e5 35 bc 65 01 35 ce 5c c3 33
       -2.4920805e-06 1.7082485e-06 4.820429e-07 9.097276e-08

exp_avg_sq f4 [128, 4]
000000 7d 1c 52 31 62 28 8b 31 2b d8 99 2e 46 3d 1a 2e
       3.0575216e-09 4.0500234e-09 6.9960336e-11 3.5069968e-11
000010 00 00 00 00 00 00 00 00 00 00 00 00 00 00 00 00
       0.0 0.0 0.0 0.0
000020 7f b8 82 31 64 c5 79 31 fc 0b d3 2e 04 85 75 2d
       3.8044727e-09 3.6346472e-09 9.597298e-11 1.3956173e-11
000030 1d a8 74 30 ad 96 36 30 09 1e 95 2d 2c 39 1d 2c
       8.9005586e-10 6.642534e-10 1.6952677e-11 2.2342779e-12
000040 db 39 49 31 33 15 8c 31 dd 77 a3 2e 32 f1 0c 2e
       2.9282237e-09 4.0769463e-09 7.433674e-11 3.204654e-11
000050 2c 41 40 18 20 b0 00 18 a6 e6 b4 14 43 87 6e 14
       2.4848322e-24 1.6632533e-24 1.826633e-26 1.2042605e-26
000060 95 af 12 31 cb fb 7b 31 93 0b 94 2e 65 ab 43 2e
       2.1345603e-09 3.6668435e-09 6.732317e-11 4.4490096e-11
000070 84 91 42 30 e7 6d 1a 31 2e b6 aa 2d 9c 49 b3 2d
       7.078358e-10 2.2472422e-09 1.9407666e-11 2.0382633e-11
000080 e1 00 70 31 ae 0f 2d 31 7d 94 ce 2e a5 70 27 2d
       3.4925096e-09 2.5183726e-09 9.394172e-11 9.517863e-12
000090 89 70 9a 31 d3 b3 b4 31 ed 59 17 2f e1 72 8e 2e
       4.4947837e-09 5.259133e-09 1.3765318e-10 6.477819e-11
0000a0 d3 4b a4 2f a1 6b 9b 30 79 a0 f1 2c 05 dd 86 2d
       2.9885303e-10 1.1308324e-09 6.867448e-12 1.5332189e-11
0000b0 bd 2d a6 31 96 12 f2 31 54 72 16 2f 6f 08 94 2e
       4.8364357e-09 7.04524e-09 1.3683038e-10 6.731759e-11
0000c0 79 af 8c 31 6a 96 cd 31 c2 ec 00 2f ba 48 8d 2e
       4.094485e-09 5.9833853e-09 1.1725645e-10 6.4248565e-11
0000d0 2a 2b 53 31 62 bc 52 31 80 83 6a 2e 4b b4 33 2e
       3.0729077e-09 3.0666105e-09 5.3322236e-11 4.086002e-11
0000e0 44 c2 b0 30 ec b0 b1 30 fe 78 03 2e f9 1f 3f 2d
       1.2860899e-09 1.2928729e-09 2.9893414e-11 1.0864192e-11
0000f0 52 1a 18 31 21 61 9e 31 f7 ea a1 2e d9 07 59 2e
       2.2133873e-09 4.6094475e-09 7.3631705e-11 4.9347058e-11
000100 6d b6 20 31 bd 08 1b 31 0b 8c 74 2e 62 c2 d7 2d
       2.3386761e-09 2.2560436e-09 5.560356e-11 2.4528993e-11
000110 6a 71 3c 31 29 9f 9b 31 9a da fb 2e 7c f5 3f 2e
       2.742207e-09 4.529188e-09 1.145299e-10 4.3646406e-11
000120 a2 c7 19 31 b1 92 0f 31 2f 72 6b 2e eb 8d 86 2d
       2.2377908e-09 2.0892623e-09 5.353423e-11 1.529706e-11
000130 03 f5 c5 31 c7 46 01 31 45 ec fc 2e df d2 00 2e
       5.761309e-09 1.8812203e-09 1.1501603e-10 2.929112e-11
000140 5b de fe 30 8a c8 84 31 ba 37 84 2e 6b 02 f3 2d
       1.854413e-09 3.8645043e-09 6.012564e-11 2.7626975e-11
000150 e4 7f 22 31 ba dd 68 31 71 b3 a1 2e e6 04 2a 2e
       2.36468e-09 3.388648e-09 7.3533075e-11 3.8657876e-11
000160 81 e6 9e 31 86 be ce 31 c0 e3 1d 2f 11 1c 97 2e
       4.6246105e-09 6.017049e-09 1.435998e-10 6.8716706e-11
000170 c1 5f 65 31 90 6a 00 32 dc c4 dc 2e b3 26 93 2e
       3.3378316e-09 7.47481e-09 1.0039411e-10 6.6916604e-11
000180 49 5a 95 31 3a 68 2a 31 1a cf dc 2e b5 ee 16 2d
       4.346735e-09 2.4797502e-09 1.00412303e-10 8.5795164e-12
000190 bf da 95 30 c5 0c 27 30 9b ed b2 2d 69 e2 25 2d
       1.0903348e-09 6.077239e-10 2.0341775e-11 9.429437e-12
0001a0 02 de 91 2f 49 a5 35 30 80 40 f3 2c e3 35 7a 2c
       2.6533092e-10 6.60823e-10 6.9136363e-12 3.555705e-12
0001b0 9e 15 83 31 36 6b b8 31 c6 b1 08 2f 76 61 9f 2e
       3.8150594e-09 5.3672933e-09 1.2432286e-10 7.2477954e-11
0001c0 36 70 c2 30 7d ff ce 31 2b d2 2d 2e 2a b4 48 2e
       1.414725e-09 6.0244347e-09 3.9522313e-11 4.5634753e-11
0001d0 fb 5c 07 31 a3 8a d5 31 26 62 6b 2e 4d 58 6b 2e
       1.9697939e-09 6.214877e-09 5.3519987e-11 5.351124e-11
0001e0 05 f8 95 2f 7a 02 a2 30 1d ef dd 2c 8d 25 fb 2c
       2.727917e-10 1.1787755e-09 6.3077447e-12 7.138018e-12
0001f0 82 e1 02 31 2d d4 67 30 33 6e 42 2e 52 a8 7a 2d
       1.9045676e-09 8.433883e-10 4.420837e-11 1.4248229e-11
000200 aa 41 2b 31 dc 91 84 31 8b cd a2 2e f8 8e 20 2e
       2.49211e-09 3.858288e-09 7.403419e-11 3.650677e-11
000210 b5 0b 8b 31 5a 6e 92 31 5a 89 ee 2e c1 79 65 2e
       4.0467634e-09 4.2617048e-09 1.08473855e-10 5.217671e-11
000220 4c 4e 52 31 bf a8 66 31 ca 0a e1 2e fe a3 1d 2e
       3.0603529e-09 3.3565326e-09 1.0233732e-10 3.584332e-11
000230 5f f9 bf 31 29 72 b3 31 2b 61 34 2f c5 52 96 2e
       5.587182e-09 5.222564e-09 1.6405426e-10 6.835913e-11
000240 45 5b ac 30 47 e5 e0 30 44 71 17 2e 62 7d ad 2d
       1.2540587e-09 1.636331e-09 3.4434025e-11 1.9723504e-11
000250 ae 00 bf 31 8c 49 8c 31 c9 39 12 2f f9 22 9c 2d
       5.558909e-09 4.0828976e-09 1.3299152e-10 1.7750678e-11
000260 a9 fa e6 2f fe 0a b5 30 95 57 f8 2c 7b 28 33 2d
       4.201486e-10 1.3172607e-09 7.0583075e-12 1.01839604e-11
000270 be 24 91 31 42 47 d3 31 b3 f7 e2 2e cf 5b 7b 2e
       4.2242325e-09 6.1490093e-09 1.03212904e-10 5.7152335e-11
000280 f3 2e 0a 31 bf 57 99 30 ee 45 34 2e 07 59 98 2c
       2.010833e-09 1.1157154e-09 4.098937e-11 4.329984e-12
000290 35 e8 1d 31 42 7c 50 31 ac 56 84 2e e9 fe d1 2d
       2.2978501e-09 3.0338616e-09 6.018061e-11 2.3873752e-11
0002a0 8f aa e5 30 4b 6f d5 31 55 ae 41 2e 6c 75 77 2e
       1.6710419e-09 6.2117684e-09 4.4037957e-11 5.626559e-11
0002b0 80 b6 11 1e ad f8 8d 1d 34 52 d9 1a c0 62 49 19
       7.713976e-21 3.7579514e-21 8.98819e-23 1.0411399e-23
0002c0 a9 d4 ee 31 59 f6 df 31 b0 e7 9a 2f f5 dd da 2e
       6.9508883e-09 6.5181607e-09 2.817706e-10 9.95292e-11
0002d0 fc 50 8b 2e f2 75 4b 2f ec d1 d0 2b a7 85 8f 2b
       6.335374e-11 1.8504645e-10 1.4837554e-12 1.0197857e-12
0002e0 04 39 7f 31 a1 15 a4 31 a6 4d ba 2e ed ac 77 2e
       3.7139793e-09 4.775487e-09 8.472094e-11 5.6314887e-11
0002f0 bd a1 3d 2b a6 69 ba 2b 29 86 2e 29 cc ee 27 28
       6.7370745e-13 1.3245418e-12 3.8752127e-14 9.322143e-15
000300 d2 b7 a8 31 57 7f ef 31 37 6d fa 2e ee 95 b8 2e
       4.9103415e-09 6.9702923e-09 1.1388084e-10 8.393984e-11
000310 a1 19 5e 30 59 fd f4 30 26 49 c6 2d d9 ae 9d 2d
       8.079955e-10 1.7825342e-09 2.2542478e-11 1.7926481e-11
000320 56 1b 73 31 f8 08 15 31 11 5f f9 2e 08 8f 1f 2e
       3.5376693e-09 2.1687452e-09 1.1340096e-10 3.627945e-11
000330 e5 59 4a 13 71 ee 89 14 a2 3a 32 11 d4 64 10 10
       2.5540306e-27 1.3927513e-26 1.4059792e-28 2.8476668e-29
000340 d1 ee 73 30 2d bf d6 2f 98 15 46 2d dc ce 95 2c
       8.8742264e-10 3.9062212e-10 1.1259792e-11 4.2578007e-12
000350 62 5c 31 31 8d 5a b0 30 27 98 77 2e 1b 14 da 2d
       2.5809404e-09 1.2831421e-09 5.6296436e-11 2.479266e-11
000360 00 00 00 00 00 00 00 00 00 00 00 00 00 00 00 00
       0.0 0.0 0.0 0.0
000370 74 1c d4 31 1c 28 21 32 f5 f1 05 2f 52 85 e3 2e
       6.173247e-09 9.380553e-09 1.218224e-10 1.0346447e-10
000380 a6 19 dd 31 be fc 4c 31 28 c9 0e 2f 70 65 5f 2e
       6.4348624e-09 2.9829574e-09 1.298629e-10 5.0794424e-11
000390 c3 35 0c 31 7e 55 b7 31 5c 22 3a 2e 31 6c 6a 2e
       2.0403241e-09 5.3357203e-09 4.232202e-11 5.3301533e-11
0003a0 a2 06 a4 30 07 d1 83 31 be aa f1 2d ff 6b b4 2d
       1.1934456e-09 3.8363654e-09 2.7474353e-11 2.051159e-11
0003b0 a6 29 33 17 c4 82 73 18 48 59 df 14 2c 14 e2 13
       5.7890587e-25 3.1473034e-24 2.2552461e-26 5.707031e-27
0003c0 fc 77 08 30 f6 59 1a 30 57 ed 6a 2d 98 76 06 2c
       4.964702e-10 5.6152716e-10 1.335406e-11 1.9108378e-12
0003d0 08 92 2e 31 d1 96 a0 31 2d de b3 2e 19 f9 39 2e
       2.5403342e-09 4.6737587e-09 8.179444e-11 4.2285373e-11
0003e0 ed bf d8 31 f5 35 c1 31 6c 50 56 2f 5b d5 a1 2e
       6.308247e-09 5.6231735e-09 1.9491758e-10 7.359332e-11
0003f0 cf ab 37 30 71 bd 4c 31 44 6a 93 2d 68 00 b4 2d
       6.6819167e-10 2.9793592e-09 1.6759157e-11 2.0463811e-11

exp_avg f4 [128]
000000 a0 4c 00 b6 00 00 00 00 66 fa 36 b5 c0 19 4a b4
       -1.9118088e-06 0.0 -6.816466e-07 -1.8822084e-07
000010 2a 1c 87 b4 2c 6a 19 02 c8 7a 4d 34 fc e0 b6 b5
       -2.5166202e-07 1.1271135e-37 1.913678e-07 -1.3625536e-06
000020 b4 39 1a b5 30 7d 19 b4 3c d9 33 b5 7e f4 3f b6
       -5.745344e-07 -1.4294778e-07 -6.6998814e-07 -2.860353e-06
000030 89 57 3c b6 c0 11 b8 b3 ec 27 c8 b5 e5 6b 83 b6
       -2.8065135e-06 -8.5713964e-08 -1.491278e-06 -3.916665e-06
000040 83 5b b5 b5 22 24 07 b6 8b 1a 39 b6 ba 46 aa b5
       -1.3512184e-06 -2.01376e-06 -2.7582598e-06 -1.2686571e-06
000050 e2 6f e5 b5 ca 6f 17 b6 01 69 a2 35 19 57 57 b6
       -1.7094392e-06 -2.2565823e-06 1.2100501e-06 -3.2088194e-06
000060 e3 42 03 35 fc dd 15 b4 41 d5 ba b5 52 a8 06 b5
       4.8898636e-07 -1.3957464e-07 -1.3920145e-06 -5.016383e-07
000070 cb 05 79 b6 be 0e 8b b6 86 b6 b3 b5 30 27 ec 33
       -3.7107263e-06 -4.144239e-06 -1.3389661e-06 1.09967345e-07
000080 ae 70 ef b5 ae 38 bb b5 81 cd 5e b6 bc 32 56 b6
       -1.7839682e-06 -1.3949082e-06 -3.3200197e-06 -3.1918016e-06
000090 e9 19 d8 34 8c b3 e8 b5 fc 96 fc b4 ca 32 4d b5
       4.0251987e-07 -1.7337602e-06 -4.7048513e-07 -7.644236e-07
0000a0 64 9f d3 b4 9a e6 36 b6 c6 27 50 b6 e4 73 1f 02
       -3.9417785e-07 -2.7254341e-06 -3.1017566e-06 1.1714734e-37
0000b0 92 f6 27 36 0f 16 d3 b4 fe 49 17 b5 06 7b 19 02
       2.5028462e-06 -3.9317862e-07 -5.6359556e-07 1.1275971e-37
0000c0 e0 31 68 b3 24 4b 6d b5 b8 3c 00 b4 6d 31 18 02
       -5.406207e-08 -8.8398724e-07 -1.1943018e-07 1.1181381e-37
0000d0 77 37 e5 b4 74 9a 56 35 00 00 00 00 34 7b 58 b5
       -4.269493e-07 7.994597e-07 0.0 -8.0645555e-07
0000e0 fa e1 0b b6 f0 ca d4 32 66 56 44 b6 c3 b2 1c 02
       -2.084415e-06 2.4772334e-08 -2.9256566e-06 1.1512372e-37
0000f0 7a 54 ba b3 29 03 59 b6 ab 5c 09 36 45 fe bf b5
       -8.676666e-08 -3.233736e-06 2.046853e-06 -1.4304611e-06
000100 5f ee 90 b6 e0 b2 47 b6 1b f3 8b b6 68 ca fa b5
       -4.3192845e-06 -2.975743e-06 -4.170824e-06 -1.868536e-06
000110 08 54 30 b4 68 77 0d b5 58 c5 51 b6 f5 a1 f8 b5
       -1.6421848e-07 -5.270035e-07 -3.1258296e-06 -1.8524576e-06
000120 92 e9 ef b4 0e d3 8c b6 ce ad d4 35 64 78 1e 02
       -4.4687164e-07 -4.196895e-06 1.5845815e-06 1.1642557e-37
000130 e7 44 0c b6 c0 17 4b b4 e9 7b 4a b4 78 e9 a7 35
       -2.0901732e-06 -1.8914488e-07 -1.8857794e-07 1.2510418e-06
000140 e8 81 20 35 e6 2c 4d b6 c7 9b 0f 36 3e 01 d8 35
       5.9793683e-07 -3.0573515e-06 2.1399335e-06 1.6093616e-06
000150 34 b7 4d b6 00 00 00 00 98 9a 5f b5 58 91 b6 33
       -3.0654019e-06 0.0 -8.329894e-07 8.501473e-08
000160 5b 32 a9 b5 9f dc f2 b5 54 e7 f9 33 59 d2 5a b6
       -1.2606137e-06 -1.8094614e-06 1.16370444e-07 -3.260697e-06
000170 0c 2a 5f 35 78 75 ec b4 1d b0 a2 34 04 d7 73 b6
       8.313516e-07 -4.4043895e-07 3.030299e-07 -3.6334977e-06
000180 35 74 00 b5 d7 89 c3 b5 22 2e e1 b4 80 5f 74 33
       -4.785282e-07 -1.4568749e-06 -4.1943082e-07 5.6897534e-08
000190 41 bd f6 b5 9e d2 45 b6 fa 6e 80 35 5b 48 af b5
       -1.8383508e-06 -2.9477883e-06 9.569042e-07 -1.3059574e-06
0001a0 e6 8c e8 b5 00 be 14 02 d2 f1 97 b5 04 ea 9d 34
       -1.7326354e-06 1.092785e-37 -1.1320756e-06 2.9413798e-07
0001b0 92 4b 23 b6 6b eb e8 b4 47 10 95 b5 76 b2 93 b5
       -2.433288e-06 -4.3384657e-07 -1.1106102e-06 -1.1004292e-06
0001c0 e7 93 ca b6 73 1f 33 35 cf a9 1d b6 28 c2 35 b4
       -6.037287e-06 6.672846e-07 -2.3493665e-06 -1.6927572e-07
0001d0 93 75 1a 02 e0 d8 d6 b5 47 37 87 35 d5 78 03 b6
       1.1347875e-37 -1.6007361e-06 1.0074372e-06 -1.9590855e-06
0001e0 4e 32 7a b6 44 7b ae b5 53 6e 93 b6 42 8e 15 b5
       -3.7282184e-06 -1.2999885e-06 -4.393785e-06 -5.571384e-07
0001f0 fe ce 50 b6 52 37 fc b5 d2 58 9a b5 d3 c9 11 02
       -3.11149e-06 -1.8791563e-06 -1.1499744e-06 1.0710838e-37
