checkpoints_wall/baseline_final.pt (torch, 217069 bytes, 18 tensors)

net.0.weight f4 [128, 4]
0	0x3e8a76e6	0.27043837
1	0x3eaa6ef8	0.33287787
2	0xbda36481	-0.07978154
3	0x3ecb720e	0.39735454
4	0xbde05cb0	-0.10955179
5	0x3dcea238	0.100895345
6	0xbe794510	-0.24342752
7	0x3e965828	0.29364133
8	0x3f0023d9	0.500547
9	0xbea4c622	-0.32182413
10	0x3e937a29	0.28804138
11	0x3dcb0575	0.0991315
12	0x3ebb5a85	0.36592498
13	0x3debc13c	0.11511466
14	0x3eb6dcc8	0.35715318
15	0x3e6900c9	0.22754206
16	0x3eb61cd4	0.3556887
17	0x3dbf677b	0.09345909
18	0xbe209d40	-0.15684986
19	0x3e3e0a70	0.18558669
20	0xbe3f718a	-0.18695655
21	0xbcff4e17	-0.031165166
22	0xbe7db11e	-0.24774596
23	0x3e9c5ae6	0.305381
24	0xbe9e1a96	-0.30879658
25	0xbdcf1887	-0.101121
26	0xbebeb9ed	-0.37251225
27	0xbe6b7001	-0.22991945
28	0x3cc4d97a	0.024029482
29	0xbeb75ac2	-0.3581143
30	0x3ee8d05c	0.45471466
31	0xbeace3a9	-0.3376744
32	0x3ea2ed05	0.31821457
33	0x3d7ed296	0.06221255
34	0xbd8a154c	-0.06742343
35	0x3b59db8f	0.003324244
36	0x3d38bb0c	0.045100257
37	0x3eb3a8e9	0.35089806
38	0x3d94e8df	0.07270979
39	0xbd6a90d9	-0.057267044
40	0x3d8fe496	0.07026021
41	0xbd92b668	-0.071636975
42	0x3eba3c6a	0.36374217
43	0x3e8d4192	0.2758909
44	0x3ea47e4c	0.32127607
45	0xbe348e16	-0.17632326
46	0x3e41971f	0.18905304
47	0xbd5da2a7	-0.054110195
48	0x3e6c3ddb	0.23070471
49	0xbe927b88	-0.28609872
50	0xbefd0e08	-0.49424767
51	0xbe4009f9	-0.18753804
52	0xbec51a91	-0.3849683
53	0x3ee93239	0.4554613
54	0x3d061421	0.03273404
55	0x3df88e49	0.12136514
56	0x3ddd5881	0.108078964
57	0xbbb28eab	-0.0054491363
58	0x3ea95e4a	0.3307975
59	0xbe411722	-0.1885648
60	0x3ccbfac9	0.024899857
61	0xbe982deb	-0.29722533
62	0x3d8963ec	0.06708512
63	0xbddb40e3	-0.107057355
64	0x3df2404f	0.11828672
65	0xbd997089	-0.074921675
66	0x3e9f51f5	0.31117216
67	0xbe0a0147	-0.1347705
68	0xbe5d1dca	-0.21593395
69	0xbe93137e	-0.2872581
70	0x3e80fbb9	0.2519205
71	0x3e106b9b	0.14103548
72	0x3ea66ace	0.3250336
73	0xbe96ec62	-0.2947722
74	0xbde4c602	-0.111705795
75	0xbe05bec1	-0.13061048
76	0xbeb3b26f	-0.35097072
77	0x3e3cc047	0.18432723
78	0x3e57067f	0.20998572
79	0x3e9a61f6	0.30152863
80	0xbe640056	-0.22265753
81	0xbe8a8ba8	-0.27059674
82	0x3d8b8276	0.06811993
83	0xbea2f1ce	-0.31825107
84	0x3e6e22b2	0.23255423
85	0xbe1835b6	-0.14864239
86	0x3e8eab54	0.27865088
87	0xbebb02ba	-0.36525518
88	0xbe4e2ffa	-0.20135489
89	0x3e244eea	0.16045728
90	0xbc061680	-0.008184075
91	0xbcef6e2c	-0.029227339
92	0x3e7172d3	0.23578958
93	0x3eaa2983	0.33234796
94	0xbea47792	-0.32122475
95	0xbe2df7fc	-0.1698913
96	0x3f0817ea	0.5316149
97	0xbe47920e	-0.19489309
98	0xbe2a8488	-0.16652119
99	0xbd8cfc45	-0.06884054
100	0xbdb9b8d9	-0.0906846
101	0x3aff9782	0.0019500109
102	0xbe94d7b0	-0.29070807
103	0xbe2c054d	-0.16798897
104	0x3b770298	0.0037690755
105	0xbe9ce551	-0.30643705
106	0xbeb7ac50	-0.35873652
107	0xbd54ad6b	-0.051923197
108	0xbebec6b2	-0.37260967
109	0xbe547bbc	-0.20750326
110	0x3eb6edb9	0.35728243
111	0x3de5c948	0.11220032
112	0xbd1d64e5	-0.0384263
113	0xbef51b64	-0.4787246
114	0xbdeafced	-0.11474023
115	0x3ddd6b1a	0.108114436
116	0x3d927b4a	0.07152422
117	0xbece3014	-0.40271056
118	0xbd41f1ac	-0.047349617
119	0xbe016668	-0.12636721
120	0xbb4e604d	-0.0031490505
121	0xbdda0a5f	-0.106465094
122	0x3d7c6f18	0.061629385
123	0xbe5ce847	-0.21572982
124	0xbe79ba20	-0.24387407
125	0xbdf36773	-0.11884966
126	0xbe28afa0	-0.16473246
127	0xbe9501db	-0.29102978
128	0x3ebbce46	0.36680812
129	0xbe247236	-0.16059193
130	0x3ee3db1d	0.44503108
131	0x3e25efce	0.1620476
132	0xbea3a89b	-0.31964573
133	0x3e936972	0.28791386
134	0xbe3c232f	-0.18372796
135	0x3cbd4439	0.02310382
136	0xbea2b0e2	-0.31775576
137	0xbeca4514	-0.39505827
138	0xbd0a7c89	-0.033810172
139	0xbdd5d510	-0.10441029
140	0x3e3724f8	0.17885196
141	0xbed68dda	-0.419051
142	0x3e819af5	0.25313535
143	0xbec49232	-0.38392788
144	0xbda0d5c9	-0.07853276
145	0x3cf892ff	0.03034353
146	0x3e15eb7c	0.14640611
147	0x3ec90596	0.39262074
148	0x3efb7b25	0.4911739
149	0xbe97daff	-0.29659268
150	0x3db856bc	0.09000918
151	0xbe057b76	-0.13035378
152	0xbd123317	-0.035693254
153	0xbe8bc823	-0.2730113
154	0x3ece2bfb	0.4026793
155	0xbe47906b	-0.19488685
156	0x3e40c0f1	0.18823601
157	0x3df08938	0.117449224
158	0x3e4763a3	0.19471602
159	0xbe8ecf5b	-0.27892575
160	0x3ea68918	0.3252647
161	0x3e0ac5c2	0.13552001
162	0x3e7e4921	0.24832584
163	0xbdec8ac1	-0.11549903
164	0x3e09aab4	0.13444024
165	0xbd2f2e77	-0.04276892
166	0xbdb1d5e5	-0.08683375
167	0x3e7afa14	0.2450946
168	0x3c4f3bdc	0.012648549
169	0xbe8db63c	-0.27678096
170	0xbe038082	-0.1284199
171	0x3caea9ed	0.021321261
172	0x3e3bc9d9	0.18338718
173	0xbc83be01	-0.016081812
174	0xbe0d96be	-0.13827035
175	0xbe10be75	-0.14135154
176	0xbeb68758	-0.35650134
177	0x3e246b68	0.16056597
178	0x3e771df9	0.24132527
179	0xbe99fcc3	-0.30075654
180	0x3c9b6316	0.018968146
181	0x3d404412	0.046939917
182	0x3e4ea08a	0.20178428
183	0x3c4915f7	0.012273303
184	0x3e57aff9	0.21063222
185	0x3e85b231	0.26112512
186	0x3e350766	0.17678604
187	0xbdbdcf69	-0.09268076
188	0xbcd39ba3	-0.02583105
189	0xb9daca1c	-0.00041730783
190	0xbe338bab	-0.17533748
191	0x3ca00f4a	0.01953854
192	0x3ea19361	0.31557754
193	0x3edc2c61	0.43002608
194	0xbb0946a4	-0.0020946646
195	0xbe0dafd4	-0.13836604
196	0xbd8c7303	-0.06857874
197	0x3ca3e6e6	0.020007562
198	0x3de88202	0.11352922
199	0x3e74a8f4	0.23892576
200	0xbea5ef0c	-0.3240894
201	0xbe2b3937	-0.16721044
202	0x3e3cd3cc	0.18440169
203	0x3d235507	0.03987601
204	0xbd765e36	-0.06014844
205	0xbe74c9fb	-0.23905174
206	0xbe5120b7	-0.20422636
207	0xbec5e2b4	-0.38649523
208	0xbe5bfa40	-0.21482182
209	0x3d8abb23	0.06773975
210	0x3eb67b3b	0.35640892
211	0x3e891c5e	0.26779455
212	0xbeedc38b	-0.4643825
213	0xbe3f423b	-0.18677609
214	0xbd03af5e	-0.032149665
215	0x3eb426f9	0.35185984
216	0x3d942118	0.07232875
217	0xbe0497d0	-0.12948537
218	0x3e53d27c	0.20685762
219	0xbe4302e8	-0.19044077
220	0xbebeac57	-0.3724086
221	0x3eb9b15b	0.36268124
222	0xbe973aa7	-0.29536936
223	0x3dea51d2	0.11441387
224	0xbf0d469f	-0.55185884
225	0x3eb74386	0.35793704
226	0x3ed0a2ee	0.40749305
227	0x3e08eeb7	0.13372312
228	0xbec8d36b	-0.392238
229	0xbf0bec54	-0.54657483
230	0xbea99b56	-0.33126324
231	0x3e7759e3	0.24155383
232	0x3e16da8c	0.14731807
233	0x3eccd411	0.40005544
234	0x3eebff32	0.46093136
235	0x3e5b0f2c	0.21392506
236	0xbd8dde21	-0.06927133
237	0xbe8f4953	-0.2798563
238	0xbe957c31	-0.29196313
239	0xbedb4411	-0.42825368
240	0x3e5d1663	0.21590571
241	0xbe3244f4	-0.17409116
242	0xbd01d982	-0.031701572
243	0x3dbd3f5d	0.09240601
244	0xbdb8699f	-0.090045206
245	0xbe8e780e	-0.2782597
246	0xbe931cd5	-0.28732935
247	0x3e171ef5	0.14757903
248	0xbe43781e	-0.1908879
249	0x3e8737d0	0.2640977
250	0xbe2f1252	-0.17096832
251	0xbe998841	-0.29986766
252	0xbda3ef26	-0.08004598
253	0xbe7ce013	-0.24694853
254	0xbe4bf655	-0.19918187
255	0xbe3cc495	-0.18434365

net.0.bias f4 [128]
0	0x3d67dce1	0.05660713
1	0xbec34b96	-0.38143605
2	0xbe5ccb9e	-0.21562049
3	0xbe97b925	-0.29633442
4	0x3e841b19	0.25801924
5	0xbf0317c9	-0.5120817
6	0x3e735d4d	0.2376606
7	0xbdbdddb6	-0.09270804
8	0xbd12187a	-0.035667874
9	0x3e67b23d	0.22626586
10	0xbd9aeb91	-0.07564462
11	0x3e7b7b19	0.24558677
12	0x3e984002	0.29736334
13	0xbeb24e55	-0.34825388
14	0x3d00259e	0.031285875
15	0x3d21b46a	0.039478697
16	0x3d5e363b	0.054250937
17	0x3c9cbcc0	0.019132972
18	0x3d0ef62a	0.03490273
19	0xbe5cb578	-0.215536
20	0xbd3914e4	-0.04518594
21	0x3ea35f2a	0.31908542
22	0x3e6d83ca	0.23194805
23	0xbcbe72d2	-0.02324811
24	0xbeabc82b	-0.33551154
25	0xbd90aca7	-0.07064181
26	0xbe9d2831	-0.30694726
27	0x3eade55d	0.33964053
28	0xbe908acd	-0.28230897
29	0xbd3519d9	-0.044214103
30	0xbe00c837	-0.12576376
31	0xbd3c2938	-0.045937747
32	0x3eb1981b	0.3468636
33	0x3c92e4cd	0.017931366
34	0x3e17030b	0.14747255
35	0x3eb46853	0.35235843
36	0x3e21fc0c	0.15818805
37	0xbdcab97c	-0.098986596
38	0xbe464618	-0.19362676
39	0x3e3ebaac	0.18625897
40	0xbe381697	-0.17977367
41	0x3dc675b3	0.09690418
42	0xbda97015	-0.08273331
43	0xbed8a153	-0.4231058
44	0x3e0d7fea	0.13818327
45	0xbdc21dff	-0.094783776
46	0x3e021444	0.12703043
47	0xbd15cc92	-0.036572047
48	0x3e7692da	0.24079457
49	0x3e350108	0.17676175
50	0xbc43cd99	-0.011950874
51	0xbeffa7c6	-0.49932688
52	0xbeae9f63	-0.34105977
53	0xbe47f974	-0.19528753
54	0xbee1997e	-0.44062418
55	0xbe5c4a55	-0.2151273
56	0xbeb5b178	-0.3548696
57	0xbeb97be1	-0.36227325
58	0xbea07122	-0.31336313
59	0xbf172d0d	-0.5905312
60	0xbe85b699	-0.26115873
61	0x3e19881c	0.14993328
62	0x3eb2b091	0.34900334
63	0xbe0fccd7	-0.14042984
64	0xbdedb6a5	-0.11607102
65	0x3e63dcb7	0.22252165
66	0xbe3bf4ee	-0.18355152
67	0xbe7d0430	-0.24708629
68	0x3e60fb3c	0.21970838
69	0xbec03a2b	-0.3754438
70	0xbcd70458	-0.026247188
71	0x3e97a704	0.2961961
72	0x3cce222e	0.025162783
73	0x3db7aa4d	0.08968029
74	0xbe60fde2	-0.21971849
75	0xbdbe675c	-0.09297058
76	0x3c0c973e	0.008580981
77	0xbdd0a613	-0.10187926
78	0x3d8a11d0	0.06741679
79	0x3ecd820f	0.4013829
80	0xbe9ca5d6	-0.30595273
81	0x3c01859d	0.007905391
82	0xbe5f452d	-0.21803732
83	0xbebe8a37	-0.37214825
84	0xbd14fa89	-0.03637174
85	0xbee15734	-0.44011843
86	0x3e6b51f8	0.22980487
87	0xbbedc189	-0.007255737
88	0xbe7abe6f	-0.24486707
89	0x3e2f00e2	0.1709018
90	0xbeeb02d5	-0.45900598
91	0xbdf64d62	-0.12026478
92	0xbd90de3c	-0.07073638
93	0xbee43d02	-0.44577795
94	0xbeb4c64e	-0.35307544
95	0xbd68d8b5	-0.056847293
96	0x3e6b5dcd	0.22985001
97	0x3e912d94	0.28355086
98	0x3e45dd50	0.19322705
99	0xbe96948a	-0.294102
100	0xbe83cdbc	-0.257429
101	0x3ea6f694	0.3261
102	0x3dfc1a9a	0.12309761
103	0xbd433f81	-0.047667984
104	0x3d9c01ff	0.07617568
105	0xbed2c9e5	-0.41169658
106	0xbe21cede	-0.1580157
107	0x3eac3939	0.33637407
108	0xbdd7046d	-0.10498891
109	0xbe03d960	-0.1287589
110	0xbeb238f7	-0.34809086
111	0xbe4d1773	-0.20028476
112	0xbc0e4a61	-0.0086847255
113	0xbe8497cd	-0.25897065
114	0xbd97a0c1	-0.07403708
115	0xbd108527	-0.035283234
116	0xbf0e7c81	-0.5565873
117	0xbb62bc7c	-0.0034597209
118	0xbe725e49	-0.2366878
119	0xbe42707a	-0.18988219
120	0x3e27a65c	0.16372055
121	0x3e794376	0.2434214
122	0xbdc1a81e	-0.09455894
123	0xbe420c1f	-0.18949936
124	0xbeae9b81	-0.34103015
125	0xbe612ccf	-0.2198975
126	0xbeb4a37d	-0.35280982
127	0xbe2bed7b	-0.1678981

net.2.weight f4 [128, 128]
0	0x3c25b7ad	0.0101145925
1	0xbda997b6	-0.0828089
2	0x3d8cb0e3	0.06869676
3	0x3d4c68a3	0.049904477
4	0xbdc2935d	-0.095007636
5	0xbd2cebef	-0.04221719
6	0x3caf8a83	0.021428352
7	0xbcd9d58b	-0.026591083
8	0xbc93691d	-0.017994458
9	0xbd237754	-0.039908722
10	0x3d8007f9	0.06251521
11	0xbd6d1641	-0.05788255
12	0x3d84c6f7	0.06483262
13	0x3bbae05e	0.005703016
14	0x3c182e1b	0.009288336
15	0x3d77e83f	0.06052422
16	0xbcbcbf6b	-0.023040494
17	0xbd687aa3	-0.05675758
18	0xbcba8b3d	-0.022771472
19	0x3d92d0fc	0.07168767
20	0xbd9503aa	-0.072760895
21	0x3c3de08f	0.0115891835
22	0xbdb1e77d	-0.08686731
23	0x3d270f73	0.040786218
24	0x3cc72b1b	0.024312546
25	0x3b758fea	0.0037469813
26	0x3cf19f69	0.029494958
27	0xbbeb83ce	-0.007187343
28	0x3d25a706	0.04044249
29	0xbda0992f	-0.078417175
30	0xbcaf4c4c	-0.021398686
31	0x3d03dea5	0.032194752
32	0x3da2e5d5	0.07953993
33	0x3d386b5d	0.045024265
34	0xbd940cc0	-0.07228994
35	0x3d73d047	0.0595248
36	0xbce487de	-0.027896818
37	0xbce0123a	-0.027352441
38	0xbdb5918e	-0.08865653
39	0xbcb6f7a4	-0.022334881
40	0x3d5eff2a	0.054442562
41	0x3b7c3bdb	0.0038487825
42	0xbd758b1e	-0.059947126
43	0x3c9a3de5	0.018828342
44	0xbce82bdc	-0.028341226
45	0x3da54503	0.080698036
46	0xbdad6864	-0.084671766
47	0xbd14323e	-0.036180727
48	0xbdbeb937	-0.09312671
49	0xbd311ab7	-0.043238368
50	0x3ce44381	0.02786422
51	0x3d9ce47a	0.07660766
52	0x3c733658	0.0148444995
53	0x3db176be	0.086652264
54	0x3c8daad2	0.017293368
55	0x3d511722	0.05104745
56	0x3d911dca	0.0708576
57	0x3d8b05d9	0.06788225
58	0xbd4aa442	-0.049473055
59	0x3d9511be	0.07278775
60	0x3d3899f5	0.0450687
61	0xbd4baa5c	-0.049723014
62	0xbd2cc41d	-0.042179216
63	0xbda8b9e8	-0.08238584
64	0x3c60c2c9	0.013718315
65	0xbda412e4	-0.080114156
66	0x3d18ef1f	0.03733742
67	0x3ca12132	0.01966915
68	0xbdad1fe1	-0.08453346
69	0x3cc54fcc	0.024085902
70	0xbc7e04ba	-0.015504057
71	0x3d034f30	0.03205794
72	0x3d2d0288	0.042238742
73	0xbdc34c17	-0.09535997
74	0x3da6033c	0.08106086
75	0x3d868afa	0.065694764
76	0x3d100c9d	0.03516828
77	0xbda571d3	-0.08078351
78	0xbd0153e6	-0.031574152
79	0xbd099d45	-0.03359725
80	0xbcba161d	-0.022715623
81	0x3d2c1d25	0.042019982
82	0x3d03a069	0.0321354
83	0x3d8f6655	0.0700194
84	0xbd079785	-0.033103485
85	0x3cf3ae49	0.029746192
86	0x3ccafde1	0.024779262
87	0xbd96b70d	-0.07359133
88	0xbdbaf85d	-0.09129403
89	0xbd5e976d	-0.05434363
90	0x3d77d52d	0.060506035
91	0xbdaa6c22	-0.08321406
92	0xbd9d90bb	-0.07693621
93	0x3d4ad074	0.049515203
94	0x3d435492	0.047688074
95	0x3d838119	0.06421108
96	0xbd88a894	-0.06672779
97	0xbd95d6ca	-0.073163584
98	0x3d173f33	0.036925506
99	0x3d9d6b7d	0.076865174
100	0x3d589f2e	0.05288618
101	0x3bb2975a	0.0054501714
102	0x3ceea338	0.029130563
103	0x3d9b15a8	0.0757249
104	0xbd6996c3	-0.057028543
105	0xbd245ead	-0.040129352
106	0x3d5c2628	0.053747326
107	0xbd8a6167	-0.06756859
108	0xbd47a1f7	-0.048738446
109	0x3d84247b	0.064522706
110	0x3ce4765f	0.027888475
111	0x3ca488b0	0.020084709
112	0xbd3c2c11	-0.045940462
113	0xba9fe1d1	-0.0012198036
114	0x3da5acc1	0.08089591
115	0xbd594d89	-0.05305246
116	0xbbfd352a	-0.007727285
117	0x3d0c1b6e	0.034205846
118	0xbd8e06b1	-0.0693487
119	0x3da38179	0.07983679
120	0xbd5797c3	-0.052634966
121	0xbcf09a4b	-0.029370448
122	0xbcf14b70	-0.029454917
123	0xbd6becfc	-0.057599053
124	0xbdb1a0bc	-0.08673236
125	0x3d4c22d6	0.04983791
126	0x3cc05e5d	0.023482496
127	0xbda98af8	-0.08278459
128	0x3baf7513	0.0053545325
129	0x3db2e9ea	0.08736022
130	0xbd6cd9c4	-0.057824865
131	0x3cd68b89	0.026189582
132	0xbd2eaa0f	-0.04264265
133	0x3d8c9884	0.068650275
134	0x3bda2cd7	0.0066581774
135	0x3e2ee087	0.17077838
136	0xbd88601b	-0.06658956
137	0x3d949fd0	0.07257044
138	0x3e4655dc	0.1936869
139	0xbd2e560d	-0.042562533
140	0xbd4bc5c9	-0.04974917
141	0x3d909ed1	0.07061542
142	0x3ca60309	0.02026512
143	0x3da40fe9	0.08010847
144	0xbd7c3e44	-0.06158282
145	0xbdfd2dca	-0.12362249
146	0xbc75f8db	-0.015012945
147	0x3dab58d7	0.08366554
148	0xbd936154	-0.07196298
149	0x3d98a50f	0.074533574
150	0x3c9d3d39	0.019194232
151	0x3db385ff	0.08765792
152	0xbd7fe6b9	-0.062475894
153	0xbd56810d	-0.052369166
154	0x3d93419d	0.07190249
155	0xbd89dc1e	-0.06731437
156	0xbd47ea08	-0.048807174
157	0x3eed294e	0.46320575
158	0xbe399c04	-0.18125921
159	0x3da3e9d6	0.08003585
160	0xbce4f30b	-0.027947923
161	0x3dcdc85c	0.10047981
162	0xbd7afbc6	-0.061275266
163	0xbd122f58	-0.03568968
164	0x3ca15ddf	0.019698082
165	0xbe39c04f	-0.18139766
166	0x3cafcdb3	0.02146039
167	0x3d86a8af	0.065751426
168	0x3d7856ea	0.060629763
169	0xbd4914d2	-0.04909212
170	0xbdce3b06	-0.100698516
171	0xbd7b97df	-0.061424132
172	0x3da5ccd3	0.08095708
173	0x3d27cf1e	0.040969007
174	0x3db42590	0.08796227
175	0xb9b2d664	-0.0003411054
176	0x3dc7b5c2	0.097514644
177	0x3dba4fc8	0.09097248
178	0xbc8b0e56	-0.01697461
179	0x3d80c99b	0.06288453
180	0x3d5fbb85	0.054622192
181	0xbcb1ed10	-0.021719486
182	0xbd4dbcb4	-0.05022879
183	0x3db28f78	0.08718771
184	0x3da0aa9f	0.078450434
185	0xbe495fe4	-0.19665486
186	0x3e00978d	0.12557812
187	0xbd4eaca2	-0.050457604
188	0x3dcaf3d6	0.09909789
189	0x3c04e725	0.00811175
190	0x3df0345b	0.11728736
191	0x3e76a0a9	0.24084724
192	0x3d30ab0f	0.043131884
193	0xbdc5b139	-0.09652943
194	0x3d840314	0.064458996
195	0xbdb57a12	-0.08861174
196	0xbbaf50c2	-0.0053502033
197	0x3d4067e3	0.046974074
198	0xbcf77143	-0.030205375
199	0x3ba29645	0.004961761
200	0xbd44c08a	-0.048035182
201	0xbdf5a06c	-0.11993489
202	0xbd28825e	-0.041139953
203	0xbd045387	-0.03230622
204	0x3d7b5aa9	0.061365757
205	0xbcb13f70	-0.021636695
206	0x3d7d8ad9	0.061899994
207	0x3d2b261e	0.0417844
208	0x3d8a3296	0.0674793
209	0x3d8fa0b2	0.07013072
210	0x3b87feab	0.004150232
211	0xbe4bf101	-0.19916154
212	0x3bbfca36	0.005852963
213	0x3d032190	0.03201443
214	0xbd1e631e	-0.038668744
215	0x3da79de7	0.08184414
216	0x3d6425bd	0.055700053
217	0x3d016d95	0.031598646
218	0x3e671b3d	0.22568984
219	0x3df43192	0.11923517
220	0x3d1530ce	0.036423497
221	0x3d3df6dc	0.046378
222	0x3d62a668	0.05533448
223	0x3d33f9cd	0.0439394
224	0x3cc198be	0.023632403
225	0x3d720da8	0.059095055
226	0x3dba5ae1	0.09099365
227	0x3d5ceadc	0.053934917
228	0x3dab8d5d	0.08376572
229	0xbdf930c6	-0.12167506
230	0x3d63afed	0.055587698
231	0x3d2cbd5d	0.04217278
232	0x3dc91c04	0.09819797
233	0x3bf7f9ed	0.0075676353
234	0xbd424b2f	-0.047434982
235	0x3c98e981	0.01866603
236	0x3e04f2ae	0.129832
237	0x3cf92660	0.030413806
238	0x3e17a11d	0.14807554
239	0xbdc7a019	-0.09747333
240	0xbd8b68a5	-0.06807069
241	0x3d94a7ad	0.07258544
242	0x3dda09ec	0.10646424
243	0x3d58051a	0.05273924
244	0xbcfc207c	-0.030777209
245	0x3de58718	0.11207408
246	0x3cc83b7e	0.02444243
247	0xbe95c526	-0.29251975
248	0xbdea8c40	-0.11452532
249	0x3d25e070	0.040497243
250	0x3d3b8089	0.045776878
251	0x3e9a5af6	0.30147523
252	0x3dd38cc4	0.10329583
253	0x3d9570e7	0.07296925
254	0x3d55f3b4	0.052234367
255	0x3d188c79	0.03724334

net.2.bias f4 [128]
0	0xbcb04291	-0.021516116
1	0x3ccadd83	0.024763828
2	0xbd20a269	-0.039217386
3	0xbd0720b6	-0.03299018
4	0x3cf92efd	0.030417914
5	0xbd6768dc	-0.056496486
6	0x3d29b343	0.041430723
7	0x3d531df7	0.05154225
8	0x3d982637	0.07429164
9	0x3d8d4bc2	0.06899215
10	0xbd874845	-0.06605581
11	0x3cab31d3	0.020897781
12	0xbdcd9ee9	-0.10040075
13	0xbd0b6daa	-0.03404013
14	0xbc28e86b	-0.010309319
15	0xbca8ec07	-0.02062036
16	0x3bf51625	0.0074794465
17	0xbd85d4a8	-0.065347016
18	0x3a2e7d35	0.00066562305
19	0xbda31b7a	-0.07964225
20	0xbdcf93c4	-0.10135606
21	0xbd36a46a	-0.04459039
22	0xbd9911ad	-0.074740745
23	0x3cdfb62e	0.02730855
24	0xbbeb448a	-0.0071798014
25	0x3da2b30e	0.07944308
26	0x3bc03635	0.005865837
27	0x3bbd3a58	0.0057747774
28	0x3d315dd2	0.043302365
29	0x3cddd9fa	0.027081478
30	0xbd8c1a8f	-0.06841003
31	0xbd1b8cb9	-0.037976
32	0xbdaca1d9	-0.084293075
33	0xbd30be36	-0.04315015
34	0x3d5fd9b8	0.054650992
35	0x3c780f69	0.015140393
36	0x3d8ffd27	0.07030707
37	0xbcc6c379	-0.02426313
38	0x3cacb274	0.021081187
39	0x3c9b3815	0.01894764
40	0x3d2be663	0.04196776
41	0xbd7361e8	-0.059419543
42	0x3d47eec0	0.048811674
43	0x3d0c1efb	0.034209233
44	0xbcb993af	-0.022653429
45	0x3dbcc3e5	0.092170514
46	0x3dc332fb	0.09531208
47	0xbdceabe5	-0.1009138
48	0x3d0091f6	0.0313892
49	0xbddfd6fe	-0.109296784
50	0xbca68310	-0.020326167
51	0x3d3735c9	0.044729028
52	0x3d33bffc	0.043884262
53	0x3dbc94f2	0.092080966
54	0x3c5b3bf3	0.013380992
55	0xbc1f59d4	-0.009726007
56	0x3d523b4a	0.051326074
57	0xbd8eb0d3	-0.0696732
58	0xbcb54609	-0.022128122
59	0xbcbd48d4	-0.023106016
60	0x3d8e294f	0.06941473
61	0x3d6ad9b3	0.05733652
62	0x3d5035af	0.050832447
63	0xbd61a602	-0.055089958
64	0x3d1e8cdd	0.038708556
65	0x3d911b9e	0.07085346
66	0xbc6fcf00	-0.014636755
67	0x3dae8971	0.085223086
68	0xbc64b54c	-0.01395924
69	0xbca9cb61	-0.020726861
70	0xbccb8057	-0.02484147
71	0x3cb9ce4e	0.022681382
72	0xbdb1eb85	-0.086875
73	0x3cf4a21c	0.029862456
74	0xbd07ea69	-0.033182535
75	0xbd78bc91	-0.060726706
76	0xbd84a550	-0.06476843
77	0x3d3c33b1	0.045947734
78	0xbb54acc0	-0.00324516
79	0x3d23bfbe	0.03997778
80	0x3d6ba516	0.057530485
81	0x3d549cff	0.051907536
82	0x3c585349	0.0132034505
83	0xbb47bda3	-0.0030478023
84	0x3cce9170	0.025215834
85	0xbd8cdea5	-0.068784036
86	0x3dcb9ded	0.09942231
87	0xbdc32592	-0.0952865
88	0xbc9b0556	-0.018923443
89	0x3c692e88	0.014232285
90	0x3dfd673a	0.123732045
91	0x3db7b0c1	0.0896926
92	0x3c7c97b9	0.015417033
93	0x3da3e2cd	0.08002243
94	0xbe05e82c	-0.13076848
95	0xbd57dad9	-0.052698944
96	0x3d475042	0.048660524
97	0xbd88ea16	-0.06685273
98	0x3cab313d	0.020897502
99	0xbd9c6718	-0.07636851
100	0x3d277200	0.040880203
101	0xbd9dea66	-0.077107236
102	0xbaf85c22	-0.0018948356
103	0x3ba0652a	0.004894872
104	0xbd9e486e	-0.077286586
105	0x3de7c23d	0.11316345
106	0x3d92a206	0.0715981
107	0xbce32566	-0.027727794
108	0xbd5870c6	-0.052841924
109	0x3cc49481	0.023996593
110	0xbcb259cc	-0.021771334
111	0xbc8160ed	-0.015793288
112	0x3d92872a	0.07154687
113	0x3b840d41	0.0040299003
114	0xbdbb4c07	-0.091453604
115	0x3be87a94	0.0070946906
116	0xbcc9afc4	-0.024619944
117	0x3b824352	0.0039753104
118	0xbd2839c1	-0.041070703
119	0xbca26fee	-0.019828763
120	0x3c4657a0	0.012105852
121	0x3c58f70d	0.013242495
122	0x3ca47d29	0.020079212
123	0x3cf9e7ed	0.030506099
124	0xbd679446	-0.05653789
125	0x3d63fd38	0.05566141
126	0x3d08df50	0.033416092
127	0x3b6692de	0.0035182755

net.4.weight f4 [2, 128]
0	0x3b0f85b9	0.0021899773
1	0xbc4721b3	-0.012154031
2	0xbd34cb30	-0.044139087
3	0x3d794d8e	0.060864978
4	0xbd2c005a	-0.041992523
5	0xbd006b70	-0.03135246
6	0x3d004096	0.031311594
7	0x3a60b60d	0.00085720496
8	0xbd9d5a7f	-0.076832764
9	0xbc6af38e	-0.0143402945
10	0x3d0b403a	0.033996798
11	0xbd9bc0dc	-0.076051444
12	0xbc9b05bc	-0.018923633
13	0xbcf8d69f	-0.030375777
14	0xba5cd071	-0.0008423394
15	0xbbbf5bdf	-0.0058398093
16	0xb9ced460	-0.00039449614
17	0x3d964b49	0.07338578
18	0xba292914	-0.00064529595
19	0x3b20ffe5	0.0024566588
20	0x3b0205ba	0.001983984
21	0xb923b701	-0.00015613066
22	0x3d098120	0.03357041
23	0xb98f3932	-0.000273177
24	0x3986f7c6	0.00025743077
25	0x3a9d9cfb	0.0012024933
26	0xbae72dbf	-0.0017637535
27	0xbcedbe11	-0.029021295
28	0x3d9c9226	0.07645063
29	0xbd868a51	-0.065693505
30	0xbc783cab	-0.015151183
31	0x3cbe4923	0.023228234
32	0xbd5b0eca	-0.0534809
33	0x3da1df8b	0.079039656
34	0xbcd968f7	-0.026539309
35	0x3c7a1e4f	0.015266015
36	0x3c56c7b4	0.013109136
37	0xbd8af8dc	-0.067857474
38	0x3dba3e25	0.090938844
39	0xbae5d377	-0.0017534335
40	0x3cb8edb0	0.022574276
41	0x3d0b24e3	0.033970725
42	0xbd950f52	-0.07278313
43	0x3c23d5ed	0.009999734
44	0x3a5f8704	0.0008526894
45	0xbdb75f62	-0.0895374
46	0x3d6e69d4	0.058206394
47	0xbcc48830	-0.02399072
48	0xbd5b1788	-0.053489238
49	0xbd067d7d	-0.03283452
50	0x3d8c71ea	0.06857665
51	0x3d08a8ba	0.033364035
52	0x3cb31d5c	0.021864586
53	0x3c8f3b03	0.017484194
54	0x3c9c7881	0.01910043
55	0xbcb60098	-0.02221708
56	0xbc0ca1d2	-0.008583503
57	0x3d698e37	0.057020392
58	0x3a6710c9	0.0008814452
59	0xbb337155	-0.0027380784
60	0x3d8dc230	0.06921804
61	0x3ca6b37d	0.020349259
62	0x3d203fc4	0.03912331
63	0x3d84ce13	0.06484618
64	0x3ad5033e	0.0016251577
65	0x3cfee3b1	0.031114431
66	0x3bb98e38	0.0056627057
67	0x3d10a0ec	0.035309717
68	0xbda57047	-0.08078056
69	0xbac82166	-0.0015268743
70	0xbb86e84b	-0.004117047
71	0xbcddd020	-0.02707678
72	0xba8cd8bb	-0.0010745743
73	0x3b1f7f4b	0.0024337347
74	0x3c5f224b	0.013619016
75	0xbd83a113	-0.06427207
76	0x3cea0beb	0.028570136
77	0x3d944b72	0.072409526
78	0xbd63d6c5	-0.055624742
79	0xbd891fc0	-0.06695509
80	0xbb5247c0	-0.0032086223
81	0xbac76705	-0.0015213197
82	0xbd9eb0be	-0.07748555
83	0x3b72d18e	0.0037051174
84	0xbba94254	-0.0051653776
85	0x3d3aa55a	0.045567848
86	0xbc1ff1db	-0.009762253
87	0xb7855d6d	-1.589834e-05
88	0x3db5e442	0.08881427
89	0xbdbd08df	-0.09230208
90	0xbd95fdaa	-0.07323773
91	0xbdc7909c	-0.09744379
92	0x3ac07f12	0.0014686307
93	0x3c2d976a	0.010595182
94	0x3c18f9d5	0.009336908
95	0x3d79887b	0.060921174
96	0xbcac0864	-0.021000095
97	0x37ba9c5f	2.2245744e-05
98	0x3d37a93b	0.044839125
99	0xbb172f17	-0.002306884
100	0xba987209	-0.0011630665
101	0xbc3369c4	-0.010950509
102	0x3ae37e5b	0.0017356382
103	0xbbfa93d8	-0.007647019
104	0x3caa6ce4	0.020803876
105	0xbd79b5c9	-0.06096438
106	0x3d0519c7	0.032495286
107	0x3c92cd21	0.017920079
108	0x3cf617e3	0.030040687
109	0xbd2bf006	-0.04197695
110	0x3d128401	0.03577042
111	0xbd8d780d	-0.069076635
112	0x3dcf8f99	0.10134811
113	0xbd000ab5	-0.03126021
114	0x3b3107f5	0.00270128
115	0x3c09e742	0.008416953
116	0xbba0c949	-0.0049068076
117	0xbb49cd1f	-0.0030792428
118	0xbd916e00	-0.07101059
119	0xbbb4e72c	-0.005520722
120	0x3d8fa06d	0.07013021
121	0x3c9f49fb	0.019444456
122	0x3c182b8e	0.009287728
123	0x3d033668	0.032034308
124	0x3b77bf8b	0.0037803377
125	0xbd024bb5	-0.03181048
126	0x3b658b80	0.0035025775
127	0x3b8f79e4	0.004378544
128	0x3d1683c2	0.036746748
129	0x3d854dff	0.06509017
130	0x3c9a8458	0.018861935
131	0xbd8f5b88	-0.0699988
132	0xbc24c17c	-0.010055896
133	0x3d4283cc	0.047488973
134	0x3d9a30c7	0.07528835
135	0xba673c79	-0.0008820962
136	0xbd40b69c	-0.04704915
137	0xbd9a5b04	-0.07536891
138	0xbcc83bbc	-0.024442546
139	0x3b1634ce	0.0022919658
140	0xb9f3c8a9	-0.00046498075
141	0xbc2639ee	-0.010145647
142	0x3b0dbf12	0.002162878
143	0x3baf51b5	0.0053503164
144	0x3addc96e	0.0016920993
145	0xbd02a98e	-0.03189998
146	0xb9c05f4c	-0.00036692095
147	0x3a279dad	0.000639404
148	0xbaff2aab	-0.0019467672
149	0xba579c5e	-0.00082248996
150	0xbc4bdf1e	-0.012443332
151	0x3d90bc44	0.07067159
152	0xbb629160	-0.0034571514
153	0x3da348b4	0.079728514
154	0x3b64c3bc	0.0034906706
155	0x3cc2b9cf	0.023770241
156	0xbd7a5700	-0.061118126
157	0x3d7352b7	0.059405055
158	0x3c9db4c1	0.01925123
159	0x3ca1a584	0.019732244
160	0xbbf3341d	-0.007421984
161	0x3d02a35f	0.031894084
162	0xbdb62af0	-0.088949084
163	0xbcb00d1f	-0.021490632
164	0x3d91e43c	0.071236104
165	0xbc5b21a9	-0.013374724
166	0x3c9ba289	0.018998401
167	0xbb09330c	-0.0020934967
168	0xbd288782	-0.041144855
169	0xbc2f8b18	-0.010714315
170	0xbc28e2c3	-0.01030797
171	0xbd33c8bf	-0.04389262
172	0xbb9bf9e3	-0.0047600134
173	0xbd9fb394	-0.07797924
174	0x3c9513e2	0.018197957
175	0x3c9a4b21	0.018834652
176	0x3cf9dd95	0.030501166
177	0xbd884efd	-0.06655691
178	0xbd87cb7b	-0.06630608
179	0xbcc9dd46	-0.024641644
180	0x3ddcbb56	0.10777919
181	0x3d8d172f	0.068891875
182	0x3afbacf6	0.0019201327
183	0xbc0e7b49	-0.008696386
184	0x3b34e432	0.0027601835
185	0x3c20c8fe	0.009813545
186	0xba9783cf	-0.0011559668
187	0x3b3790f2	0.0028009978
188	0xbd0d7a89	-0.034540687
189	0xba30fc6b	-0.00067514804
190	0x3d19dd9c	0.03756486
191	0xbd32774a	-0.043570794
192	0xbaedf172	-0.0018153621
193	0x3d548ba8	0.051891
194	0x3b579e27	0.0032900663
195	0x3d8d4e2a	0.06899674
196	0xbc909fad	-0.017654264
197	0x39e317a8	0.0004331444
198	0xbc253b10	-0.010084882
199	0x3d9b6424	0.0758746
200	0xbb061378	-0.0020458382
201	0xbd4a70ca	-0.04942397
202	0xbb980f0b	-0.004640465
203	0x3db1b373	0.08676805
204	0x3cc1a0c8	0.023636237
205	0xbcd36642	-0.025805596
206	0x3db80715	0.08985726
207	0x3d05d69d	0.032675374
208	0xbadfb7be	-0.0017068309
209	0x37931d95	1.753754e-05
210	0x3d7cc765	0.061713595
211	0x3ac1aa84	0.0014775549
212	0x3b08c5c1	0.0020869824
213	0x3c15f403	0.009152415
214	0xbd6338d8	-0.055474132
215	0xbb3d4a13	-0.0028883263
216	0xbcafb7f2	-0.021450017
217	0x3cedc93c	0.02902662
218	0x3d348df6	0.044080697
219	0x3d205750	0.039145768
220	0xb92b4704	-0.00016334286
221	0xbdb1affb	-0.08676144
222	0x3b89d332	0.0042060846
223	0xbd2975d3	-0.04137213
224	0xbd8be269	-0.06830294
225	0x3af97c0c	0.0019034161
226	0xbd72e303	-0.059298526
227	0xba7d0498	-0.00096518686
228	0xb9368cb4	-0.00017409289
229	0xbd28bf87	-0.04119828
230	0xba8a39a4	-0.0010545743
231	0x3bfb0921	0.0076610004
232	0xbcbb4948	-0.022862092
233	0xbdb95bc2	-0.090507045
234	0xbd8de4c4	-0.06928399
235	0xbd919a95	-0.07109562
236	0x3d4ad2a8	0.049517304
237	0xbb8ea869	-0.004353572
238	0xbd9a12ae	-0.07523094
239	0xbcba3186	-0.022728693
240	0x3c5a6df5	0.01333188
241	0x3bf08e6b	0.0073411963
242	0x3b84a960	0.0040485114
243	0xbd03f97a	-0.03222034
244	0x3b3d2a64	0.0028864378
245	0xbba5d929	-0.005061288
246	0x3d5292a9	0.051409397
247	0x3be5eee5	0.007017004
248	0x3cf02f8f	0.029319553
249	0x3ce53897	0.027981086
250	0xbc7d78f9	-0.015470737
251	0xbc056d41	-0.008143724
252	0x3ceae049	0.0286714
253	0x3d000173	0.031251382
254	0x3b72e2b5	0.0037061397
255	0x3c65c370	0.014023647

net.4.bias f4 [2]
0	0xbd83e84f	-0.06440794
1	0x3ca04ab0	0.019566864

exp_avg f4 [128, 4]
0	0x3434edf4	1.6850373e-07
1	0x34e2d6db	4.2252108e-07
2	0x34c84a0e	3.7306785e-07
3	0xb31e664e	-3.6880287e-08
4	0x00000000	0.0
5	0x00000000	0.0
6	0x00000000	0.0
7	0x00000000	0.0
8	0x35ef1591	1.7813164e-06
9	0x36514e3a	3.118896e-06
10	0x34bd67b6	3.5279453e-07
11	0xb586a3fc	-1.0031504e-06
12	0x3518e7ae	5.696155e-07
13	0x34b507ca	3.3719544e-07
14	0x3252e87f	1.2276472e-08
15	0xb223e1d8	-9.5392e-09
16	0x34934298	2.7429337e-07
17	0x368c370f	4.178735e-06
18	0x35373ba5	6.8259607e-07
19	0xb556fd84	-8.0090126e-07
20	0x821ae04f	-1.1378507e-37
21	0x821a1eae	-1.1322938e-37
22	0x021f3155	1.1695633e-37
23	0x021d4c2f	1.1556402e-37
24	0x35efb20a	1.7858704e-06
25	0xb6190e34	-2.2807044e-06
26	0xb53ffa66	-7.151742e-07
27	0x35058bad	4.9749616e-07
28	0xb454e3c8	-1.9826905e-07
29	0xb535ada4	-6.7680435e-07
30	0xb31e3a30	-3.6840163e-08
31	0xb45781eb	-2.0070699e-07
32	0x3490e670	2.6989755e-07
33	0x35bea730	1.4204761e-06
34	0x35003e18	4.7774074e-07
35	0xb4bae272	-3.480996e-07
36	0xb57580b4	-9.14569e-07
37	0xb68ecc6b	-4.255727e-06
38	0x3508d0cb	5.096778e-07
39	0x34536d25	1.9690613e-07
40	0x33c3af3d	9.112271e-08
41	0x33bda1d0	8.830432e-08
42	0x339415bd	6.895741e-08
43	0xb39312f7	-6.8486706e-08
44	0x34366fd0	1.6990748e-07
45	0x3669c812	3.4836162e-06
46	0x354d1e98	7.641297e-07
47	0xb549f84b	-7.523965e-07
48	0xb4e28120	-4.218973e-07
49	0x35e8906c	1.7327379e-06
50	0x351f4ee7	5.9346934e-07
51	0xb51890b7	-5.6835e-07
52	0x35c0763d	1.4339527e-06
53	0xb6baf118	-5.571299e-06
54	0x330c5218	3.2670954e-08
55	0x34e0c6f2	4.1868003e-07
56	0xb3dc3870	-1.0254814e-07
57	0xb46f0af8	-2.22626e-07
58	0x3490e987	2.6992004e-07
59	0xb3a76df1	-7.796542e-08
60	0x349c8434	2.9153455e-07
61	0xb53164e0	-6.608443e-07
62	0x31dd5260	6.4413115e-09
63	0xb4badcb3	-3.480578e-07
64	0x34b301b2	3.3342582e-07
65	0x343b8540	1.7464208e-07
66	0x34eae0f9	4.3749586e-07
67	0xb4d3df96	-3.9464493e-07
68	0x3652e584	3.1426034e-06
69	0xb57139e4	-8.986374e-07
70	0xb57dfe54	-9.461994e-07
71	0x346f9de7	2.2316054e-07
72	0xb5124a74	-5.449758e-07
73	0x353d2460	7.046092e-07
74	0x3548caa2	7.4800676e-07
75	0xb5306c8c	-6.5723066e-07
76	0x3535f7c0	6.778828e-07
77	0xb64247ef	-2.8950124e-06
78	0x34090372	1.2760373e-07
79	0x34a54e53	3.0790633e-07
80	0x35d6766c	1.5978708e-06
81	0xb4ecc4d0	-4.4101625e-07
82	0xb5341f05	-6.7100365e-07
83	0x3477e4cd	2.3086905e-07
84	0x3475111c	2.2823627e-07
85	0x36214c0a	2.403513e-06
86	0x34c27847	3.622283e-07
87	0xb5129439	-5.460493e-07
88	0x3613002f	2.1904814e-06
89	0xb6c6cb48	-5.924525e-06
90	0xb5261720	-6.187347e-07
91	0x35102d36	5.370997e-07
92	0x35a8ccd7	1.2576592e-06
93	0xb5cee4ac	-1.5414748e-06
94	0x3434fa4c	1.6854864e-07
95	0x34193a9a	1.4270555e-07
96	0xb55f0a38	-8.3088844e-07
97	0xb6776e68	-3.6870133e-06
98	0x34944600	2.761808e-07
99	0xb4e68010	-4.2934016e-07
100	0x3517ad3e	5.6503984e-07
101	0xb320b7b8	-3.7419994e-08
102	0xb3747cee	-5.69243e-08
103	0x31cd56c0	5.9761476e-09
104	0xb42c0db8	-1.6023739e-07
105	0x3427cf0e	1.5628413e-07
106	0x31d8ad60	6.306138e-09
107	0xb339286a	-4.3110425e-08
108	0x36332000	2.6691705e-06
109	0xb5fc2d58	-1.878866e-06
110	0xb5b5d750	-1.3548215e-06
111	0x34ddf2ab	4.1341022e-07
112	0xb570fc5c	-8.97742e-07
113	0xb5dc23c3	-1.6401685e-06
114	0xb03fb000	-6.9735506e-10
115	0xb4b28406	-3.3251143e-07
116	0xb5d0ea30	-1.5565365e-06
117	0xb541c430	-7.2183593e-07
118	0x34c647de	3.6932664e-07
119	0xb4f531c4	-4.5671015e-07
120	0xb37c4be6	-5.874235e-08
121	0x3442973f	1.8122681e-07
122	0x3301f4a9	3.025767e-08
123	0xaf61ac40	-2.0524826e-10
124	0x35e9ebf0	1.742852e-06
125	0x3534bafe	6.7327335e-07
126	0xb4a1c80f	-3.013415e-07
127	0xb4387cc2	-1.7181722e-07
128	0x343e9b28	1.7751574e-07
129	0x3627e98e	2.5020886e-06
130	0x35126e4c	5.454974e-07
131	0xb5265133	-6.195798e-07
132	0x35e792f8	1.7253615e-06
133	0xb6aa1062	-5.068302e-06
134	0x34b64756	3.3952045e-07
135	0x35189334	5.683862e-07
136	0x35f69f83	1.8374852e-06
137	0xb4b0be46	-3.2920997e-07
138	0xb5079446	-5.0507185e-07
139	0xb38a20b5	-6.432075e-08
140	0x360aa670	2.0660482e-06
141	0x34fad640	4.6722016e-07
142	0x343d04a0	1.7603679e-07
143	0xb522f72f	-6.07094e-07
144	0x35e68d8f	1.7177534e-06
145	0xb6254bf4	-2.4631127e-06
146	0xb50046fb	-4.7787006e-07
147	0x34870afc	2.5153702e-07
148	0x34b7a620	3.4207278e-07
149	0x36352bb6	2.6996545e-06
150	0x357af0d8	9.348273e-07
151	0xb5a5b28f	-1.2345425e-06
152	0x34855134	2.4832264e-07
153	0xb4553c66	-1.9859144e-07
154	0xb3856da2	-6.213237e-08
155	0xb398808b	-7.1014334e-08
156	0x35c239db	1.4470965e-06
157	0xb5db927c	-1.6359404e-06
158	0x35147364	5.530221e-07
159	0xb48f588c	-2.6700252e-07
160	0xb50bdbcf	-5.21014e-07
161	0x3507c7e8	5.058232e-07
162	0x342ebb28	1.62731e-07
163	0x3336b0b2	4.253588e-08
164	0xb4cec2bc	-3.8512178e-07
165	0x361034b6	2.1488354e-06
166	0x35155cd8	5.564193e-07
167	0xb51940b0	-5.7091074e-07
168	0xb5eb980a	-1.7553114e-06
169	0xb5a26764	-1.2100031e-06
170	0x349880b0	2.840584e-07
171	0xb4be3a5e	-3.5432726e-07
172	0x0219d64a	1.1302163e-37
173	0x82166634	-1.104959e-37
174	0x8217a67e	-1.1141509e-37
175	0x021a5085	1.1337241e-37
176	0x35553a70	7.943372e-07
177	0xb6b36902	-5.34684e-06
178	0xb4589370	-2.0170205e-07
179	0x33d25990	9.7951784e-08
180	0x02161a65	1.1027834e-37
181	0x02148c84	1.0913649e-37
182	0x82122ef3	-1.073986e-37
183	0x8218be89	-1.1221877e-37
184	0x35aa637a	1.2694939e-06
185	0xb5fd2b8f	-1.8862646e-06
186	0x350163f9	4.8201724e-07
187	0x3407f348	1.266136e-07
188	0x821a8d44	-1.1354674e-37
189	0x821ab7e0	-1.1366903e-37
190	0x82146e9f	-1.090507e-37
191	0x0214ce8a	1.0932597e-37
192	0x35d27a27	1.568177e-06
193	0xb624078c	-2.4442297e-06
194	0x34e07795	4.181026e-07
195	0x33a88b6f	7.8484724e-08
196	0x3594bb7f	1.1081428e-06
197	0xb5e99268	-1.7402463e-06
198	0xb4817ba2	-2.4118077e-07
199	0x343d72a1	1.7643698e-07
200	0x3623f98c	2.4434148e-06
201	0x34b21b98	3.317516e-07
202	0xb506abf1	-5.01691e-07
203	0xb3bc64f4	-8.7727955e-08
204	0x021b7f6f	1.1424173e-37
205	0x8212ff2f	-1.079962e-37
206	0x821e0922	-1.1610628e-37
207	0x821ea54d	-1.1655446e-37
208	0x35270c56	6.22303e-07
209	0x3499b5f2	2.8630853e-07
210	0xb34d7020	-4.783226e-08
211	0xb29993b6	-1.7878715e-08
212	0x36462fbb	2.9532082e-06
213	0xb4653a02	-2.134839e-07
214	0xb5136e7a	-5.492253e-07
215	0x32a240c0	1.8888727e-08
216	0x00000000	0.0
217	0x00000000	0.0
218	0x00000000	0.0
219	0x00000000	0.0
220	0x361906a2	2.2802637e-06
221	0xb713a3b4	-8.799998e-06
222	0x35324534	6.641087e-07
223	0x34dfd45c	4.16915e-07
224	0x35ead27f	1.7495621e-06
225	0xb64e98f5	-3.0785425e-06
226	0xb396a694	-7.01522e-08
227	0x34c5f539	3.6872532e-07
228	0x35cf682a	1.5453018e-06
229	0x3379cf40	5.8163323e-08
230	0xb4f1ed0d	-4.5062225e-07
231	0xb1a11c00	-4.6889e-09
232	0x35f0a5c6	1.792964e-06
233	0xb650187e	-3.1008672e-06
234	0xb3733ba4	-5.663209e-08
235	0x348dfad0	2.6445787e-07
236	0x021c4e2a	1.1483502e-37
237	0x8216e396	-1.1085573e-37
238	0x82125056	-1.0749441e-37
239	0x82149b32	-1.0917862e-37
240	0x3193f800	4.3064574e-09
241	0x343a49f8	1.734951e-07
242	0x33e707a2	1.0758164e-07
243	0xb4770ff2	-2.3009468e-07
244	0x3605fb1a	1.9964705e-06
245	0xb5a42fb7	-1.2232839e-06
246	0xb50bb0ae	-5.203864e-07
247	0xb2d4b408	-2.4761917e-08
248	0x35860c80	9.987416e-07
249	0xb68cd4c3	-4.197094e-06
250	0xb4736362	-2.2667294e-07
251	0x34bed2ee	3.554373e-07
252	0xb531409c	-6.603166e-07
253	0xb558634e	-8.061078e-07
254	0x32c04740	2.2384143e-08
255	0xb3db5a10	-1.02143645e-07

exp_avg_sq f4 [128, 4]
0	0x31833b0e	3.8193155e-09
1	0x319cd8ed	4.564859e-09
2	0x2eb0260a	8.0103105e-11
3	0x2e4c98f6	4.6520086e-11
4	0x00000000	0.0
5	0x00000000	0.0
6	0x00000000	0.0
7	0x00000000	0.0
8	0x31a2f1fb	4.7423305e-09
9	0x31670a01	3.362061e-09
10	0x2ee9f4ee	1.06391215e-10
11	0x2d5ed28a	1.2665988e-11
12	0x2fc8978b	3.6487466e-10
13	0x2f841099	2.4022453e-10
14	0x2cc872bf	5.6970813e-12
15	0x2b827a93	9.271077e-13
16	0x3178409c	3.6125476e-09
17	0x31958106	4.351139e-09
18	0x2ece8e6c	9.3930946e-11
19	0x2e0eb9da	3.245213e-11
20	0x070f0ce7	1.0761916e-34
21	0x06bf812a	7.2036004e-35
22	0x03869a7d	7.911281e-37
23	0x03317b5e	5.2157244e-37
24	0x312084c4	2.3358533e-09
25	0x315aab89	3.1820682e-09
26	0x2e9ac487	7.0380195e-11
27	0x2e1cbd7c	3.563859e-11
28	0x30b4b100	1.314703e-09
29	0x312d33d6	2.5204279e-09
30	0x2e00d4a7	2.9292704e-11
31	0x2db98ef4	2.1095549e-11
32	0x316eff70	3.4778758e-09
33	0x312157eb	2.347856e-09
34	0x2ebbb9af	8.5367595e-11
35	0x2d220a92	9.210981e-12
36	0x32152a96	8.682624e-09
37	0x31d47b45	6.184026e-09
38	0x2f7db858	2.3075708e-10
39	0x2eb46604	8.203574e-11
40	0x2eacf3ac	7.864939e-11
41	0x2f2ebe92	1.5892912e-10
42	0x2bd00a91	1.4782222e-12
43	0x2c1f9bcd	2.2681746e-12
44	0x319040af	4.1983053e-09
45	0x31a82c91	4.89451e-09
46	0x2ef67109	1.1206864e-10
47	0x2e37fb55	4.183261e-11
48	0x319c5e54	4.5509214e-09
49	0x31a55192	4.8114055e-09
50	0x2f05736b	1.2137284e-10
51	0x2e5730de	4.8928743e-11
52	0x31849262	3.8583474e-09
53	0x317ff51f	3.724672e-09
54	0x2e99782e	6.978983e-11
55	0x2e6431ae	5.1885322e-11
56	0x2fff95f2	4.6490772e-10
57	0x2f85eb5c	2.4359792e-10
58	0x2d19fa4a	8.752618e-12
59	0x2bc1b321	1.3763193e-12
60	0x317e39bb	3.699468e-09
61	0x319e2f91	4.603813e-09
62	0x2ed95704	9.8834746e-11
63	0x2e39ae74	4.2219075e-11
64	0x30c2fb60	1.4186803e-09
65	0x30856add	9.707396e-10
66	0x2e05b92d	3.0405168e-11
67	0x2d08d5d5	7.778185e-12
68	0x31ae7036	5.0768234e-09
69	0x31ad3d14	5.0419064e-09
70	0x2f3d17dd	1.7197928e-10
71	0x2e31632c	4.0333223e-11
72	0x3127d3d5	2.442211e-09
73	0x31124f84	2.1290996e-09
74	0x2e796e1d	5.6713845e-11
75	0x2d71ea5e	1.3751304e-11
76	0x31badd48	5.4384692e-09
77	0x30fcac67	1.8384413e-09
78	0x2ef3b72d	1.1082899e-10
79	0x2e0302bd	2.9788384e-11
80	0x316df2ea	3.462612e-09
81	0x318c3e67	4.0816306e-09
82	0x2ef122c2	1.09655854e-10
83	0x2dee38b0	2.7082642e-11
84	0x312d3c40	2.5209062e-09
85	0x3135f11c	2.6476021e-09
86	0x2e99d3fd	6.995291e-11
87	0x2dee4c7a	2.709143e-11
88	0x31999d9f	4.4708055e-09
89	0x31b06ac0	5.1344102e-09
90	0x2f0e7779	1.295727e-10
91	0x2e7f10a3	5.7995064e-11
92	0x31bbe4b4	5.468417e-09
93	0x321b5a92	9.042781e-09
94	0x2f0c5288	1.2762247e-10
95	0x2ed48fd9	9.666196e-11
96	0x31c00ce4	5.589401e-09
97	0x315e0386	3.2307255e-09
98	0x2f0c2e90	1.2749468e-10
99	0x2d3f895c	1.0887593e-11
100	0x2ee2b7ea	1.030996e-10
101	0x2e482b18	4.551301e-11
102	0x2bce6271	1.4664503e-12
103	0x2b217d11	5.7372255e-13
104	0x2ef47c01	1.1117863e-10
105	0x2f53f291	1.9276515e-10
106	0x2c3d2e9f	2.6884395e-12
107	0x2b4fe42b	7.385782e-13
108	0x31e2d04c	6.6011463e-09
109	0x31df5733	6.5000676e-09
110	0x2f55e87c	1.9454832e-10
111	0x2eae1ceb	7.917741e-11
112	0x314b8e9a	2.9621448e-09
113	0x32041c7d	7.689889e-09
114	0x2ea1f13d	7.364285e-11
115	0x2e6985c4	5.3096874e-11
116	0x315dcdea	3.2276781e-09
117	0x31d2ce03	6.135225e-09
118	0x2eb41bb0	8.1903706e-11
119	0x2e56fdc2	4.888335e-11
120	0x2cce7218	5.867539e-12
121	0x2daf187a	1.9906066e-11
122	0x29fd7057	1.1254945e-13
123	0x2a1fcc9b	1.4193024e-13
124	0x30d089b9	1.5173135e-09
125	0x300ba76f	5.0805843e-10
126	0x2e0b8743	3.1725077e-11
127	0x2d199efe	8.7323464e-12
128	0x314c6fdf	2.9749498e-09
129	0x31676015	3.366954e-09
130	0x2eb0b38b	8.0354466e-11
131	0x2dfb4715	2.8566963e-11
132	0x318f3cb2	4.168748e-09
133	0x3193aa4b	4.297623e-09
134	0x2ee7a4f7	1.05339674e-10
135	0x2e6cb381	5.381962e-11
136	0x3188c70b	3.9807495e-09
137	0x3142eb48	2.8364457e-09
138	0x2eff2905	1.1603344e-10
139	0x2de3ed77	2.5912368e-11
140	0x321d6dfa	9.1636085e-09
141	0x31af4f33	5.1021742e-09
142	0x2f89f956	2.509732e-10
143	0x2e8b62c1	6.3385304e-11
144	0x308ca3c1	1.0232882e-09
145	0x3099af4f	1.1182041e-09
146	0x2df05a5f	2.7324974e-11
147	0x2d75b34b	1.3966449e-11
148	0x31d2b90a	6.132841e-09
149	0x318dee63	4.1307415e-09
150	0x2f1b53a8	1.4126889e-10
151	0x2d9421a4	1.6840591e-11
152	0x2fe5466f	4.1704903e-10
153	0x303ffaac	6.984162e-10
154	0x2cf00c58	6.8225807e-12
155	0x2cda670c	6.207373e-12
156	0x31d4b9bd	6.191128e-09
157	0x31d9f9a2	6.343911e-09
158	0x2f22ea33	1.4817018e-10
159	0x2e8ad11c	6.312659e-11
160	0x30bb10c9	1.3610811e-09
161	0x3046b020	7.228227e-10
162	0x2de640f3	2.6176816e-11
163	0x2c622adc	3.2140323e-12
164	0x30f4b12b	1.7803691e-09
165	0x310d8b7c	2.0597488e-09
166	0x2e45182f	4.4814093e-11
167	0x2d83944f	1.4958838e-11
168	0x312479a0	2.3934277e-09
169	0x31b408e7	5.2397016e-09
170	0x2e7fb09f	5.813716e-11
171	0x2e4229dd	4.4147675e-11
172	0x0cd8d72d	3.3409574e-31
173	0x0c5345ce	1.6275855e-31
174	0x09a1b3bb	3.8928358e-33
175	0x0815d842	4.5092266e-34
176	0x31f176e1	7.027538e-09
177	0x31cb0b0a	5.9093326e-09
178	0x2f8c8ea1	2.5567196e-10
179	0x2ecb0d71	9.233759e-11
180	0x1f037e39	2.7844738e-20
181	0x1f85f82f	5.6738276e-20
182	0x1c1e68c5	5.2413226e-22
183	0x1b9e0492	2.614186e-22
184	0x31dccaaf	6.425885e-09
185	0x31b8e7b3	5.381446e-09
186	0x2f1ad4fa	1.4081883e-10
187	0x2e9927b6	6.9646885e-11
188	0x1a0d1973	2.9178674e-23
189	0x1a8ab459	5.736683e-23
190	0x1801db86	1.678369e-24
191	0x16f9e830	4.037465e-25
192	0x32265d7a	9.683726e-09
193	0x32112fe9	8.451004e-09
194	0x2f6ea9cb	2.1706296e-10
195	0x2ef73a5d	1.1242627e-10
196	0x302122a4	5.8620686e-10
197	0x30897492	1.0001193e-09
198	0x2d851a48	1.513202e-11
199	0x2d2f1acb	9.9535475e-12
200	0x315e12bb	3.2315899e-09
201	0x30bbf795	1.3676408e-09
202	0x2eae4d24	7.926307e-11
203	0x2dd738b1	2.4467846e-11
204	0x02169061	1.1061694e-37
205	0x034d42a7	6.03206e-37
206	0x00000000	0.0
207	0x00000000	0.0
208	0x2f9719fd	2.7485206e-10
209	0x2eb4939c	8.211673e-11
210	0x2c6ad305	3.337054e-12
211	0x2b622aa6	8.0350516e-13
212	0x314bb575	2.9643534e-09
213	0x309acfe4	1.1264061e-09
214	0x2e8cb013	6.39774e-11
215	0x2db95ab0	2.1072338e-11
216	0x00000000	0.0
217	0x00000000	0.0
218	0x00000000	0.0
219	0x00000000	0.0
220	0x31f053be	6.9944397e-09
221	0x32122453	8.506578e-09
222	0x2f18cf15	1.389789e-10
223	0x2ee1be1c	1.02655856e-10
224	0x31e176e4	6.561878e-09
225	0x31463b40	2.8846472e-09
226	0x2f179617	1.3786693e-10
227	0x2e635c38	5.169573e-11
228	0x315fb32e	3.2552623e-09
229	0x31b4553e	5.2483804e-09
230	0x2ea07f14	7.298531e-11
231	0x2e58b05a	4.9269346e-11
232	0x30f26a11	1.7637963e-09
233	0x31944d5b	4.316161e-09
234	0x2e03e581	2.9989792e-11
235	0x2e065467	3.0543037e-11
236	0x06054f2e	2.5072692e-35
237	0x07353075	1.3631167e-34
238	0x03a62ff0	9.767609e-37
239	0x02a837f3	2.4717495e-37
240	0x2fe9b6b3	4.251227e-10
241	0x2fdf2938	4.059275e-10
242	0x2d2fafbb	9.986618e-12
243	0x2bf625f6	1.7489888e-12
244	0x3199879a	4.468302e-09
245	0x319501a8	4.336659e-09
246	0x2f08ce5f	1.2442446e-10
247	0x2e15b303	3.4037672e-11
248	0x31ed2fc4	6.903038e-09
249	0x31a063b5	4.6679483e-09
250	0x2f53859d	1.9237807e-10
251	0x2e85d68d	6.0862516e-11
252	0x30c08728	1.4008252e-09
253	0x316c349b	3.4372423e-09
254	0x2e0bf1b2	3.181961e-11
255	0x2dc82592	2.2754052e-11

exp_avg f4 [128]
0	0xb60a8c1c	-2.0645157e-06
1	0x00000000	0.0
2	0xb61777da	-2.2570516e-06
3	0x35442d48	7.308158e-07
4	0x34e0e320	4.1888507e-07
5	0x02196a2c	1.1271135e-37
6	0xb61cdf14	-2.337566e-06
7	0x335037a0	4.8479365e-08
8	0x3441b390	1.803985e-07
9	0xb693ac37	-4.40099e-06
10	0x33ab2cf8	7.970988e-08
11	0x36894e38	4.092024e-06
12	0x36a3a3f2	4.8768643e-06
13	0xb648134a	-2.981355e-06
14	0xb255ba00	-1.2440523e-08
15	0x30912800	1.0561507e-09
16	0x3458f3c0	2.0205243e-07
17	0xb5c5f3e0	-1.4748621e-06
18	0xb3d93bc0	-1.01157184e-07
19	0xb4f0aa0c	-4.482721e-07
20	0xb5c6b5c8	-1.4805055e-06
21	0x3636be1e	2.7230776e-06
22	0xb6ea9359	-6.990897e-06
23	0xb6328434	-2.660102e-06
24	0xb59e9ec0	-1.181812e-06
25	0xb4a7f5ca	-3.128501e-07
26	0xb40d32ca	-1.3150125e-07
27	0xb618499c	-2.2692611e-06
28	0x3571afb8	9.00352e-07
29	0xb5036150	-4.894291e-07
30	0xb416c41b	-1.4041181e-07
31	0xb5c1baca	-1.4433983e-06
32	0x367094b5	3.5849346e-06
33	0xb65a176a	-3.249816e-06
34	0xb54ea5e4	-7.698238e-07
35	0x36846ea8	3.9467886e-06
36	0xb61a9753	-2.303587e-06
37	0xb6991e2d	-4.5632682e-06
38	0xb487b89a	-2.5280025e-07
39	0xb5ba5a4c	-1.388436e-06
40	0xb51b5bb9	-5.7875474e-07
41	0x36353be2	2.7005958e-06
42	0xb2870580	-1.571857e-08
43	0x021f73e4	1.1714734e-37
44	0xb783403a	-1.5646325e-05
45	0x021b4d88	1.1409852e-37
46	0xb6814b55	-3.8532694e-06
47	0x02197b06	1.1275971e-37
48	0xb69adcb3	-4.6152504e-06
49	0xb6151c00	-2.2219028e-06
50	0xb5bfb672	-1.4283708e-06
51	0x0218316d	1.1181381e-37
52	0xb4935324	-2.7441376e-07
53	0xb54f86b8	-7.730955e-07
54	0x00000000	0.0
55	0xb6f07e92	-7.167292e-06
56	0xb502444b	-4.8528153e-07
57	0xb5e661eb	-1.7164833e-06
58	0xb639ed95	-2.770544e-06
59	0x021cb2c3	1.1512372e-37
60	0xb51704a9	-5.6258665e-07
61	0xb50b913a	-5.199287e-07
62	0xb6fa3296	-7.4564696e-06
63	0x34873f68	2.5191844e-07
64	0x34df7190	4.1619614e-07
65	0x365d4c72	3.2976063e-06
66	0xb6a3a385	-4.8768147e-06
67	0x351fcb75	5.9528185e-07
68	0xb66aa047	-3.496201e-06
69	0xb54fad42	-7.736563e-07
70	0xb4865248	-2.5019312e-07
71	0xb50d5a6e	-5.2658186e-07
72	0x363ec931	2.8429315e-06
73	0xb580734c	-9.570299e-07
74	0xb60f9c37	-2.139959e-06
75	0x021e7864	1.1642557e-37
76	0xb6ad2336	-5.159901e-06
77	0x1f4ada21	4.2955596e-20
78	0xb700bbae	-7.673092e-06
79	0xb63bfd4a	-2.8012605e-06
80	0xb68e4dae	-4.240973e-06
81	0xb48b8cfc	-2.5993347e-07
82	0xb6b5fb11	-5.4234483e-06
83	0xb3f220c8	-1.1274966e-07
84	0xb6af1cc6	-5.218756e-06
85	0x00000000	0.0
86	0xb617f6fe	-2.2644522e-06
87	0xb6a28849	-4.843842e-06
88	0x34d72210	4.0071654e-07
89	0x36412bec	2.8784807e-06
90	0x021c9175	1.1502814e-37
91	0x35269aa4	6.206485e-07
92	0xb68648a4	-4.0019677e-06
93	0xb3c17116	-9.007833e-08
94	0xb3bb30d6	-8.716749e-08
95	0x358b7a1c	1.0391846e-06
96	0xb64f7d6d	-3.091841e-06
97	0x3616cf6b	2.2472475e-06
98	0xb614fb5b	-2.2200027e-06
99	0xb4fc7260	-4.7021877e-07
100	0xb67315b7	-3.6222461e-06
101	0x35903465	1.0744085e-06
102	0xb75409a2	-1.26384275e-05
103	0xb492b714	-2.7327826e-07
104	0xb6f81a6e	-7.394053e-06
105	0x0214be00	1.092785e-37
106	0xb4933848	-2.7421834e-07
107	0xb6ad9c78	-5.174017e-06
108	0xb69ccec7	-4.6732343e-06
109	0x02195301	1.1264486e-37
110	0xb6946eb4	-4.4236313e-06
111	0xb6c90b33	-5.9915706e-06
112	0x367e745e	3.7916684e-06
113	0xb6472410	-2.9674302e-06
114	0xb69edbd4	-4.7343583e-06
115	0x021c8596	1.1499407e-37
116	0x021a7593	1.1347875e-37
117	0xb6022be1	-1.939705e-06
118	0xb54a7974	-7.54276e-07
119	0xb67ce3a6	-3.7683435e-06
120	0x36f2da86	7.2376015e-06
121	0xb4a72cc8	-3.1138757e-07
122	0xb5be9fb2	-1.4202581e-06
123	0xb5b3f239	-1.3407035e-06
124	0xb67364a3	-3.62684e-06
125	0x3551583e	7.7986977e-07
126	0x354d9be4	7.65953e-07
127	0x0211c9d3	1.0710838e-37

exp_avg_sq f4 [128]
0	0x321d1ddc	9.145392e-09
1	0x00000000	0.0
2	0x31bc36f1	5.4777662e-09
3	0x2f83ef9a	2.3999008e-10
4	0x3262b31f	1.3195659e-08
5	0x062f00b7	3.2914367e-35
6	0x32218e71	9.403821e-09
7	0x3118c3c7	2.2230198e-09
8	0x31a8742b	4.9026503e-09
9	0x32add966	2.0238712e-08
10	0x2f19dc49	1.399353e-10
11	0x3298cb07	1.7787455e-08
12	0x32946f53	1.7280092e-08
13	0x31937586	4.291624e-09
14	0x3019b4d2	5.5918037e-10
15	0x322a7c22	9.923527e-09
16	0x316b6e44	3.425968e-09
17	0x3237fa6e	1.0708943e-08
18	0x31ad60e1	5.0459765e-09
19	0x319b2123	4.514861e-09
20	0x31de7e39	6.4754e-09
21	0x3228eba6	9.832467e-09
22	0x328e977a	1.659986e-08
23	0x3239c429	1.0813019e-08
24	0x31aef51a	5.0919313e-09
25	0x2e6e84f7	5.423303e-11
26	0x2efb9c71	1.1441948e-10
27	0x32a0d98b	1.8725379e-08
28	0x31b6db79	5.3218483e-09
29	0x31ef85e1	6.9710357e-09
30	0x2d2d5b96	9.854248e-12
31	0x30b07427	1.2838698e-09
32	0x3250f674	1.216323e-08
33	0x3215343d	8.684819e-09
34	0x32057e03	7.770271e-09
35	0x32f126a6	2.8073668e-08
36	0x315f520d	3.2497411e-09
37	0x320f2843	8.33285e-09
38	0x3007a8d6	4.9352644e-10
39	0x3276bc44	1.4361891e-08
40	0x30a0852c	1.1679382e-09
41	0x31cf0d56	6.026009e-09
42	0x319f0a95	4.628712e-09
43	0x0c11983e	1.1216207e-31
44	0x32e266b3	2.6356565e-08
45	0x1efe091c	2.6897064e-20
46	0x3281546e	1.505597e-08
47	0x1a9fb557	6.605383e-23
48	0x32cdcb6c	2.3957647e-08
49	0x30ce401b	1.5006693e-09
50	0x317c1cc5	3.668718e-09
51	0x027d73de	1.8620757e-37
52	0x2ef4949e	1.1122235e-10
53	0x313a7dbd	2.7138036e-09
54	0x00000000	0.0
55	0x322bfc64	1.0010897e-08
56	0x31d332d6	6.1466876e-09
57	0x3196d916	4.3902544e-09
58	0x312b30ec	2.4911584e-09
59	0x066721da	4.347114e-35
60	0x2fca7fd1	3.6834405e-10
61	0x32447565	1.1435394e-08
62	0x32af2107	2.03877e-08
63	0x311babf2	2.2653208e-09
64	0x31ffe93f	7.4479938e-09
65	0x3308bf13	3.183875e-08
66	0x3247f31f	1.1638604e-08
67	0x31a0524e	4.66597e-09
68	0x32a022bf	1.8642252e-08
69	0x311ccaf3	2.281635e-09
70	0x3145cd07	2.8783818e-09
71	0x32170318	8.79006e-09
72	0x3213d356	8.604578e-09
73	0x32e67aa0	2.6831287e-08
74	0x313d3cee	2.7537754e-09
75	0x09167215	1.8109234e-33
76	0x3299a03d	1.7884412e-08
77	0x2b9490c5	1.0556214e-12
78	0x32112fb9	8.450962e-09
79	0x32fe98ef	2.9639038e-08
80	0x3198d78c	4.448287e-09
81	0x31a68d5a	4.8473057e-09
82	0x32152d54	8.683248e-09
83	0x30db11e1	1.5939429e-09
84	0x3211e256	8.491574e-09
85	0x00000000	0.0
86	0x32845aa4	1.5408041e-08
87	0x31bcb3e6	5.491972e-09
88	0x31972554	4.398922e-09
89	0x32431df9	1.1357309e-08
90	0x279acebc	4.296773e-15
91	0x31e02cb5	6.5243406e-09
92	0x31a97da7	4.9328324e-09
93	0x2d85f18c	1.5227618e-11
94	0x2e20605e	3.646538e-11
95	0x31d538c3	6.205569e-09
96	0x3230304d	1.0255531e-08
97	0x31c2d709	5.6705898e-09
98	0x31e73e29	6.7300516e-09
99	0x30d9e6b0	1.5854393e-09
100	0x3142e8f9	2.8363145e-09
101	0x32ac8925	2.0085801e-08
102	0x330318b3	3.0523278e-08
103	0x3142f77f	2.83714e-09
104	0x32cc5c2e	2.3790644e-08
105	0x00000000	0.0
106	0x311ff102	2.3274542e-09
107	0x3218db5b	8.89744e-09
108	0x3181051e	3.754976e-09
109	0x292b632d	3.805565e-14
110	0x3139b6ae	2.7024885e-09
111	0x320fe90c	8.376684e-09
112	0x328794d2	1.5783744e-08
113	0x31a668cc	4.84315e-09
114	0x323cb8b3	1.0985036e-08
115	0x1d1a63c0	2.04333e-21
116	0x1047c84d	3.9400136e-29
117	0x318d939d	4.120422e-09
118	0x3059c708	7.922698e-10
119	0x32526ea1	1.2248763e-08
120	0x32c252b5	2.2622183e-08
121	0x31f0964a	7.002005e-09
122	0x32631a60	1.3219136e-08
123	0x3049eebb	7.346263e-10
124	0x31f7e682	7.214852e-09
125	0x31cff26f	6.0520544e-09
126	0x30d69678	1.5613315e-09
127	0x0c295dbf	1.3047497e-31
