checkpoints_wall/online_iter_1.pt (torch, 217103 bytes, 18 tensors)

net.0.weight f4 [128, 4]
0.30587503 0.35242397 -0.110104896 0.3884646 -0.10955179 0.100895345 -0.24342752 0.29364133
0.49215847 -0.33684698 0.28678972 0.0886478 0.39015254 0.121713616 0.2786673 0.19368692
0.3694071 0.10536537 -0.17948806 0.16730392 -0.18695655 -0.031165166 -0.24774596 0.305381
-0.33671996 -0.11289372 -0.3238525 -0.24383366 0.022288302 -0.38631877 0.48084182 -0.36402315
0.33907545 0.07047775 -0.10187276 0.09127423 0.049816705 0.360133 0.08507858 -0.05282535
0.07005563 -0.11705711 0.37296277 0.31381574 0.31976295 -0.19036345 0.2120517 -0.019009508
0.24050783 -0.30177188 -0.49101746 -0.19338658 -0.3788901 0.45136666 0.015135008 0.14306082
0.15407927 -0.02330474 0.3711515 -0.27488306 0.04059351 -0.3127624 0.11741474 -0.111020826
0.13547775 -0.109390266 0.34136233 -0.14802173 -0.22704117 -0.301222 0.27071333 0.1554636
0.35641706 -0.3207918 -0.1841756 -0.19166476 -0.34476727 0.19948491 0.18086758 0.35490865
-0.2386516 -0.2822242 0.107938804 -0.34630874 0.2529643 -0.16163892 0.28790194 -0.35694394
-0.21847801 0.17968133 0.007406078 -0.06229942 0.24575745 0.3382926 -0.3418629 -0.16953851
0.51112485 -0.19040705 -0.18449381 -0.12351543 -0.15823242 0.052487936 -0.22027016 -0.23595454
-0.006671057 -0.33638448 -0.33667815 -0.014266733 -0.39057115 -0.21945843 0.3689692 0.09218138
-0.012307598 -0.47178277 -0.14299157 0.10495275 0.08424481 -0.41141957 -0.118532926 -0.17844175
-0.0006179129 -0.1679689 0.11202652 -0.18166402 -0.28067476 -0.1550214 -0.15197925 -0.32727256
0.37351564 -0.17104991 0.47683027 0.1592433 -0.34604812 0.29828927 -0.18157306 0.011203468
-0.35824087 -0.4176652 0.01972702 -0.11797794 0.17896566 -0.43398225 0.2764249 -0.3873907
-0.11403244 0.051710464 0.17922987 0.41034743 0.48870766 -0.31288642 0.09585579 -0.16272454
-0.022877682 -0.28192466 0.42644408 -0.2593531 0.20425205 0.1359493 0.19830057 -0.2717521
0.3480213 0.13259374 0.24292146 -0.10733592 0.17120293 -0.051802572 -0.12594935 0.34193483
0.011927532 -0.28098616 -0.17206618 0.0485366 0.18338718 -0.016081812 -0.13827035 -0.14135154
-0.35910115 0.1617429 0.25104293 -0.32745105 0.033437204 0.08192888 0.1756265 0.014730983
0.2239404 0.27857387 0.20592771 -0.09555081 -0.034003977 -0.0045541436 -0.18690223 0.011942431
0.31892893 0.43952718 0.0023448206 -0.14109197 -0.08463241 0.018152568 0.14864323 0.20653434
-0.35107732 -0.19055746 0.24507937 0.02539109 -0.058609977 -0.2375174 -0.20348945 -0.38734132
-0.20323208 0.11025584 0.37171394 0.27221677 -0.47997394 -0.20620498 -0.04340865 0.3739957
0.07232875 -0.12948537 0.20685762 -0.19044077 -0.35880667 0.36801612 -0.30903557 0.104869395
-0.53991616 0.35657763 0.3941821 0.13522826 -0.38782626 -0.5434634 -0.36332098 0.22991338
0.1386272 0.40315816 0.44760072 0.22220339 -0.06887714 -0.2794694 -0.29174986 -0.42842472
0.2207789 -0.19697882 -0.08377213 0.032763943 -0.10874408 -0.3030875 -0.31160608 0.13947235
-0.20238455 0.28465706 -0.14898552 -0.31692195 -0.08082943 -0.24244864 -0.21566397 -0.2124919
00000000: a79b 9c3e ea70 b43e ad7e e1bd d5e4 c63e
00000010: b05c e0bd 38a2 ce3d 1045 79be 2858 963e
00000020: 32fc fb3e 3577 acbe 1ad6 923e fa8c b53d
00000030: 13c2 c73e fd44 f93d 7bad 8e3e dd55 463e
00000040: ed22 bd3e cdc9 d73d b8cb 37be b851 2b3e
00000050: 8a71 3fbe 174e ffbc 1eb1 7dbe e65a 9c3e
00000060: 8f66 acbe d334 e7bd ffcf a5be 88af 79be
00000070: f595 b63c 93cb c5be e630 f63e 3e61 babe
00000080: 4c9b ad3e a356 903d aaa2 d0bd fced ba3d
00000090: 9a0c 4c3d 5a63 b83e ae3d ae3d 655f 58bd
000000a0: 5379 8f3d a3bb efbd faf4 be3e 75ac a03e
000000b0: f8b7 a33e a3ee 42be 1524 593e d4b9 9bbc
000000c0: af47 763e d881 9abe a466 fbbe 2207 46be
000000d0: e2fd c1be 8819 e73e d3f8 773c 897e 123e
000000e0: f5c6 1d3e 95e9 bebc 9207 be3e 79bd 8cbe
000000f0: 6145 263d 6522 a0be 2477 f03d e35e e3bd
00000100: aeba 0a3e 0108 e0bd 0bc7 ae3e 0293 17be
00000110: 7b7d 68be c539 9abe f09a 8a3e da31 1f3e
00000120: 4c7c b63e d33e a4be 8798 3cbe c443 44be
00000130: 5685 b0be c645 4c3e 5a35 393e 96b6 b53e
00000140: 1661 74be b17f 90be 050f dd3d 614f b1be
00000150: 8984 813e ac84 25be e267 933e 5bc1 b6be
00000160: b3b8 5fbe 62fe 373e afae f23b ad2d 7fbd
00000170: d7a7 7b3e b034 ad3e a708 afbe 819b 2dbe
00000180: 14d9 023f 11fa 42be f2eb 3cbe a8f5 fcbd
00000190: ae07 22be 97fd 563d 808e 61be 119e 71be
000001a0: e298 dabb 963a acbe 1461 acbe 04bf 69bc
000001b0: f1f8 c7be b6b9 60be 88e9 bc3e 97c9 bc3d
000001c0: cfa5 49bc 838d f1be 626c 12be 78f1 d63d
000001d0: 8b88 ac3d 96a5 d2be 64c1 f2bd 6fb9 36be
000001e0: 6ffb 21ba 0a00 2cbe 296e e53d 2206 3abe
000001f0: 9ab4 8fbe eebd 1ebe 73a0 1bbe 4590 a7be
00000200: 713d bf3e b527 2fbe 1923 f43e ad10 233e
00000210: 382d b1be 5fb9 983e 4aee 39be c08e 373c
00000220: 596b b7be 37d8 d5be 8f9a a13c 6b9e f1bd
00000230: c642 373e ec32 debe 9187 8d3e 1358 c6be
00000240: d789 e9bd 5ace 533d 0988 373e 0f19 d23e
00000250: e437 fa3e a632 a0be 0a50 c43d 43a1 26be
00000260: fa69 bbbc 6e58 90be e156 da3e eec9 84be
00000270: 7327 513e 4b36 0b3e 4e0f 4b3e 1723 8bbe
00000280: d92f b23e a7c6 073e 67c0 783e efd2 dbbd
00000290: d24f 2f3e ef2e 54bd def8 00be 1512 af3e
000002a0: b26b 433c 6bdd 8fbe 1e32 30be 50ce 463d
000002b0: d9c9 3b3e 01be 83bc be96 0dbe 75be 10be
000002c0: 1bdc b7be ee9f 253e b388 803e aaa7 a7be
000002d0: 73f5 083d 54ca a73d 6fd7 333e 395a 713c
000002e0: a250 653e 3ca1 8e3e b7de 523e 25b0 c3bd
000002f0: c147 0bbd ed3a 95bb 4c63 3fbe 30aa 433c
00000300: a74a a33e b509 e13e 90ab 193b 6a7a 10be
00000310: c253 adbd b2b4 943c ee35 183e bd7d 533e
00000320: 68c0 b3be 7f21 43be 16f6 7a3e fa00 d03c
00000330: 0411 70bd c337 73be 8a5f 50be 9a51 c6be
00000340: 121c 50be d0cd e13d 4a51 be3e ff5f 8b3e
00000350: 25bf f5be 6627 53be 45cd 31bd 5d7c bf3e
00000360: 1821 943d d097 04be 7cd2 533e e802 43be
00000370: 82b5 b7be 9c6c bc3e e939 9ebe c4c5 d63d
00000380: f237 0abf 5891 b63e 3cd2 c93e 4779 0a3e
00000390: 2a91 c6be 6b20 0bbf 3505 babe 6a6e 6b3e
000003a0: 4af4 0d3e bf6a ce3e ec2b e53e 4989 633e
000003b0: 750f 8dbd 9d16 8fbe 3d60 95be 7c5a dbbe
000003c0: dd13 623e d1b4 49be b990 abbd 7c33 063d
000003d0: 37b5 debd 492e 9bbe d58a 9fbe d7d1 0e3e
000003e0: e53d 4fbe 92be 913e a98f 18be 9843 a2be
000003f0: e689 a5bd 7544 78be 04d7 5cbe 7a97 59be

net.0.bias f4 [128]
0.054150343 -0.38143605 -0.24112 -0.3284964 0.28782725 -0.5120817 0.27373716 -0.04659312
-0.02905511 0.2600438 -0.06355506 0.27532396 0.32464436 -0.3669744 0.08672085 0.05392061
0.09561558 0.024027847 0.044183493 -0.2239494 -0.044347767 0.35988814 0.25496063 -0.028671732
-0.3739562 -0.0071648476 -0.32123396 0.35848773 -0.2950383 -0.04253051 -0.09538097 -0.010651427
0.38924217 0.0173645 0.18147154 0.36591235 0.2360299 -0.10932429 -0.20377423 0.21159513
-0.19138148 0.1308215 -0.095261075 -0.4231058 0.14931655 -0.06864101 0.14326537 -0.028745417
0.26314032 0.30044147 0.008413533 -0.50084317 -0.3378926 -0.21694906 -0.44062418 -0.22068147
-0.38484406 -0.38271183 -0.32136473 -0.59092754 -0.27848822 0.17419778 0.37342945 -0.14494766
-0.11827851 0.2328396 -0.2038852 -0.26073286 0.24342391 -0.3908383 -0.0007474847 0.34155312
0.030334702 0.092335835 -0.23209408 -0.09297058 0.010398254 -0.042783767 0.09182407 0.4210907
-0.31724083 0.011253341 -0.21641225 -0.3796372 -0.034458604 -0.44011843 0.25279462 -0.003267378
-0.2606642 0.20339097 -0.372623 -0.12907869 -0.08361666 -0.41521385 -0.3181554 -0.056977794
0.27177727 0.34675965 0.23546809 -0.31073707 -0.2684968 0.34877688 0.13473766 -0.023596253
0.07885182 -0.41169658 -0.16492403 0.38486332 -0.10771399 -0.06336616 -0.3530326 -0.21600784
-0.011306007 -0.27562556 -0.07248104 -0.018013876 -0.5565873 0.005470744 -0.260893 -0.20266327
0.18191089 0.29931796 -0.09368358 -0.1868954 -0.36589906 -0.22933525 -0.36543074 -0.16194312
00000000: c0cc 5d3d 964b c3be 29e8 76be ae30 a8be
00000010: 185e 933e c917 03bf 4727 8c3e 6dd8 3ebd
00000020: fb04 eebc 7624 853e 2829 82bd 43f7 8c3e
00000030: c937 a63e 12e4 bbbe b39a b13d dcdb 5c3d
00000040: 1ad2 c33d 0cd6 c43c c0f9 343d fe52 65be
00000050: 01a6 35bd 4243 b83e 338a 823e fbe0 eabc
00000060: 3077 bfbe 19c7 eabb c778 a4be b48b b73e
00000070: 430f 97be 7934 2ebd 1957 c3bd 5383 2ebc
00000080: c04a c73e ff3f 8e3c add3 393e dd58 bb3e
00000090: d2b1 713e 6ae5 dfbd 31aa 50be 65ac 583e
000000a0: 82f9 43be 12f6 053e 3d18 c3bd 53a1 d8be
000000b0: 70e6 183e a893 8cbd 28b4 123e 827b ebbc
000000c0: 54ba 863e 77d3 993e ead8 093c 4237 00bf
000000d0: 4200 adbe e527 5ebe 7e99 e1be 53fa 61be
000000e0: 480a c5be cef2 c3be eb89 a4be 0747 17bf
000000f0: 0296 8ebe e760 323e 2532 bf3e 296d 14be
00000100: 013c f2bd 816d 6e3e 48c7 50be c77e 85be
00000110: 1e44 793e f51b c8be d9f2 43ba 0de0 ae3e
00000120: 7b80 f83c 921a bd3d 12aa 6dbe 5c67 bebd
00000130: 705d 2a3c 083e 2fbd 420e bc3d 3399 d73e
00000140: 646d a2be ef5f 383c 2c9b 5dbe cf5f c2be
00000150: 7724 0dbd 3457 e1be 4c6e 813e 8221 56bb
00000160: c775 85be b945 503e 71c8 bebe 342d 04be
00000170: 363f abbd e996 d4be 44e5 a2be 8c61 69bd
00000180: 6426 8b3e 7b8a b13e 8c1e 713e ee18 9fbe
00000190: 6a78 89be e292 b23e abf8 093e ee4c c1bc
000001a0: 107d a13d e5c9 d2be d8e1 28be ce0c c53e
000001b0: 2799 dcbd 1ec6 81bd b0c0 b4be 2931 5dbe
000001c0: d53c 39bc cb1e 8dbe f170 94bd d691 93bc
000001d0: 817c 0ebf ed43 b33b c493 85be f686 4fbe
000001e0: d946 3a3e 3440 993e 2ddd bfbd 8261 3fbe
000001f0: 1f57 bbbe dcd6 6abe bd19 bbbe 6bd4 25be

net.2.weight f4 [128, 128]
0.0101145925 -0.0828089 0.06869676 0.049904477 -0.095007636 -0.04221719 0.021428352 -0.026591083
-0.017994458 -0.039908722 0.06251521 -0.05788255 0.06483262 0.005703016 0.009288336 0.06052422
-0.023040494 -0.05675758 -0.022771472 0.07168767 -0.072760895 0.0115891835 -0.08686731 0.040786218
0.024312546 0.0037469813 0.029494958 -0.007187343 0.04044249 -0.078417175 -0.021398686 0.032194752
0.07953993 0.045024265 -0.07228994 0.0595248 -0.027896818 -0.027352441 -0.08865653 -0.022334881
0.054442562 0.0038487825 -0.059947126 0.018828342 -0.028341226 0.080698036 -0.084671766 -0.036180727
-0.09312671 -0.043238368 0.02786422 0.07660766 0.0148444995 0.086652264 0.017293368 0.05104745
0.0708576 0.06788225 -0.049473055 0.07278775 0.0450687 -0.049723014 -0.042179216 -0.08238584
0.013718315 -0.080114156 0.03733742 0.01966915 -0.08453346 0.024085902 -0.015504057 0.03205794
0.042238742 -0.09535997 0.08106086 0.065694764 0.03516828 -0.08078351 -0.031574152 -0.03359725
-0.022715623 0.042019982 0.0321354 0.0700194 -0.033103485 0.029746192 0.024779262 -0.07359133
-0.09129403 -0.05434363 0.060506035 -0.08321406 -0.07693621 0.049515203 0.047688074 0.06421108
-0.06672779 -0.073163584 0.036925506 0.076865174 0.05288618 0.0054501714 0.029130563 0.0757249
-0.057028543 -0.040129352 0.053747326 -0.06756859 -0.048738446 0.064522706 0.027888475 0.020084709
-0.045940462 -0.0012198036 0.08089591 -0.05305246 -0.007727285 0.034205846 -0.0693487 0.07983679
-0.052634966 -0.029370448 -0.029454917 -0.057599053 -0.08673236 0.04983791 0.023482496 -0.08278459
0.005991422 0.08736022 -0.042457134 0.030930912 -0.03809022 0.068650275 0.0047379388 0.1354671
-0.06532061 0.064707726 0.23042895 -0.04336082 -0.04961324 0.053419262 0.019927692 0.02240028
-0.0786215 -0.12955493 -0.013744321 0.07849318 -0.04780982 0.07418705 0.012185653 0.08135808
-0.07356562 -0.03083282 0.07190249 -0.06653903 -0.048807174 0.24940045 -0.12713286 0.08930381
-0.030081116 0.095681585 -0.06214005 -0.025104435 0.018873498 -0.16423586 -0.073137246 0.06768394
0.06267793 -0.04954116 -0.11367711 -0.061424132 0.07391227 0.058651265 0.08629102 0.007568098
0.09250343 0.09268787 -0.022038382 0.06288453 0.05894293 -0.0010029289 -0.05022879 0.071248524
0.062891744 -0.14244756 0.1262719 -0.050457604 0.05310021 -0.012425563 0.10820539 0.019825093
-0.017801026 -0.08964215 0.042343065 -0.0138217695 -0.010020228 0.045224365 0.06089815 -0.004228353
-0.037780132 -0.09472126 -0.030281764 -0.03230622 0.04799593 -0.024082312 0.057577267 0.036140393
0.082621396 0.1021366 0.014995248 -0.14723758 -0.0022543462 0.03201443 -0.034698572 0.08089171
0.06768303 0.034952644 0.2502896 0.11019903 0.038319997 0.060133506 0.079442546 0.017804854
0.016385697 0.059659284 0.09547544 0.057214934 0.08061728 -0.11392545 0.0474431 0.05058662
0.086830094 0.0075676353 -0.043487288 0.014007062 0.13319674 0.058596905 0.14490804 -0.06888048
-0.04348382 0.07992291 0.09021803 0.052546285 -0.030777209 0.113493755 0.031673923 -0.24626993
-0.112588406 0.038660754 0.04930872 0.42634133 0.08254612 -0.097519554 0.063016154 0.039799217
00000000: adb7 253c b697 a9bd e3b0 8c3d a368 4c3d
00000010: 5d93 c2bd efeb 2cbd 838a af3c 8bd5 d9bc
00000020: 1d69 93bc 5477 23bd f907 803d 4116 6dbd
00000030: f7c6 843d 5ee0 ba3b 1b2e 183c 3fe8 773d
00000040: 6bbf bcbc a37a 68bd 3d8b babc fcd0 923d
00000050: aa03 95bd 8fe0 3d3c 7de7 b1bd 730f 273d
00000060: 1b2b c73c ea8f 753b 699f f13c ce83 ebbb
00000070: 06a7 253d 2f99 a0bd 4c4c afbc a5de 033d
00000080: d5e5 a23d 5d6b 383d c00c 94bd 47d0 733d
00000090: de87 e4bc 3a12 e0bc 8e91 b5bd a4f7 b6bc
000000a0: 2aff 5e3d db3b 7c3b 1e8b 75bd e53d 9a3c
000000b0: dc2b e8bc 0345 a53d 6468 adbd 3e32 14bd
000000c0: 37b9 bebd b71a 31bd 8143 e43c 7ae4 9c3d
000000d0: 5836 733c be76 b13d d2aa 8d3c 2217 513d
000000e0: ca1d 913d d905 8b3d 42a4 4abd be11 953d
000000f0: f599 383d 5caa 4bbd 1dc4 2cbd e8b9 a8bd
00000100: c9c2 603c e412 a4bd 1fef 183d 3221 a13c
00000110: e11f adbd cc4f c53c ba04 7ebc 304f 033d
00000120: 8802 2d3d 174c c3bd 3c03 a63d fa8a 863d
00000130: 9d0c 103d d371 a5bd e653 01bd 459d 09bd
00000140: 1d16 babc 251d 2c3d 69a0 033d 5566 8f3d
00000150: 8597 07bd 49ae f33c e1fd ca3c 0db7 96bd
00000160: 5df8 babd 6d97 5ebd 2dd5 773d 226c aabd
00000170: bb90 9dbd 74d0 4a3d 9254 433d 1981 833d
00000180: 94a8 88bd cad6 95bd 333f 173d 7d6b 9d3d
00000190: 2e9f 583d 5a97 b23b 38a3 ee3c a815 9b3d
000001a0: c396 69bd ad5e 24bd 2826 5c3d 6761 8abd
000001b0: f7a1 47bd 7b24 843d 5f76 e43c b088 a43c
000001c0: 112c 3cbd d1e1 9fba c1ac a53d 894d 59bd
000001d0: 2a35 fdbb 6e1b 0c3d b106 8ebd 7981 a33d
000001e0: c397 57bd 4b9a f0bc 704b f1bc fcec 6bbd
000001f0: bca0 b1bd d622 4c3d 5d5e c03c f88a a9bd
00000200: b153 c43b eae9 b23d 88e7 2dbd d362 fd3c
00000210: 7e04 1cbd 8498 8c3d b640 9b3b e3b7 0a3e
00000220: d0c6 85bd 7c85 843d 91f5 6b3e 1d9b 31bd
00000230: 4137 4bbd 28ce 5a3d 663f a33c cb80 b73c
00000240: 4f04 a1bd 0caa 04be dc2f 61bc 08c1 a03d
00000250: 3bd4 43bd 61ef 973d 55a6 473c 119f a63d
00000260: 92a9 96bd 1c95 fcbc 9d41 933d 9d45 88bd
00000270: 08ea 47bd d562 7f3e 1e2f 02be eae4 b63d
00000280: ac6c f6bc b5f4 c33d 9186 7ebd d1a7 cdbc
00000290: 989c 9a3c 722d 28be fbc8 95bd e19d 8a3d
000002a0: 495d 803d aceb 4abd 8bcf e8bd df97 7bbd
000002b0: 515f 973d 4f3c 703d 59b9 b03d cffd f73b
000002c0: 7072 bd3d 23d3 bd3d d689 b4bc 9bc9 803d
000002d0: 246e 713d b674 83ba b4bc 4dbd bfea 913d
000002e0: 63cd 803d c6dd 11be 6c4d 013e a2ac 4ebd
000002f0: 9b7f 593d 9794 4bbc ca9a dd3d 3c68 a23c
00000300: 75d3 91bc 4e96 b7bd ec6f 2d3d b474 62bc
00000310: e22b 24bc 2f3d 393d 5770 793d ff8d 8abb
00000320: 57bf 1abd 38fd c1bd 7611 f8bc 8753 04bd
00000330: 6197 443d 4548 c5bc 24d6 6b3d f307 143d
00000340: 6835 a93d fe2c d13d a1ae 753c 73c5 16be
00000350: a7bd 13bb 9021 033d 1720 0ebd 8eaa a53d
00000360: 679d 8a3d 812a 0f3d f525 803e 07b0 e13d
00000370: 6ef5 1c3d 8d4e 763d c6b2 a23d 7cdb 913c
00000380: 4c3b 863c 4b5d 743d a188 c33d 355a 6a3d
00000390: ac1a a53d bf51 e9bd b253 423d ea33 4f3d
000003a0: fad3 b13d edf9 f73b ba1f 32bd e07d 653c
000003b0: ba64 083e 4f03 703d c662 143e 3611 8dbd
000003c0: 171c 32bd 9fae a33d 3bc4 b83d c63a 573d
000003d0: 7c20 fcbc 6a6f e83d 84bc 013d 2f2e 7cbe
000003e0: c094 e6bd bd5a 1e3d f1f7 493d 6949 da3e
000003f0: f10d a93d 55b8 c7bd 9d0e 813d 8104 233d

net.2.bias f4 [128]
-0.021516116 0.021303538 -0.039396875 -0.03299018 0.030417914 -0.057931803 0.03672322 0.058511343
0.068185225 0.0651387 -0.022878364 0.018452613 -0.10040075 -0.020335926 -0.010309319 -0.003257041
0.0074794465 -0.065347016 0.00066562305 -0.06664193 -0.10135606 -0.04459039 -0.06768821 0.024629338
-0.0071798014 0.07729646 0.023051357 0.0057747774 0.038308516 0.027081478 -0.07015612 -0.03171885
-0.084293075 -0.048045926 0.050720062 0.035364967 0.069999784 -0.029409261 0.012327319 0.03501659
0.040897977 -0.05133515 0.04778739 0.038941428 -0.022653429 0.08654751 0.09560172 -0.1009138
0.05948479 -0.109296784 -0.025321268 0.04951234 0.038027946 0.09011405 0.03878558 0.0026932887
0.051326074 -0.0696732 -0.022128122 -0.012787672 0.06570473 0.05733652 0.056725897 -0.055089958
0.07281868 0.07535835 -0.01156671 0.083975814 -0.01395924 -0.012960902 -0.02484147 0.020621696
-0.059357055 0.032988343 -0.0134232985 -0.060726706 -0.06476843 0.04498333 -0.0046875193 0.035379857
0.057530485 0.082069606 0.0132034505 -0.0011048776 0.025215834 -0.06547101 0.099423416 -0.057817217
-0.025629872 0.0067449333 0.12135989 0.083652854 0.033351902 0.079896905 -0.13076848 -0.057574272
0.046238456 -0.047806915 0.020897502 -0.055989455 0.040880203 -0.077107236 0.007504194 0.020612378
-0.077286586 0.10933148 0.06863792 -0.028910875 -0.052841924 0.023996593 -0.021771334 -0.015793288
0.064528055 0.014359541 -0.091453604 0.0070946906 -0.007109246 0.0039753104 -0.041070703 -0.019828763
0.01053952 0.05152244 0.020079212 0.030506099 -0.05653789 0.06330662 0.039639976 0.040962562
00000000: 9142 b0bc c284 ae3c 9e5e 21bd b620 07bd
00000010: fd2e f93c e649 6dbd 166b 163d 97a9 6f3d
00000020: b2a4 8b3d 7067 853d 686b bbbc ef29 973c
00000030: e99e cdbd 8797 a6bc 6be8 28bc 1574 55bb
00000040: 2516 f53b a8d4 85bd 357d 2e3a 907b 88bd
00000050: c493 cfbd 6aa4 36bd 1ea0 8abd 77c3 c93c
00000060: 8a44 ebbb 9b4d 9e3d 33d6 bc3c 583a bd3b
00000070: 64e9 1c3d fad9 dd3c 03ae 8fbd a0eb 01bd
00000080: d9a1 acbd cecb 44bd d7bf 4f3d dbda 103d
00000090: 0c5c 8f3d b1eb f0bc 86f8 493c 8e6d 0f3d
000000a0: a384 273d ce44 52bd b6bc 433d 0c81 1f3d
000000b0: af93 b9bc d23f b13d d6ca c33d e5ab cebd
000000c0: 53a6 733d fed6 dfbd 8c6e cfbc 74cd 4a3d
000000d0: 31c3 1b3d b78d b83d a1dd 1e3d e381 303b
000000e0: 4a3b 523d d3b0 8ebd 0946 b5bc 6283 51bc
000000f0: 3490 863d b3d9 6a3d 6a59 683d 02a6 61bd
00000100: f621 953d 7b55 9a3d 4c82 3dbc 83fb ab3d
00000110: 4cb5 64bc f759 54bc 5780 cbbc d5ee a83c
00000120: 6220 73bd c91e 073d 65ed 5bbc 91bc 78bd
00000130: 50a5 84bd 7140 383d c399 99bb 78ea 103d
00000140: 16a5 6b3d 1c14 a83d 4953 583c 8ad1 90ba
00000150: 7091 ce3c aa15 86bd 819e cb3d bfd1 6cbd
00000160: bdf5 d1bc 9a04 dd3b 898b f83d 3052 ab3d
00000170: 019c 083d fda0 a33d 2ce8 05be 00d3 6bbd
00000180: 8964 3d3d 2fd1 43bd 3d31 ab3c 3355 65bd
00000190: 0072 273d 66ea 9dbd bee5 f53b 4adb a83c
000001a0: 6e48 9ebd 2fe9 df3d 0a92 8c3d 80d6 ecbc
000001b0: c670 58bd 8194 c43c cc59 b2bc ed60 81bc
000001c0: 4927 843d 4844 6b3c 074c bbbd 947a e83b
000001d0: aef4 e8bb 5243 823b c139 28bd ee6f a2bc
000001e0: f3ad 2c3c 3209 533d 297d a43c ede7 f93c
000001f0: 4694 67bd e7a6 813d 875d 223d 5cc8 273d

net.4.weight f4 [2, 128]
0.0021899773 -0.008968923 -0.05402157 0.060864978 -0.041992523 -0.03447373 0.029170876 -0.00073599734
-0.07416763 -0.013359154 -0.002995404 -0.08174831 -0.018923633 -0.050169114 -0.0008423394 0.0031111452
-0.00039449614 0.07338578 -0.00064529595 -0.0026410797 0.001983984 -0.00015613066 -0.0025542134 0.00044572682
0.00025743077 0.002767573 0.003421294 -0.029021295 0.07373893 -0.065693505 -0.023131633 0.034710184
-0.0534809 0.07814123 -0.028321385 -0.00025254264 0.012479785 -0.06788424 0.08614912 -0.0051024933
0.029380387 0.052813046 -0.07544861 0.018502748 0.0008526894 -0.08803003 0.059232607 -0.02399072
-0.08394634 -0.03283452 0.067256734 0.043556947 0.018449323 0.017200064 -0.00086771057 -0.046716783
-0.008583503 0.057020392 0.0008814452 0.003636102 0.0675579 0.020349259 0.047837723 0.06484618
0.034354676 0.03296882 0.025656171 0.031713124 -0.08078056 -0.0064902995 -0.004117047 -0.025353957
-0.003086756 0.0008771939 -0.006664786 -0.06427207 0.028570136 0.07599672 -0.052220017 -0.06474591
-0.0032086223 -0.03848053 -0.07748555 0.0037337223 -0.0051653776 0.05493284 -0.013515738 -0.009174194
0.08544529 -0.08329752 -0.06996508 -0.08981225 0.024802005 0.009564871 0.009336908 0.06145233
-0.022387434 0.002674108 0.044839125 0.0046081417 -0.0011630665 -0.010950509 -0.00067114533 -0.00072561385
0.020803876 -0.058802187 0.035432924 0.020232938 0.030040687 -0.04197695 0.03577042 -0.069076635
0.09165493 -0.00040621715 0.00270128 0.008416953 -0.005147958 -0.0030792428 -0.07101059 -0.005520722
0.06992714 -0.0129756555 0.009287728 0.032034308 0.0037803377 -0.040100653 0.0037471366 0.009513743
0.036746748 0.069594644 0.024843015 -0.0699988 -0.010055896 0.057906758 0.07346447 0.0010148861
-0.046975143 -0.0753203 0.015653739 -0.00015735577 -0.00046498075 -0.01925203 0.002162878 0.0026556917
0.0016920993 -0.03189998 -0.00036692095 0.0036219168 -0.0019467672 -0.00082248996 0.00017155035 0.07357079
-0.0034571514 0.076907694 -0.0009388923 0.023770241 -0.06025758 0.059405055 0.03990212 0.02876357
-0.007421984 0.031126264 -0.083521135 -0.00030105552 0.072731234 -0.013690668 0.01697735 -0.006345154
-0.0530316 -0.018049499 -0.008842616 -0.056968577 -0.0047600134 -0.073739536 0.017650854 0.018834652
0.05670672 -0.06655691 -0.064180516 -0.031752482 0.099641286 0.0733705 -0.00031330652 -0.022540703
0.0027601835 0.009813545 -0.0011559668 -0.004563475 -0.031741805 -0.00067514804 0.04353898 -0.043570794
-0.003092484 0.053976204 0.023102304 0.064358965 -0.017654264 0.0034947945 -0.010084882 0.07917016
0.0032771314 -0.06094384 0.0070716664 0.08676805 0.023636237 -0.029027095 0.085411 0.03284172
-0.0017068309 0.005570694 0.061713595 0.0015160862 0.0020869824 0.011702109 -0.05994703 -0.027555285
-0.02092714 0.028314877 0.046310782 0.037963435 0.024233503 -0.08437163 0.0042060846 -0.04297166
-0.07344925 -0.00025537674 -0.059298526 -0.026250916 -0.00017409289 -0.04119828 0.00050524424 -0.002408903
-0.022862092 -0.08534737 -0.06775956 -0.07243912 0.049517304 -0.004353572 -0.07523094 -0.022728693
0.010902246 -0.00321603 0.0040485114 -0.03222034 0.003010959 -0.005061288 0.051409397 0.007017004
0.02788485 0.015050795 -0.015470737 -0.008143724 0.0286714 0.043773815 0.0035231384 0.046735354
00000000: b985 0f3b 64f2 12bc b945 5dbd 8e4d 793d
00000010: 5a00 2cbd 5334 0dbd c3f7 ee3c f2ef 40ba
00000020: 33e5 97bd 5ae0 5abc 8a4e 44bb a86b a7bd
00000030: bc05 9bbc 217e 4dbd 71d0 5cba 5be4 4b3b
00000040: 60d4 ceb9 494b 963d 1429 29ba f715 2dbb
00000050: ba05 023b 01b7 23b9 9764 27bb 71b0 e939
00000060: c6f7 8639 2c60 353b ca37 603b 11be edbc
00000070: 7004 973d 518a 86bd 8d7e bdbc 442c 0e3d
00000080: ca0e 5bbd 8208 a03d 4002 e8bc b367 84b9
00000090: 0378 4c3c e406 8bbd f36e b03d d132 a7bb
000000a0: 23af f03c 7e52 583d cd84 9abd 1393 973c
000000b0: 0487 5f3a 1749 b4bd e49d 723d 3088 c4bc
000000c0: 0fec abbd 7d7d 06bd e6bd 893d c568 323d
000000d0: 0923 973c 26e7 8c3c 1277 63ba 195a 3fbd
000000e0: d2a1 0cbc 378e 693d c910 673a ab4b 6e3b
000000f0: cc5b 8a3d 7db3 a63c 7df1 433d 13ce 843d
00000100: 7db7 0c3d 500a 073d e42c d23c 9fe5 013d
00000110: 4770 a5bd 94ac d4bb 4be8 86bb 1ab3 cfbc
00000120: 2c4b 4abb 7cf3 653a 4764 dabb 13a1 83bd
00000130: eb0b ea3c 2ba4 9b3d a8e4 55bd 8199 84bd
00000140: c047 52bb c39d 1dbd beb0 9ebd 77b1 743b
00000150: 5442 a9bb 4201 613d 1d71 5dbc 5c4f 16bc
00000160: f1fd ae3d e497 aabd da49 8fbd 7cef b7bd
00000170: 932d cb3c fab5 1c3c d5f9 183c 70b5 7b3d
00000180: da65 b7bc 1640 2f3b 3ba9 373d e5ff 963b
00000190: 0972 98ba c469 33bc cdef 2fba 1f37 3eba
000001a0: e46c aa3c 90da 70bd 1d22 113d 8cbf a53c
000001b0: e317 f63c 06f0 2bbd 0184 123d 0d78 8dbd
000001c0: 94b5 bb3d 8bf9 d4b9 f507 313b 42e7 093c
000001d0: 34b0 a8bb 1fcd 49bb 006e 91bd 2ce7 b4bb
000001e0: f635 8f3d d897 54bc 8e2b 183c 6836 033d
000001f0: 8bbf 773b 9540 24bd 8592 753b 88df 1b3c
00000200: c283 163d a387 8e3d 9483 cb3c 885b 8fbd
00000210: 7cc1 24bc a32f 6d3d 8a74 963d ed05 853a
00000220: 0269 40bd 8841 9abd 453c 803c deff 24b9
00000230: a9c8 f3b9 6fb6 9dbc 12bf 0d3b 1d0b 2e3b
00000240: 6ec9 dd3a 8ea9 02bd 4c5f c0b9 ae5d 6d3b
00000250: ab2a ffba 5e9c 57ba 32e2 3339 48ac 963d
00000260: 6091 62bb c881 9d3d ff1f 76ba cfb9 c23c
00000270: a7d0 76bd b752 733d 6870 233d 94a1 eb3c
00000280: 1d34 f3bb 82fc fe3c 210d abbd fdd6 9db9
00000290: 1df4 943d d34e 60bc 1514 8b3c 02eb cfbb
000002a0: aa37 59bd 8bdc 93bc 9fe0 10bc e257 69bd
000002b0: e3f9 9bbb c104 97bd 8698 903c 214b 9a3c
000002c0: 4e45 683d fd4e 88bd 1371 83bd e40e 02bd
000002d0: bb10 cc3d 4643 963d 4a43 a4b9 48a7 b8bc
000002e0: 32e4 343b fec8 203c cf83 97ba 3489 95bb
000002f0: b203 02bd 6bfc 30ba ee55 323d 4a77 32bd
00000300: 46ab 4abb 2716 5d3d 0b41 bd3c a2ce 833d
00000310: ad9f 90bc ec08 653b 103b 25bc f723 a23d
00000320: 24c5 563b 3fa0 79bd 70b9 e73b 73b3 b13d
00000330: c8a0 c13c 3bca edbc f6eb ae3d 0a85 063d
00000340: beb7 dfba 5e8a b63b 65c7 7c3d 69b7 c63a
00000350: c1c5 083b 34ba 3f3c 048b 75bd 9fbb e1bc
00000360: 656f abbc 9af4 e73c 60b0 3d3d 8c7f 1b3d
00000370: 5785 c63c 08cb acbd 32d3 893b 0d03 30bd
00000380: 8f6c 96bd 16e4 85b9 03e3 72bd 290c d7bc
00000390: b48c 36b9 87bf 28bd 5e72 043a b0de 1dbb
000003a0: 4849 bbbc 9aca aebd 86c5 8abd f65a 94bd
000003b0: a8d2 4a3d 69a8 8ebb ae12 9abd 8631 babc
000003c0: 569f 323c 08c4 52bb 60a9 843b 7af9 03bd
000003d0: 8253 453b 29d9 a5bb a992 523d e5ee e53b
000003e0: c56e e43c 9c97 763c f978 7dbc 416d 05bc
000003f0: 49e0 ea3c 2c4c 333d 74e4 663b 926d 3f3d

net.4.bias f4 [2]
-0.063396186 0.018491765
00000000: dcd5 81bd 0b7c 973c

exp_avg f4 [128, 4]
-8.947726e-06 3.991876e-06 1.2644894e-06 3.9478795e-07 0.0 0.0 0.0 0.0
-3.5904498e-06 -8.985372e-06 4.0207857e-07 1.1344653e-06 -4.4090007e-06 1.4361854e-06 1.8994246e-08 1.241882e-07
-5.406167e-06 -7.868789e-08 2.9863124e-06 2.6860046e-06 0.0 0.0 0.0 0.0
-1.2080359e-05 -1.6524082e-06 1.0335207e-05 3.4980428e-06 -2.4281142e-06 -3.0369579e-06 -9.50028e-07 -3.0071237e-07
-4.5336546e-06 -4.0774398e-07 1.1096377e-06 7.0268305e-07 2.2100696e-06 3.691804e-06 -9.3801657e-07 -5.094287e-07
1.3050146e-05 6.5768813e-06 -9.918418e-07 -4.4552788e-08 9.2870105e-06 4.0914283e-06 8.6552615e-07 2.3309946e-07
2.618267e-07 2.240281e-07 -2.9975013e-06 -6.9729185e-07 1.8791447e-06 1.3254157e-06 5.7562975e-06 1.1054618e-06
-5.6116514e-06 -4.735951e-06 1.6087472e-06 1.344152e-06 9.266471e-07 -4.1121275e-06 -2.1999283e-06 -9.4046595e-07
9.355338e-06 2.4133856e-06 4.973833e-07 5.9915027e-07 -1.2240567e-05 -1.1779712e-06 9.108886e-06 4.0728128e-06
-4.4639446e-06 -7.900749e-06 1.3162868e-06 1.6500859e-06 -4.4595752e-05 -2.9796098e-05 2.3684712e-05 8.27558e-06
-1.295388e-05 -1.485013e-06 9.395082e-06 4.251169e-06 2.2119384e-05 4.718044e-06 -5.661626e-06 -1.585489e-06
-1.4168098e-05 -8.580357e-06 1.2259131e-05 4.476355e-06 -6.7057017e-06 3.6676029e-06 1.4590059e-07 -6.121138e-08
-6.831379e-06 -5.780987e-06 1.4421877e-07 5.552268e-07 -9.758081e-06 -4.459686e-06 9.954807e-06 3.939951e-06
3.6887914e-06 7.2683883e-07 -1.273837e-06 -2.5921912e-07 -1.33357335e-05 -1.8118926e-06 1.2044252e-05 4.392868e-06
4.903891e-07 -2.4185388e-06 -1.7515596e-06 1.12566596e-07 -3.723841e-06 -8.063537e-06 -8.649908e-07 5.6933573e-08
-1.8254239e-06 -2.534323e-06 -9.630619e-07 -5.6981315e-07 -9.877768e-06 -1.5449077e-06 1.28859565e-05 5.514187e-06
1.3310356e-05 5.919401e-06 -5.6738116e-08 1.6566086e-07 -9.623733e-06 -2.4759138e-06 1.4629019e-05 5.345536e-06
-1.026724e-05 -2.397369e-06 8.1530525e-06 2.970455e-06 -2.9215425e-07 -5.1328684e-06 -5.7392604e-06 -1.2832934e-06
-1.0356982e-05 -2.0862653e-06 8.762412e-06 3.08261e-06 -4.7728863e-06 -8.505422e-06 1.2551868e-06 1.6847243e-06
-1.7044619e-06 -6.513439e-07 -1.066862e-06 -3.9338903e-07 -4.353046e-06 -2.83397e-06 1.7896065e-06 1.9025025e-06
-6.7701444e-06 5.6530183e-07 1.4511315e-07 1.14008344e-07 -3.7501857e-06 -4.021419e-06 2.0434743e-06 2.6047037e-06
9.668763e-07 -1.9084735e-06 -3.5570656e-06 -1.4742978e-06 0.0 0.0 0.0 0.0
-1.4904441e-05 -7.883174e-06 1.3394154e-05 5.2181604e-06 -1.7446557e-06 -8.60414e-07 -3.2285254e-08 5.751391e-09
-8.505464e-06 2.1051005e-06 1.0570432e-06 3.1713915e-07 1.118102e-05 -7.927126e-07 1.823665e-06 1.0006966e-06
-4.2183974e-06 2.0490047e-06 5.8958807e-07 5.5275103e-07 -7.2143835e-06 -3.831592e-07 5.757641e-06 1.8867735e-06
-1.42103545e-05 -1.7827651e-06 1.4190491e-05 5.6390063e-06 -6.325685e-09 -6.151756e-09 -1.684512e-10 1.4748505e-10
-3.324803e-05 4.2328747e-06 3.981929e-06 -6.7166707e-07 -1.2710156e-05 -6.608734e-07 1.32953755e-05 6.3067882e-06
0.0 0.0 0.0 0.0 6.965252e-06 5.5640407e-06 1.4831018e-05 2.9251128e-06
-3.3858978e-05 -2.0176205e-05 2.143053e-05 6.5271456e-06 3.1669424e-07 -2.137282e-06 3.360906e-06 2.716689e-06
-9.822422e-07 -1.6538406e-06 -6.1059615e-07 -3.585074e-07 -2.5098075e-08 -2.46473e-08 -3.799444e-10 6.0872457e-10
1.4806783e-06 -3.2819382e-06 -1.6509405e-07 2.9066553e-07 -3.2819717e-06 -2.4885264e-06 4.053505e-06 1.4226853e-06
-1.3709467e-05 -8.184174e-06 1.242006e-05 4.448453e-06 1.7219476e-06 -1.9199242e-06 -2.3567348e-07 6.303235e-07
00000000: 311e 16b7 f4f1 8536 86b7 a935 3ef3 d334
00000010: 0000 0000 0000 0000 0000 0000 0000 0000
00000020: 75f3 70b6 e1bf 16b7 42dd d734 ee43 9835
00000030: 07f1 93b6 f4c2 c035 ca28 a332 9858 0534
00000040: 9f66 b5b6 20fb a8b3 7568 4836 3541 3436
00000050: 0000 0000 0000 0000 0000 0000 0000 0000
00000060: bfac 4ab7 50c8 ddb5 6065 2d37 ebbf 6a36
00000070: aff2 22b6 8ace 4bb6 6d05 7fb5 9871 a1b4
00000080: cc1f 98b6 e8e7 dab4 dcee 9435 03a0 3c35
00000090: b550 1436 b6c0 7736 02cc 7bb5 acbf 08b5
000000a0: f3f1 5a37 fbae dc36 6d1f 85b5 4f5a 3fb3
000000b0: 68cf 1b37 1a49 8936 8156 6835 e449 7a34
000000c0: 3091 8c34 608c 7034 ae28 49b6 882d 3bb5
000000d0: ec36 fc35 f0e4 b135 3826 c136 615f 9435
000000e0: b84b bcb6 82e9 9eb6 22ec d735 b668 b435
000000f0: b4be 7835 e8fa 89b6 7ba2 13b6 5474 7cb5
00000100: dff4 1c37 a6f5 2136 ec83 0535 4bd5 2035
00000110: d65c 4db7 c81a 9eb5 5ed2 1837 32a9 8836
00000120: fec8 95b6 758d 04b7 45ab b035 8578 dd35
00000130: 530c 3bb8 a2f2 f9b7 88ae c637 58d7 0a37
00000140: 7e54 59b7 a850 c7b5 929f 1d37 43a5 8e36
00000150: 048d b937 b04f 9e36 fff8 bdb6 fdcc d4b5
00000160: 84b3 6db7 5af4 0fb7 91ac 4d37 9933 9636
00000170: 8a01 e1b6 f020 7636 d9a8 1c34 5073 83b3
00000180: 1939 e5b6 4dfa c1b6 8eda 1a34 e50a 1535
00000190: a4b6 23b7 69a4 95b6 9203 2737 ec33 8436
000001a0: f48c 7736 fc1b 4335 b5f8 aab5 ce2a 8bb4
000001b0: 8abc 5fb7 2830 f3b5 ab11 4a37 7366 9336
000001c0: 48a3 0335 2e4e 22b6 2117 ebb5 24bc f133
000001d0: 1ae7 79b6 a148 07b7 b731 68b5 2087 7433
000001e0: 1601 f5b5 5613 2ab6 8e42 81b5 43f5 18b5
000001f0: b1b8 25b7 a05a cfb5 c330 5837 8106 b936
00000200: 8b4f 5f37 449f c636 38b0 73b3 83e0 3134
00000210: 9e75 21b7 e027 26b6 286f 7537 ce5d b336
00000220: 7641 2cb7 7ce2 20b6 18c9 0837 0758 4736
00000230: 60d9 9cb4 013b acb6 df93 c0b6 a03d acb5
00000240: e6c2 2db7 c401 0cb6 4602 1337 d6de 4e36
00000250: c826 a0b6 82b2 0eb7 e477 a835 b01e e235
00000260: ddc4 e4b5 03d8 2eb5 1931 8fb5 fa32 d3b4
00000270: 6110 92b6 3c2f 3eb6 6932 f035 7d59 ff35
00000280: 192b e3b6 3fbf 1735 66d0 1b34 c0d4 f433
00000290: b3ab 7bb6 baef 86b6 9f22 0936 78cc 2e36
000002a0: 9ec5 8135 5313 00b6 ecb5 6eb6 7de0 c5b5
000002b0: 0000 0000 0000 0000 0000 0000 0000 0000
000002c0: 160e 7ab7 f941 04b7 74b7 6037 a817 af36
000002d0: ea29 eab5 33f7 66b5 03aa 0ab3 c59d c531
000002e0: b1b2 0eb7 5a45 0d36 badf 8d35 4643 aa34
000002f0: 1e96 3b37 ccca 54b5 a7c4 f435 ac4f 8635
00000300: c28b 8db6 a281 0936 2f44 1e35 c360 1435
00000310: 1513 f2b6 00b5 cdb4 c231 c136 0b3d fd35
00000320: 0269 6eb7 5847 efb5 b213 6e37 b236 bd36
00000330: 5059 d9b1 6b5f d3b1 cc36 39af 5a29 222f
00000340: cd73 0bb8 1e08 8e36 829c 8536 9c4c 34b5
00000350: b43d 55b7 e066 31b5 340f 5f37 e69e d336
00000360: 0000 0000 0000 0000 0000 0000 0000 0000
00000370: 0fb7 e936 bfb2 ba36 bdd2 7837 0e4d 4436
00000380: cd03 0eb8 1240 a9b7 b6c5 b337 c103 db36
00000390: 2006 aa34 3a6e 0fb6 ed8b 6136 5d50 3636
000003a0: 96d5 83b5 88f9 ddb5 d9e7 23b5 e278 c0b4
000003b0: 4097 d7b2 fcb7 d3b2 6ce0 d0af 2f53 2730
000003c0: b8bb c635 453f 5cb6 b544 31b4 c40c 9c34
000003d0: d83f 5cb6 8f00 27b6 5803 8836 18f3 be35
000003e0: b601 66b7 c24e 09b7 c05f 5037 ec43 9536
000003f0: ab1d e735 0cd8 00b6 6f0d 7db4 8033 2935

exp_avg_sq f4 [128, 4]
2.2744692e-10 9.09661e-11 2.3798509e-12 8.824388e-13 0.0 0.0 0.0 0.0
4.5717466e-10 2.7771183e-10 2.6073516e-12 1.7547877e-12 1.05872616e-10 3.9292833e-11 5.3672014e-13 2.918188e-13
2.9200323e-10 2.1264823e-10 5.098599e-12 2.1408743e-12 0.0 0.0 0.0 0.0
2.495534e-09 8.905702e-10 3.0103028e-11 8.125184e-12 1.3418668e-10 8.640527e-11 5.4558013e-13 3.110129e-13
2.918608e-10 1.6291635e-10 2.655938e-12 1.0090242e-12 1.3431144e-10 5.606404e-11 1.4893776e-12 8.418072e-13
5.337806e-11 3.8350784e-11 3.8407005e-13 1.8802113e-13 1.1571052e-09 7.254228e-10 1.4314508e-11 6.1030412e-12
1.7974063e-09 7.264298e-10 1.254231e-11 4.521916e-12 3.503198e-10 5.758042e-11 6.6131254e-12 1.5205288e-12
1.564458e-10 8.4310975e-11 2.186704e-12 7.11164e-13 3.8044146e-10 1.689965e-10 2.3991677e-12 7.5124786e-13
4.7831145e-10 2.0790758e-10 4.3779338e-12 1.6218452e-12 2.1106703e-09 8.248275e-10 2.2298966e-11 8.937513e-12
2.3588317e-10 1.2441172e-10 2.1903347e-12 1.0315681e-12 7.4052706e-09 2.433202e-09 1.0083348e-10 1.6783085e-11
1.9633408e-09 8.3356366e-10 2.0604303e-11 9.1030326e-12 1.8062928e-09 6.8799255e-10 1.5457139e-11 4.352218e-12
4.244426e-09 1.6426477e-09 4.414384e-11 1.2454582e-11 1.951432e-10 1.4081258e-10 2.0496664e-12 1.2681217e-12
5.673671e-10 2.593191e-10 3.0798354e-12 1.5321925e-12 1.2662116e-09 4.1744572e-10 1.5959371e-11 3.5119824e-12
6.504558e-11 3.9748378e-11 4.6201796e-13 1.6765043e-13 3.756681e-09 1.3169482e-09 4.4873428e-11 1.295939e-11
1.792032e-10 1.4937608e-10 1.0871615e-12 4.1044303e-13 1.5190825e-10 1.6769384e-10 1.2029156e-12 5.42681e-13
5.8159286e-11 3.6293978e-11 3.6035866e-13 1.8137729e-13 2.3207907e-09 7.682197e-10 3.275977e-11 9.4401405e-12
6.8227757e-10 3.865283e-10 8.365654e-12 3.3868084e-12 3.6189174e-09 1.2627515e-09 4.2221757e-11 9.1610304e-12
1.399241e-09 5.3786403e-10 1.6768557e-11 5.0829267e-12 1.8745359e-09 5.6992655e-10 1.5817646e-11 4.756274e-12
1.7320856e-09 6.4385075e-10 1.9209905e-11 5.329769e-12 5.972394e-10 3.653494e-10 4.3554062e-12 2.3075398e-12
1.1987664e-10 7.009761e-11 4.608599e-13 2.7719054e-13 3.5105854e-10 2.2947155e-10 4.9281664e-12 1.632312e-12
2.467372e-10 7.7310734e-11 1.2883922e-12 7.0710993e-13 2.987274e-10 1.7531414e-10 3.9219136e-12 1.8003213e-12
5.163119e-10 2.395671e-10 3.1083458e-12 9.999887e-13 0.0 0.0 0.0 0.0
5.5222875e-09 2.2477984e-09 5.8887305e-11 1.7376552e-11 5.3152e-12 3.4225715e-12 2.5945866e-14 2.1114299e-14
2.108416e-10 7.766778e-11 2.3403183e-12 9.151706e-13 6.9910605e-11 1.2706078e-11 2.1034495e-13 1.0719684e-13
2.2050721e-10 1.0592203e-10 3.0675514e-12 1.3800661e-12 8.8864305e-10 3.321811e-10 9.935257e-12 3.170516e-12
3.1897307e-09 1.1197996e-09 4.3999554e-11 1.33429465e-11 1.936366e-14 1.8648184e-14 6.181808e-18 9.608741e-18
3.977616e-10 3.4950553e-11 4.5672676e-12 4.708083e-13 2.7724867e-09 1.0949754e-09 3.7593137e-11 1.462028e-11
0.0 0.0 0.0 0.0 3.3727023e-09 7.3505313e-10 3.6943122e-11 5.2508293e-12
6.0684204e-09 1.7406778e-09 7.8253105e-11 1.1630455e-11 8.451749e-10 4.7715704e-10 5.134856e-12 5.3922513e-12
6.51162e-11 7.251625e-11 4.9482873e-13 4.1770333e-13 1.6227476e-15 1.5745159e-15 2.9539315e-19 8.0777035e-19
9.294374e-12 1.9337035e-11 1.7621496e-13 4.4047743e-14 4.689713e-10 2.115817e-10 4.7291862e-12 1.8671154e-12
4.4644963e-09 1.5488959e-09 4.3458803e-11 1.1233935e-11 1.7148898e-10 1.1653555e-10 5.8376904e-13 6.3548065e-13
00000000: 9e14 7a2f 5d09 c82e 9577 272c 6b62 782b
00000010: 0000 0000 0000 0000 0000 0000 0000 0000
00000020: 9d55 fb2f 77ac 982f df79 372c e4f6 f62b
00000030: fcd0 e82e cccf 2c2e c312 172b 8547 a42a
00000040: cd87 a02f 28cf 692f 1964 b32c 90a6 162c
00000050: 0000 0000 0000 0000 0000 0000 0000 0000
00000060: e67d 2b31 4ecc 7430 ff64 042e 93f0 0e2d
00000070: 318a 132f d801 be2e 3191 192b af15 af2a
00000080: c273 a02f e020 332f 20e5 3a2c ee01 8e2b
00000090: 4fad 132f 7f92 762e 7c9c d12b 9af2 6c2b
000000a0: 5ac2 6a2e 25ab 282e 5436 d82a 67b1 532a
000000b0: 0508 9f30 1767 4730 d0d2 7b2d 4fbb d62c
000000c0: 9d08 f730 f4ad 4730 8ba5 5c2d cc19 9f2c
000000d0: 2197 c02f ca3d 7d2e bdad e82c d3fe d52b
000000e0: 9403 2c2f dc66 b92e 28e0 192c c42c 482b
000000f0: 6026 d12f 49d0 392f 90d3 282c 1d75 532b
00000100: 2d7a 0330 c898 642f ec08 9a2c 2241 e42b
00000110: 4e0b 1131 13ba 6230 cf24 c42d fb3a 1d2d
00000120: 9bad 812f c9ca 082f 9021 1a2c 282e 912b
00000130: 7371 fe31 5835 2731 34bc dd2e 26a0 932d
00000140: 75eb 0631 d420 6530 c43c b52d 6a24 202d
00000150: 4741 f830 2c1d 3d30 62f6 872d 4b21 992c
00000160: 5ed6 9131 87c3 e130 8c25 422e 731a 5b2d
00000170: ed8f 562f 38d3 1a2f 823b 102c e678 b22b
00000180: e9f4 1b30 eb8f 8e2f 62b9 582c 0da3 d72b
00000190: dc06 ae30 437e e52f 4f61 8c2d 4022 772c
000001a0: 6809 8f2e b2d0 2e2e e70b 022b f2c1 3c2a
000001b0: 1e14 8131 ffff b430 fd5a 452e e7fb 632d
000001c0: 3709 452f a13d 242f 1f01 992b 130f e72a
000001d0: 5f06 272f 9f61 382f 9a4b a92b 4ac0 182b
000001e0: 89c9 7f2e 639f 1f2e 28dd ca2a 7236 4c2a
000001f0: c87b 1f31 a82a 5330 3914 102e 9d12 262d
00000200: 048b 3b30 067f d42f 8e2b 132d 5153 6e2c
00000210: abb0 7831 1e8d ad30 79b1 392e 9d29 212d
00000220: 6a4f c030 d1d8 1330 6f7f 932d efd6 b22c
00000230: 2fd1 0031 04a9 1c30 2c22 8b2d b558 a72c
00000240: 580e ee30 f8fa 3030 dcf8 a82d 4b86 bb2c
00000250: fd2a 2430 5bda c82f 033e 992c f160 222c
00000260: 46ce 032f 7225 9a2e 75b8 012b 5e0b 9c2a
00000270: 19ff c02f 804e 7c2f fa64 ad2c 3dba e52b
00000280: 2ca5 872f 1302 aa2e 3953 b52b a408 472b
00000290: 253a a42f 8bc2 402f 75fd 892c 695f fd2b
000002a0: 38ec 0d30 12b4 832f fbba 5a2c 64bc 8c2b
000002b0: 0000 0000 0000 0000 0000 0000 0000 0000
000002c0: 8ebe bd31 b077 1a31 9b7e 812e 84d8 982d
000002d0: 1103 bb2c 91d7 702c 18b3 e928 422e be28
000002e0: a2d2 672f 13cb aa2e 6daf 242c 7fcc 802b
000002f0: 2cbc 992e 1787 5f2d ced3 6c2a c562 f129
00000300: 4373 722f cdec e82e 18dc 572c 1f3a c22b
00000310: b244 7430 559e b62f 6bc8 2e2d f01a 5f2c
00000320: 5632 5b31 72e7 9930 1883 412e 4abb 6a2d
00000330: 8f69 ae28 c9f7 a728 8711 e422 ff3f 3123
00000340: f8ab da2f d3b6 192e 4ab2 a02c 5085 042b
00000350: 1a86 3e31 067e 9630 1c56 252e f299 802d
00000360: 0000 0000 0000 0000 0000 0000 0000 0000
00000370: 35c5 6731 c40c 4a30 427a 222e 44bf b82c
00000380: 6482 d031 a83c ef30 9514 ac2e ea9a 4c2d
00000390: e551 6830 f128 0330 acaa b42c 15b9 bd2c
000003a0: 2931 8f2e 0577 9f2e 2b48 0b2b 6525 eb2a
000003b0: d2dc e926 62e9 e226 8d5e ae20 6769 6e21
000003c0: 2482 232d 2217 aa2d 8166 462a 975f 4629
000003d0: ece8 0030 f4a2 682f b964 a62c f662 032c
000003e0: 2066 9931 eee0 d430 4322 3f2e 25a1 452d
000003f0: db8d 3c2f d721 002f fe50 242b 35df 322b

exp_avg f4 [128]
-1.0807394e-06 0.0 1.7001473e-06 -2.0984974e-06 2.7588794e-07 0.0 3.975627e-06 4.356521e-06
-7.8008196e-07 -6.9543203e-06 -3.7996672e-06 8.977522e-07 6.3575585e-06 -2.1240548e-06 4.248349e-06 6.119649e-06
-4.155346e-06 1.8613041e-06 3.4197199e-06 3.797923e-05 6.112791e-06 -8.445185e-06 4.956717e-06 -4.6100326e-06
-3.4806083e-06 8.377781e-06 -5.7771183e-07 6.924777e-06 1.7578632e-06 8.129901e-06 3.8030316e-06 9.174595e-06
-4.066461e-06 1.0730158e-05 9.528632e-06 4.682783e-06 2.7477504e-06 2.7689043e-07 1.1149717e-06 -3.444978e-06
-3.0256297e-06 1.916167e-06 5.9071017e-06 0.0 4.97242e-06 -1.1415432e-06 -3.675016e-06 -6.275961e-06
-7.2787466e-06 2.9426765e-06 5.8836235e-06 3.604161e-09 2.1383403e-05 5.218508e-06 0.0 -7.08975e-07
2.9196366e-05 -5.859724e-06 -1.4337936e-06 1.43602925e-08 2.5810978e-06 1.0181937e-05 4.8239053e-06 -1.7337657e-06
-6.8086575e-07 1.1027923e-06 2.3999382e-06 5.315056e-06 -8.4999465e-06 1.6055888e-05 3.2598205e-06 7.916913e-06
-6.5199624e-06 1.225322e-05 1.0896476e-05 0.0 1.2134211e-05 -1.085497e-07 2.274588e-06 -1.0578286e-05
1.9077008e-05 1.3797734e-05 1.6092246e-05 -4.316745e-06 1.57983e-06 0.0 7.4284762e-06 4.8335946e-06
-4.788103e-07 -1.7244985e-06 1.2752271e-07 -1.1325367e-06 6.7698948e-06 -4.0290793e-06 -4.578094e-07 5.347827e-06
-7.2319954e-06 4.0925647e-07 -3.1780448e-06 1.1150509e-05 1.0752574e-06 7.832347e-06 7.2063076e-06 -4.3657167e-07
-2.3672446e-06 0.0 -2.7006772e-06 4.3881464e-06 -1.1629818e-06 3.3753338e-06 -1.8680637e-06 1.2416112e-06
1.1105344e-05 1.89077e-05 6.3483606e-07 -1.0373958e-06 0.0 1.2304406e-06 -1.7301404e-06 1.619901e-08
2.2450038e-05 7.697851e-06 -1.211758e-06 3.2966868e-06 6.6816574e-07 -3.1429597e-06 -7.671898e-07 -3.4270963e-06
00000000: ec0d 91b5 0000 0000 9e30 e435 e9d3 0cb6
00000010: c01d 9434 0000 0000 6066 8536 3b2e 9236
00000020: d366 51b5 2859 e9b6 c9fd 7eb6 10fd 7035
00000030: 0353 d536 fc8a 0eb6 0a8d 8e36 6257 cd36
00000040: 266e 8bb6 ecd1 f935 577e 6536 e34b 1f38
00000050: 7a1c cd36 cbaf 0db7 e051 a636 e1af 9ab6
00000060: 6594 69b6 4c8e 0c37 0e14 1bb5 625b e836
00000070: b8ef eb35 a965 0837 9637 7f36 96ec 1937
00000080: a272 88b6 ad05 3437 2add 1f37 cd20 9d36
00000090: fe65 3836 88a7 9434 23a6 9535 4530 67b6
000000a0: ec0b 4bb6 8097 0036 9e35 c636 0000 0000
000000b0: c3d8 a636 2037 99b5 4ba0 76b6 1896 d2b6
000000c0: f53b f4b6 cc7a 4536 f16b c536 12ad 7731
000000d0: 8260 b337 a41a af36 0000 0000 6450 3eb5
000000e0: b8ea f437 a59e c4b6 c670 c0b5 3cb5 7632
000000f0: ec36 2d36 16d3 2a37 08dd a136 bcb3 e8b5
00000100: bdc4 36b5 a803 9435 a00e 2136 fc57 b236
00000110: fe9a 0eb7 c2af 8637 4ac3 5a36 e2d2 0437
00000120: 0dc6 dab6 2e93 4d37 02d0 3637 0000 0000
00000130: 0a94 4b37 d41b e9b3 20a5 1836 6479 31b7
00000140: 9007 a037 d17c 6737 d6fd 8637 8fd8 90b6
00000150: 8c0a d435 0000 0000 2042 f936 4330 a236
00000160: 9887 00b5 5175 e7b5 2ded 0834 aa01 98b5
00000170: f428 e336 8731 87b6 d8c8 f5b4 7c71 b336
00000180: 5eaa f2b6 c8b7 db34 6546 55b6 1213 3b37
00000190: 9051 9035 ad67 0337 b6cd f136 f461 eab4
000001a0: f4dc 1eb6 0000 0000 483d 35b6 e43d 9336
000001b0: c017 9cb5 cb83 6236 2eba fab5 70a5 a635
000001c0: 1751 3a37 fa9b 9e37 9a69 2a35 a63c 8bb5
000001d0: 0000 0000 9e25 a535 2c37 e8b5 0026 8b32
000001e0: 1753 bc37 0526 0137 b0a3 a2b5 a63c 5d36
000001f0: 005c 3335 a3eb 52b6 e2f0 4db5 11fd 65b6

exp_avg_sq f4 [128]
1.8189497e-10 0.0 2.6362068e-10 5.2771645e-11 2.7675223e-10 0.0 1.2025807e-09 9.066613e-11
2.4197466e-10 2.2047632e-10 2.5683103e-11 6.107537e-10 5.3884835e-10 1.767853e-10 1.1051186e-10 2.3914937e-10
2.2783045e-10 1.1442832e-09 1.4776898e-10 3.0794045e-09 1.0511869e-09 5.687228e-10 1.57834e-09 1.9845091e-10
3.086938e-10 5.149434e-10 2.1522211e-11 1.9475388e-09 1.0936595e-10 1.7355968e-10 3.0119133e-11 1.1181845e-09
3.1997408e-10 1.4405237e-09 8.211909e-10 7.0806483e-10 7.416107e-10 3.5980016e-10 5.6403788e-11 2.9900663e-10
1.3660327e-10 2.0372254e-10 2.1259548e-10 0.0 2.6237046e-09 3.0033673e-12 1.9408528e-10 2.3307316e-11
2.666489e-10 3.989047e-10 1.6840538e-09 6.3222764e-15 1.5546199e-10 1.3880773e-09 0.0 1.22771e-09
2.3511082e-09 4.922412e-10 6.090416e-11 5.3104434e-16 1.0296186e-11 3.7036357e-10 1.5490738e-09 1.0269571e-10
2.150256e-10 8.019256e-10 1.5855728e-10 3.0524333e-10 2.2689524e-10 1.6611584e-09 7.9494904e-11 7.146204e-10
3.5419576e-10 1.7640451e-09 2.7200924e-09 0.0 2.2089524e-09 2.0372402e-12 8.985586e-10 4.3184195e-10
3.730556e-09 1.4775405e-09 5.3334834e-09 6.822744e-10 1.450405e-10 0.0 1.5640407e-09 1.774854e-09
2.8675742e-10 3.1473718e-10 2.338545e-11 2.7781344e-10 2.991129e-09 4.888327e-11 1.0969524e-12 1.3390918e-10
1.5819596e-10 2.0107639e-10 1.3167344e-10 1.7616438e-09 2.1611313e-11 4.899962e-10 2.7881162e-09 1.3377068e-10
9.695692e-10 0.0 1.5321822e-10 1.1419585e-09 6.695682e-11 7.8422346e-10 3.405588e-11 3.941135e-10
4.2258586e-10 3.4647811e-09 1.7703004e-10 3.1593018e-12 0.0 7.395669e-11 8.742259e-11 1.5096728e-09
5.5317667e-10 8.922874e-10 3.183795e-10 1.6370185e-11 1.1079538e-10 2.328861e-10 9.64093e-11 2.3364594e-12
00000000: e2fe 472f 0000 0000 50ed 902f 9717 682e
00000010: 6a25 982f 0000 0000 0c48 a530 7e60 c72e
00000020: e806 852f 916a 722f 35e9 e12d f9e1 2730
00000030: 151e 1430 a360 422f a504 f32e 4879 832f
00000040: 9280 7a2f e344 9d30 4579 222f 759d 5331
00000050: 5a79 9030 4f54 1c30 e7ec d830 f732 5a2f
00000060: cab4 a92f ec8b 0d30 b64f bd2d 77d5 0531
00000070: 8e7f f02e b5d4 3e2f 2177 042e 9fae 9930
00000080: 59e8 af2f ecfb c530 2cba 6130 a2a1 4230
00000090: 37da 4b30 5fcd c52f 0511 782e 7161 a42f
000000a0: 6732 162f ccfe 5f2f 4fc0 692f 0000 0000
000000b0: b34c 3431 db57 532c 2666 552f 6903 cd2d
000000c0: 7f97 922f d84c db2f 6074 e730 b5c8 e327
000000d0: a9ee 2a2f a1c6 be30 0000 0000 35bc a830
000000e0: 2291 2131 654e 0730 feed 852e 2810 1926
000000f0: e621 352d 0a9c cb2f 30e7 d430 8cd4 e12e
00000100: 536c 6c2f 7f6e 5c30 e855 2e2f 2ecf a72f
00000110: 5579 792f d14e e430 a7cf ae2e f16e 4430
00000120: 9fb8 c22f d272 f230 5fec 3a31 0000 0000
00000130: 4dcc 1731 a85b 0f2c 71fe 7630 5a68 ed2f
00000140: 512e 8031 5612 cb30 d141 b731 cb8a 3b30
00000150: 4579 1f2f 0000 0000 caf5 d630 20ef f330
00000160: 85a5 9d2f 5207 ad2f 5ab3 cd2d c4ba 982f
00000170: 7f8c 4d31 abfd 562e e061 9a2b 153c 132f
00000180: 34f0 2d2f f915 5d2f c7c6 102f 551e f230
00000190: 5a18 be2d 6bb0 0630 0f99 3f31 1915 132f
000001a0: af41 8530 0000 0000 1877 282f 18f3 9c30
000001b0: 573d 932e d290 5730 83c7 152e 8baa d82f
000001c0: ac51 e82f 1319 6e31 87a5 422f ec50 5e2c
000001d0: 0000 0000 eaa1 a22e 8b3e c02e e47c cf30
000001e0: 590e 1830 2545 7530 ee07 af2f 61fe 8f2d
000001f0: 41a4 f32e ce07 802f 9c01 d42e e969 242c
