checkpoints_wall/online_iter_2.pt (torch, 217103 bytes, 18 tensors)

net.0.weight f4 [128, 4]
00000000: 8ea8 9c3e 7f79 b43e 7a89 e3bd 152c c63e
00000010: b05c e0bd 38a2 ce3d 1045 79be 2858 963e
00000020: ec22 fc3e 7608 acbe 76f8 923e ec32 b73d
00000030: 1f35 c83e 991c f83d 17a8 903e be78 493e
00000040: 2b5e bd3e d5ce d83d b175 43be 8bfc 1f3e
00000050: 8a71 3fbe 174e ffbc 1eb1 7dbe e65a 9c3e
00000060: a469 acbe 8dfa e6bd cef2 a9be 0208 7dbe
00000070: a6ac ab3c 1ae4 c5be a2b4 fa3e 6c59 b8be
00000080: da72 ad3e 2ebe 8f3d 4a92 d5bd c466 bf3d
00000090: bdfa 443d 13fd b73e ac44 b83d 41c7 4cbd
000000a0: 4f06 713d d645 00be 3f5a c53e 2337 a33e
000000b0: 8988 a33e fd9b 43be 6551 523e 4a1e a8bc
000000c0: ff41 773e 14a3 9abe a899 fbbe ce30 45be
000000d0: 85e4 c1be d96a e73e 018d a33a 5f42 123e
000000e0: 1c1d 1e3e cc88 b6bc c010 ba3e 8ac3 91be
000000f0: ee58 273d 131c a0be dbf0 fa3d 75b5 dcbd
00000100: 36ff 073e 8246 e5bd c701 ad3e 223f 19be
00000110: 449e 68be 2b4e 9abe 76b1 863e 3e05 1a3e
00000120: fe88 b63e d70c a4be 3e63 41be 3dfb 48be
00000130: 5c07 b0be 0e2d 4e3e 666f 2c3e 8c9c b13e
00000140: b39e 74be 0e7d 90be cb39 ca3d a748 b4be
00000150: cb60 803e 81ff 25be 3c77 963e ac8b b5be
00000160: 1cd4 5fbe b71b 383e 72e9 7aba a966 87bd
00000170: 584f 7c3e 6bca ac3e f992 adbe d834 2dbe
00000180: cfdf 023f 02d9 42be ab1c 38be 228c f7bd
00000190: d831 22be 880f 583d 06b1 6fbe 9426 7bbe
000001a0: a226 e4bb c2cc abbe 8d4d a7be 2006 0cbc
000001b0: 941e c8be 19a0 60be 19e5 b83e 7be6 b53d
000001c0: 62c4 50bc 8b9a f1be 3f36 09be 6950 d93d
000001d0: ae33 af3d c268 d2be 8290 ecbd 2ce0 36be
000001e0: 71ee 8cb7 9617 2cbe 15f9 f63d 1b7b 31be
000001f0: d7d8 8fbe aea6 1ebe 8429 28be 18cc abbe
00000200: 601d be3e f115 31be a771 f23e e03b 223e
00000210: 2864 b1be c09d 983e e330 45be 3989 863b
00000220: c88d b7be 24af d5be 81ed 283c 6cba fbbd
00000230: 83e4 373e 403a debe 56eb 903e 5198 c5be
00000240: 59ce e9bd ced0 523d 9c2f 2e3e f6d4 cf3e
00000250: 624a fa3e 9344 a0be e2d9 c23d 24b2 26be
00000260: 2092 c6bc 56a6 90be c24f df3e 38a9 82be
00000270: b178 513e 1a56 0b3e d75a 423e 8714 90be
00000280: e22e b23e 7e55 073e e76a 7e3e a7f8 d0bd
00000290: 1e81 2f3e c1c6 54bd 442c 0abe b3df aa3e
000002a0: 9ab8 4d3c 32e5 8fbe 5a2a 26be c251 5d3d
000002b0: d9c9 3b3e 01be 83bc be96 0dbe 75be 10be
000002c0: 0aec b7be 2a49 253e ee79 7a3e 82d9 a8be
000002d0: 362d 043d e717 aa3d b853 3d3e 3ecb 953c
000002e0: a265 653e a428 8f3e 34a2 523e 540d c7bd
000002f0: ac3b 31bd 3954 d6bb 16e3 54be c043 83bb
00000300: b574 a33e 26af e03e 7f05 ee39 acdd 14be
00000310: 35b0 adbd 906d 923c 2aad 0f3e 0710 503e
00000320: 8fd3 b3be e87b 43be c7ae 6f3e bbc7 9d3c
00000330: f1fc 71bd e4b4 73be 0e42 50be 3442 c6be
00000340: 4509 47be 0c9e e53d 4762 b93e 263a 8b3e
00000350: 60e3 f5be 56f3 53be 8248 62bd 6735 bb3e
00000360: 1821 943d d097 04be 7cd2 533e e802 43be
00000370: 28dc b7be cf1d bc3e fdba a4be cb2d cf3d
00000380: a50c 0abf 326a b73e 852f c33e 0e2f 033e
00000390: 15d0 c6be 5819 0bbf d78b bebe 7539 653e
000003a0: 2643 0d3e 79cc ce3e e61c e83e c8fd 663e
000003b0: 7a11 8bbd fd96 8ebe 9959 95be 6871 dbbe
000003c0: acb0 633e fb1d 49be 8bc3 a6bd b5aa 0f3d
000003d0: c1c7 debd 9533 9bbe f9fa a3be 9e57 0a3e
000003e0: 8554 4fbe 00d4 913e 0973 21be 5042 a4be
000003f0: 9512 abbd e23a 77be 8738 5cbe 07b7 5dbe
0.30597347 0.35248944 -0.11110206 0.38705507 -0.10955179 0.100895345 -0.24342752 0.29364133
0.49245393 -0.33600205 0.28705186 0.089452595 0.39103028 0.121148296 0.28253242 0.19674966
0.36985907 0.10586325 -0.19087864 0.15623681 -0.18695655 -0.031165166 -0.24774596 0.305381
-0.33674347 -0.112782575 -0.33193058 -0.24710086 0.020956349 -0.3865059 0.48965937 -0.36005723
0.33876687 0.07018696 -0.10428293 0.09345773 0.048090685 0.35935268 0.08997473 -0.04999471
0.058843907 -0.1252664 0.38545415 0.31878003 0.31940106 -0.19102474 0.20538862 -0.020522255
0.2414627 -0.30202544 -0.49140668 -0.19256899 -0.3786966 0.45198706 0.0012477936 0.14283131
0.15440792 -0.022282027 0.36340904 -0.28469497 0.040856294 -0.3127142 0.12252971 -0.10776798
0.13280949 -0.11195089 0.33790419 -0.1496549 -0.22716624 -0.30137762 0.26307267 0.15041062
0.35651392 -0.32041046 -0.18885514 -0.1962709 -0.34380615 0.20134374 0.1683937 0.34689748
-0.23888664 -0.2822041 0.098743044 -0.3521168 0.25073847 -0.16210748 0.29387844 -0.35458124
-0.21858257 0.17979322 -0.0009571529 -0.06611378 0.24639642 0.33748183 -0.33901194 -0.1691469
0.51122755 -0.19028094 -0.17979686 -0.12087275 -0.15839326 0.052749187 -0.23407373 -0.24526435
-0.006962613 -0.33554655 -0.32676354 -0.008546382 -0.3908583 -0.21936072 0.36112288 0.08881851
-0.012742134 -0.4718822 -0.133996 0.1061104 0.08554779 -0.4109555 -0.11551 -0.17858952
-1.6800333e-05 -0.16805872 0.120592274 -0.17332117 -0.28095123 -0.15493271 -0.16422087 -0.3355415
0.37131786 -0.17293526 0.47352335 0.15843153 -0.34646726 0.29807854 -0.1925693 0.0041057137
-0.35850358 -0.41735184 0.010310532 -0.122914165 0.17958264 -0.43403816 0.28304547 -0.3859277
-0.11416311 0.051468663 0.17010349 0.40592164 0.48884875 -0.31302318 0.09514214 -0.16278893
-0.0242396 -0.28251904 0.43615538 -0.2551973 0.20456196 0.13607064 0.18979965 -0.2814066
0.34801394 0.13216206 0.24845468 -0.10203677 0.17139098 -0.05194736 -0.13493448 0.33373794
0.0125562195 -0.2810455 -0.16227093 0.05403305 0.18338718 -0.016081812 -0.13827035 -0.14135154
-0.3592227 0.16141191 0.24460575 -0.32978445 0.03226968 0.0830534 0.18488967 0.01828539
0.22402051 0.27960694 0.20569688 -0.09719339 -0.0432698 -0.006540802 -0.20789751 -0.004005879
0.31924978 0.43883628 0.00045398992 -0.14537686 -0.084808744 0.01787451 0.140309 0.20318614
-0.35122344 -0.19090235 0.23406516 0.019260278 -0.059079114 -0.23799473 -0.20337698 -0.38722384
-0.1943713 0.11211786 0.36207792 0.271928 -0.48025036 -0.20698294 -0.05524493 0.3656418
0.07232875 -0.12948537 0.20685762 -0.19044077 -0.35910153 0.36741492 -0.3217391 0.10116156
-0.53925544 0.35823208 0.38122192 0.12810919 -0.3883063 -0.54335546 -0.37216064 0.223852
0.13795146 0.40390375 0.45334548 0.22557747 -0.06790443 -0.2784957 -0.2916992 -0.4285996
0.22235364 -0.19640343 -0.081427656 0.03507491 -0.10877944 -0.3031279 -0.32027414 0.13509986
-0.20247085 0.28482056 -0.15766539 -0.32081842 -0.083531536 -0.24143556 -0.21505938 -0.2165185

net.0.bias f4 [128]
00000000: df89 5b3d 964b c3be b0dd 77be 509e a7be
00000010: 2771 933e c917 03bf 5b5d 8c3e 3691 3dbd
00000020: fd9b ecbc ec55 853e 48df 64bd 8522 8d3e
00000030: 5e93 a53e 80ea bbbe 7b30 b13d 1a63 5b3d
00000040: 62aa c73d 1e9b d03c 85db 3b3d ce64 66be
00000050: be8e 34bd 9652 b93e f8d2 823e 299e d9bc
00000060: 1caf bfbe 1f29 fbbb 16de a4be 63bf b73e
00000070: 5b9e 96be 01ca 2dbd 323b c3bd 960b 2cbc
00000080: 9a3a c83e 957d 8c3c 0d02 3a3e e812 bb3e
00000090: 9905 723e 652f dfbd 0957 4fbe 9468 593e
000000a0: 3773 44be abc6 063e d8d8 c3bd 53a1 d8be
000000b0: 5c75 193e 71cc 89bd 89a7 113e f69b 9cbc
000000c0: f1f5 863e 40e8 993e 306e 203c 1519 00bf
000000d0: 5768 b1be b589 5cbe 7e99 e1be 645f 62be
000000e0: b043 c5be 35a3 c3be f035 a4be 1583 17bf
000000f0: 643e 8ebe 7a58 323e 285e bf3e 171e 13be
00000100: 3de4 efbd 9db4 6d3e 8a76 51be 4125 86be
00000110: acd4 783e cd89 c8be 3e0c d838 b708 af3e
00000120: 5b90 113d 2214 bd3d bd31 6dbe 5c67 bebd
00000130: 346b 323c e471 35bd c5b4 bc3d dbf4 d73e
00000140: bb3d a2be 256d 333c 03f5 5cbe 70cd c1be
00000150: 1e63 0bbd 3457 e1be 0e77 813e 2ac7 d3ba
00000160: 18f4 85be 1db1 503e 168f bdbe 763d 04be
00000170: c0b3 a7bd ae2f d3be 03da a2be 0f1a 70bd
00000180: 1ed3 8c3e eccf b13e 0bb7 713e b82d 9fbe
00000190: 8b4c 8abe abca b23e 00e4 093e 3373 cabc
000001a0: 6394 a23d e5c9 d2be b434 29be ce2c c53e
000001b0: ffb9 d5bd 591a 7cbd f892 b4be d76e 5cbe
000001c0: 26c2 31bc 7030 8dbe 41b8 92bd a038 8abc
000001d0: 817c 0ebf e780 8a3b 18c4 85be f7b7 4fbe
000001e0: 8e82 383e b868 993e ad1d c1bd ffc1 3ebe
000001f0: 403f bbbe 756f 68be 91de babe 0a6e 19be
0.05359828 -0.38143605 -0.24205661 -0.3273797 0.28797266 -0.5120817 0.27414975 -0.046281062
-0.028882975 0.26042116 -0.055877 0.275654 0.32338995 -0.36702347 0.08651825 0.053561307
0.09749295 0.02546459 0.045863647 -0.22499391 -0.044081442 0.3619582 0.2555158 -0.026564674
-0.37438285 -0.007664814 -0.32200688 0.35888204 -0.2941769 -0.042428974 -0.09532775 -0.010500809
0.3910721 0.017149726 0.18164845 0.36537862 0.23634948 -0.10897712 -0.20248045 0.212313
-0.19184576 0.13161723 -0.09562844 -0.4231058 0.14986175 -0.06728447 0.14224066 -0.019117337
0.26359513 0.30060005 0.009791896 -0.5003827 -0.34649917 -0.21536906 -0.44062418 -0.22106701
-0.38528204 -0.38210455 -0.320724 -0.5918439 -0.27781975 0.17416564 0.37376523 -0.14366947
-0.11713455 0.2321343 -0.20455375 -0.26200297 0.24299878 -0.39167634 0.00010301963 0.34186336
0.03553806 0.09232356 -0.23163505 -0.09297058 0.010889817 -0.044298068 0.092141666 0.42178997
-0.31687722 0.010951315 -0.2157784 -0.3785205 -0.034030072 -0.44011843 0.25286144 -0.0016157378
-0.2616279 0.20380063 -0.37023228 -0.1291407 -0.081885815 -0.41247314 -0.31806955 -0.0586186
0.2750482 0.34728944 0.23604982 -0.31089568 -0.27011523 0.34920248 0.13465881 -0.024713134
0.07938459 -0.41169658 -0.16524011 0.38510746 -0.104358666 -0.061548565 -0.35268378 -0.21526657
-0.010849511 -0.27576017 -0.0716405 -0.016872704 -0.5565873 0.004226792 -0.2612617 -0.20285021
0.18018553 0.29962707 -0.09429488 -0.18628691 -0.36571693 -0.22698767 -0.3649793 -0.14983383

net.2.weight f4 [128, 128]
00000000: adb7 253c b697 a9bd e3b0 8c3d a368 4c3d
00000010: 5d93 c2bd efeb 2cbd 838a af3c 8bd5 d9bc
00000020: 1d69 93bc 5477 23bd f907 803d 4116 6dbd
00000030: f7c6 843d 5ee0 ba3b 1b2e 183c 3fe8 773d
00000040: 6bbf bcbc a37a 68bd 3d8b babc fcd0 923d
00000050: aa03 95bd 8fe0 3d3c 7de7 b1bd 730f 273d
00000060: 1b2b c73c ea8f 753b 699f f13c ce83 ebbb
00000070: 06a7 253d 2f99 a0bd 4c4c afbc a5de 033d
00000080: d5e5 a23d 5d6b 383d c00c 94bd 47d0 733d
00000090: de87 e4bc 3a12 e0bc 8e91 b5bd a4f7 b6bc
000000a0: 2aff 5e3d db3b 7c3b 1e8b 75bd e53d 9a3c
000000b0: dc2b e8bc 0345 a53d 6468 adbd 3e32 14bd
000000c0: 37b9 bebd b71a 31bd 8143 e43c 7ae4 9c3d
000000d0: 5836 733c be76 b13d d2aa 8d3c 2217 513d
000000e0: ca1d 913d d905 8b3d 42a4 4abd be11 953d
000000f0: f599 383d 5caa 4bbd 1dc4 2cbd e8b9 a8bd
00000100: c9c2 603c e412 a4bd 1fef 183d 3221 a13c
00000110: e11f adbd cc4f c53c ba04 7ebc 304f 033d
00000120: 8802 2d3d 174c c3bd 3c03 a63d fa8a 863d
00000130: 9d0c 103d d371 a5bd e653 01bd 459d 09bd
00000140: 1d16 babc 251d 2c3d 69a0 033d 5566 8f3d
00000150: 8597 07bd 49ae f33c e1fd ca3c 0db7 96bd
00000160: 5df8 babd 6d97 5ebd 2dd5 773d 226c aabd
00000170: bb90 9dbd 74d0 4a3d 9254 433d 1981 833d
00000180: 94a8 88bd cad6 95bd 333f 173d 7d6b 9d3d
00000190: 2e9f 583d 5a97 b23b 38a3 ee3c a815 9b3d
000001a0: c396 69bd ad5e 24bd 2826 5c3d 6761 8abd
000001b0: f7a1 47bd 7b24 843d 5f76 e43c b088 a43c
000001c0: 112c 3cbd d1e1 9fba c1ac a53d 894d 59bd
000001d0: 2a35 fdbb 6e1b 0c3d b106 8ebd 7981 a33d
000001e0: c397 57bd 4b9a f0bc 704b f1bc fcec 6bbd
000001f0: bca0 b1bd d622 4c3d 5d5e c03c f88a a9bd
00000200: ec31 c83b eae9 b23d 58f0 31bd 71c3 fb3c
00000210: 5206 1ebd 8498 8c3d ba62 873b 149c 043e
00000220: aa8a 85bd 1104 843d cae6 713e 1420 30bd
00000230: 8a01 52bd f882 593d 4f55 ac3c 1451 a03c
00000240: 3e2b 9ebd 2d75 05be 65dd 6fbc 50c0 9d3d
00000250: 2ee0 45bd e27a 973d 92a9 413c 5bfd a43d
00000260: f267 97bd 65b4 fabc 9d41 933d bcb6 88bd
00000270: 08ea 47bd 2153 813e e552 02be cba5 b73d
00000280: ef51 efbc 476f c33d 202b 80bd 8d1f d6bc
00000290: 6e5b 9e3c c189 28be b5f1 9fbd df75 8a3d
000002a0: a544 803d a864 4abd bc2b eabd df97 7bbd
000002b0: b109 963d 4166 793d 7988 b13d 366d 953c
000002c0: b43a bd3d 91e0 bd3d c6ca b9bc 9bc9 803d
000002d0: 5674 533d db6c a6ba b4bc 4dbd 487c 933d
000002e0: 0bde 7a3d 9658 0fbe 6ea5 023e a2ac 4ebd
000002f0: e38a 5f3d 9768 40bc b676 dc3d eb3b 913c
00000300: b6b8 9ebc 5ee1 b6bd 3e72 2e3d 5de6 d0bc
00000310: 2071 1abc 53d5 2f3d 1553 803d 9e06 7bbb
00000320: f938 1cbd b28f c2bd 197e f5bc 8753 04bd
00000330: 2928 453d 3ad6 88bc 9e75 6b3d 35f2 123d
00000340: a172 a23d 6ac7 d23d 33a4 583c 9e0a 18be
00000350: 2ebc 27bb 9021 033d 9d1e 10bd a8dc a53d
00000360: 9920 8a3d 0324 0e3d f93d 7d3e 11d2 e03d
00000370: 8c85 193d f89f 843d 48d2 a93d 607e 903c
00000380: 8563 833c 2378 723d 6bb7 c33d 5fbb 623d
00000390: ad00 a43d 57ce e9bd 62a8 3f3d 168f 503d
000003a0: 37fe af3d edf9 f73b b77c 32bd c0ac 613c
000003b0: 76d3 083e e15c 783d 6de9 133e 7fac 8dbd
000003c0: 3a91 32bd c01e a13d bffe b63d 976d 473d
000003d0: 7c20 fcbc 13ae eb3d d899 ff3c 069b 79be
000003e0: 7509 e9bd ae07 1d3d 9145 4a3d d15d da3e
000003f0: 2edb a83d 7a5d d3bd 9565 803d 7090 103d
0.0101145925 -0.0828089 0.06869676 0.049904477 -0.095007636 -0.04221719 0.021428352 -0.026591083
-0.017994458 -0.039908722 0.06251521 -0.05788255 0.06483262 0.005703016 0.009288336 0.06052422
-0.023040494 -0.05675758 -0.022771472 0.07168767 -0.072760895 0.0115891835 -0.08686731 0.040786218
0.024312546 0.0037469813 0.029494958 -0.007187343 0.04044249 -0.078417175 -0.021398686 0.032194752
0.07953993 0.045024265 -0.07228994 0.0595248 -0.027896818 -0.027352441 -0.08865653 -0.022334881
0.054442562 0.0038487825 -0.059947126 0.018828342 -0.028341226 0.080698036 -0.084671766 -0.036180727
-0.09312671 -0.043238368 0.02786422 0.07660766 0.0148444995 0.086652264 0.017293368 0.05104745
0.0708576 0.06788225 -0.049473055 0.07278775 0.0450687 -0.049723014 -0.042179216 -0.08238584
0.013718315 -0.080114156 0.03733742 0.01966915 -0.08453346 0.024085902 -0.015504057 0.03205794
0.042238742 -0.09535997 0.08106086 0.065694764 0.03516828 -0.08078351 -0.031574152 -0.03359725
-0.022715623 0.042019982 0.0321354 0.0700194 -0.033103485 0.029746192 0.024779262 -0.07359133
-0.09129403 -0.05434363 0.060506035 -0.08321406 -0.07693621 0.049515203 0.047688074 0.06421108
-0.06672779 -0.073163584 0.036925506 0.076865174 0.05288618 0.0054501714 0.029130563 0.0757249
-0.057028543 -0.040129352 0.053747326 -0.06756859 -0.048738446 0.064522706 0.027888475 0.020084709
-0.045940462 -0.0012198036 0.08089591 -0.05305246 -0.007727285 0.034205846 -0.0693487 0.07983679
-0.052634966 -0.029370448 -0.029454917 -0.057599053 -0.08673236 0.04983791 0.023482496 -0.08278459
0.006109467 0.08736022 -0.0434421 0.030732842 -0.038580246 0.068650275 0.004131642 0.12950164
-0.06520589 0.06446088 0.23623195 -0.042999342 -0.051271 0.053103417 0.021036772 0.019569911
-0.077230915 -0.1303298 -0.014640187 0.07702696 -0.048309498 0.07396485 0.011820214 0.08056136
-0.07392873 -0.030603597 0.07190249 -0.06675479 -0.048807174 0.25258735 -0.12726934 0.089671694
-0.029213874 0.09542709 -0.062582254 -0.026138091 0.019330706 -0.16458799 -0.07809774 0.067607634
0.06263093 -0.0494124 -0.11434123 -0.061424132 0.07326067 0.060888533 0.08668608 0.018240552
0.09239712 0.09271348 -0.022679698 0.06288453 0.05162462 -0.0012697236 -0.05022879 0.07201439
0.061246913 -0.13998637 0.12758419 -0.050457604 0.054575812 -0.011743686 0.1076483 0.017728766
-0.019375186 -0.08929704 0.04258942 -0.02550047 -0.009426385 0.04292805 0.06265847 -0.0038303505
-0.03814027 -0.09500064 -0.029967355 -0.03230622 0.048134003 -0.016703714 0.057485215 0.035875518
0.0793202 0.102919415 0.013222742 -0.148478 -0.0025594342 0.03201443 -0.035185445 0.080987275
0.06744499 0.034702312 0.24730672 0.10977567 0.037480876 0.06475824 0.08292061 0.017638385
0.016038666 0.059196603 0.095564686 0.055354472 0.080079414 -0.11416309 0.04679144 0.050917707
0.085934095 0.0075676353 -0.04357597 0.013774097 0.13361916 0.06063545 0.14444514 -0.06917667
-0.04359553 0.07867193 0.08935308 0.048688497 -0.030777209 0.115078114 0.031201288 -0.24375543
-0.11378757 0.038337402 0.04938275 0.426497 0.0824493 -0.103205636 0.06269375 0.035293996

net.2.bias f4 [128]
00000000: 9142 b0bc 1332 ac3c 3308 21bd b620 07bd
00000010: fd2e f93c bd49 6ebd 4198 163d 90a9 6f3d
00000020: c972 8c3d 45cd 853d abac bdbc c23c 9a3c
00000030: e99e cdbd 600e a4bc 6be8 28bc 59d2 6bbb
00000040: 2516 f53b a8d4 85bd 357d 2e3a 907b 88bd
00000050: c493 cfbd 6aa4 36bd 1ea0 8abd 26ba c93c
00000060: 8a44 ebbb 947e 9e3d bfeb cb3c 583a bd3b
00000070: 5a9d 1e3d fad9 dd3c 61e0 8dbd 47a1 01bd
00000080: d9a1 acbd dc42 42bd ab8b 503d dbda 103d
00000090: 252b 903d 3cd0 edbc 2b0b 4c3c 8e6d 0f3d
000000a0: 8563 233d 584d 51bd 16c8 453d df74 233d
000000b0: af93 b9bc 7d05 b23d a11a c43d e5ab cebd
000000c0: 53a6 733d fed6 dfbd 52ee d5bc ad6b 463d
000000d0: 5e10 1a3d 8bf2 b83d a1dd 1e3d ba81 483b
000000e0: 4a3b 523d d3b0 8ebd 0946 b5bc 6283 51bc
000000f0: a34d 843d b3d9 6a3d 22f2 6b3d 02a6 61bd
00000100: dcc9 983d de5f 9a3d 32d8 33bc aaeb ab3d
00000110: 4cb5 64bc 18e4 42bc 5780 cbbc 3cfc ab3c
00000120: 6220 73bd 0bac 073d db24 73bc 91bc 78bd
00000130: 50a5 84bd f069 3d3d d170 90bb fec4 113d
00000140: 16a5 6b3d b72a a93d 4953 583c 8ad1 90ba
00000150: 7091 ce3c 0c6a 85bd d45a cc3d 8eb3 69bd
00000160: c164 cdbc a34d eb3b e536 f93d 0f23 ac3d
00000170: 3f8c 0b3d 0900 a43d 2ce8 05be f823 6ebd
00000180: fcef 3e3d 2fd1 43bd 3d31 ab3c 32f8 66bd
00000190: 0072 273d 66ea 9dbd bee5 f53b 4adb a83c
000001a0: 6e48 9ebd 1301 e13d 9184 8c3d b3a4 ecbc
000001b0: c670 58bd 8194 c43c cc59 b2bc ed60 81bc
000001c0: 3da3 833d 406a 6a3c 074c bbbd 947a e83b
000001d0: aef4 e8bb 5243 823b c139 28bd ee6f a2bc
000001e0: 255b 383c ad42 533d 297d a43c ede7 f93c
000001f0: 4694 67bd 2f22 823d 027d 293d ca57 253d
-0.021516116 0.021019971 -0.03931446 -0.03299018 0.030417914 -0.05817579 0.036766294 0.058511317
0.06857831 0.06533293 -0.023153624 0.0188278 -0.10040075 -0.020026386 -0.010309319 -0.0035983531
0.0074794465 -0.065347016 0.00066562305 -0.06664193 -0.10135606 -0.04459039 -0.06768821 0.024624895
-0.0071798014 0.077389866 0.024892686 0.0057747774 0.03872428 0.027081478 -0.069275625 -0.031647947
-0.084293075 -0.047427043 0.050914448 0.035364967 0.07039479 -0.029029958 0.0124538345 0.03501659
0.03988983 -0.05109915 0.04828652 0.03990638 -0.022653429 0.08692453 0.095753916 -0.1009138
0.05948479 -0.109296784 -0.026114617 0.04844253 0.037613265 0.090306364 0.03878558 0.0030594901
0.051326074 -0.0696732 -0.022128122 -0.012787672 0.064601205 0.05733652 0.057603963 -0.055089958
0.074603766 0.075378165 -0.010976838 0.08394559 -0.01395924 -0.011895202 -0.02484147 0.020994298
-0.059357055 0.033123057 -0.01484033 -0.060726706 -0.06476843 0.046243608 -0.00440798 0.035588257
0.057530485 0.082601 0.0132034505 -0.0011048776 0.025215834 -0.065143675 0.099782616 -0.057056002
-0.025072457 0.007180886 0.121686734 0.084051244 0.034069296 0.08007819 -0.13076848 -0.05813977
0.046615586 -0.047806915 0.020897502 -0.05638904 0.040880203 -0.077107236 0.007504194 0.020612378
-0.077286586 0.10986533 0.068612225 -0.028887128 -0.052841924 0.023996593 -0.021771334 -0.015793288
0.064276196 0.014307559 -0.091453604 0.0070946906 -0.007109246 0.0039753104 -0.041070703 -0.019828763
0.011252199 0.05157726 0.020079212 0.030506099 -0.05653789 0.06354176 0.041378982 0.040366925

net.4.weight f4 [2, 128]
00000000: b985 0f3b 52d0 0abc 8f2b 5dbd 8e4d 793d
00000010: 5a00 2cbd 2b97 0ebd ab3e f13c 27ee 40ba
00000020: 8196 97bd d171 5cbc ef23 99bb 872f a7bd
00000030: bc05 9bbc 827b 4cbd 71d0 5cba 7a95 433b
00000040: 60d4 ceb9 494b 963d 1429 29ba f715 2dbb
00000050: ba05 023b 01b7 23b9 9764 27bb 5a29 2a3a
00000060: c6f7 8639 c93d 1c3b b0f8 a83b 11be edbc
00000070: c403 973d 518a 86bd e4da c3bc c978 0d3d
00000080: ca0e 5bbd f098 9f3d 1f7a e8bc b367 84b9
00000090: 7f92 533c 8802 8bbd 78d8 b03d d132 a7bb
000000a0: 3fde fd3c 0a61 583d 4f84 9abd 8457 9b3c
000000b0: 0487 5f3a 3495 b4bd eefb 723d 3088 c4bc
000000c0: 0fec abbd 7d7d 06bd fa86 883d d60f 2f3d
000000d0: 28e7 983c dbef 8a3c 1277 63ba eb38 3fbd
000000e0: d2a1 0cbc 378e 693d c910 673a ab4b 6e3b
000000f0: e4c0 893d 7db3 a63c e119 443d 13ce 843d
00000100: 086d 0e3d 9dff 063d faf5 d13c 68c8 013d
00000110: 4770 a5bd 640d 0cbc 4be8 86bb 4c53 d1bc
00000120: 2c4b 4abb 9e94 3b3a 7e7a f6bb 13a1 83bd
00000130: eb0b ea3c 9234 9c3d 4c95 58bd b7c1 84bd
00000140: c047 52bb 45a9 1dbd beb0 9ebd 77b1 743b
00000150: 5442 a9bb 53d8 613d 0473 5dbc c5d2 1bbc
00000160: de7f af3d c610 aabd d613 8fbd ba2f b8bd
00000170: 1459 cb3c 0e5e 193c d5f9 183c ed59 7a3d
00000180: 40f4 b8bc 1640 2f3b 3ba9 373d 3b8a 983b
00000190: 0972 98ba c469 33bc cdef 2fba 1f37 3eba
000001a0: e46c aa3c 52f1 70bd 9ab0 103d a230 a83c
000001b0: e317 f63c 06f0 2bbd 0184 123d 0d78 8dbd
000001c0: 8f04 bc3d 8a19 db36 f507 313b 42e7 093c
000001d0: 34b0 a8bb 1fcd 49bb 006e 91bd 2ce7 b4bb
000001e0: 25cb 8f3d 07dd 58bc 8e2b 183c 6836 033d
000001f0: 8bbf 773b 77de 25bd 7555 fc3a 6fb9 2f3c
00000200: c283 163d 8f23 8e3d 3aab cb3c 885b 8fbd
00000210: 7cc1 24bc 5941 6a3d 0433 963d 6506 853a
00000220: a0ed 3fbd 8fe9 99bd 750a 6e3c 72a7 c2b8
00000230: a9c8 f3b9 2ccf 9dbc 12bf 0d3b 2447 2c3b
00000240: 6ec9 dd3a 8ea9 02bd 4c5f c0b9 ae5d 6d3b
00000250: ab2a ffba 5e9c 57ba 32e2 3339 866f 963d
00000260: 6091 62bb 660e 9d3d e917 6fb8 cfb9 c23c
00000270: 7557 78bd b752 733d 914f 243d 9d0a ec3c
00000280: 1d34 f3bb 083f 003d dcca aabd fdd6 9db9
00000290: 958c 943d 4c77 5cbc 8ad8 8b3c 02eb cfbb
000002a0: 9524 5abd 66cc 95bc 69ec 0fbc e03b 6abd
000002b0: e3f9 9bbb 27d2 96bd 6ff4 8e3c 214b 9a3c
000002c0: 4e45 683d fd4e 88bd 2330 83bd 51a4 02bd
000002d0: 28d6 cb3d 107b 963d 4a43 a4b9 2541 b8bc
000002e0: 32e4 343b fec8 203c cf83 97ba 3489 95bb
000002f0: a286 02bd 6bfc 30ba 5fcb 323d 4a77 32bd
00000300: 5d95 3dbb 742d 5d3d c61f bd3c 60d9 833d
00000310: ad9f 90bc c924 803b 103b 25bc 9737 a23d
00000320: 24c5 563b e7eb 78bd a47f ff3b 73b3 b13d
00000330: c8a0 c13c 9194 eebc 0de0 ae3d 4977 063d
00000340: beb7 dfba 2884 bd3b 65c7 7c3d 69b7 c63a
00000350: c1c5 083b 0d66 403c a4f8 74bd d92e ddbc
00000360: 2943 acbc 16e2 e73c 6283 3d3d 40ad 1b3d
00000370: 6ff7 c33c e59a acbd 32d3 893b ad04 31bd
00000380: 29d1 95bd 16e4 85b9 03e3 72bd 1ba5 d6bc
00000390: b48c 36b9 87bf 28bd 5e72 043a b0de 1dbb
000003a0: 4849 bbbc 7995 aebd 1db0 8abd 2961 94bd
000003b0: a8d2 4a3d 69a8 8ebb ae12 9abd 8631 babc
000003c0: 870b 303c d9b5 18bb 60a9 843b 7af9 03bd
000003d0: 8253 453b 29d9 a5bb a992 523d e5ee e53b
000003e0: ad01 e43c a5e8 793c f978 7dbc 416d 05bc
000003f0: 49e0 ea3c 91aa 323d abdf be3b 1783 3e3d
0.0021899773 -0.008472519 -0.05399662 0.060864978 -0.041992523 -0.034812134 0.029448828 -0.0007359706
-0.07401753 -0.01345487 -0.004673473 -0.08163362 -0.018923633 -0.049922474 -0.0008423394 0.0029843734
-0.00039449614 0.07338578 -0.00064529595 -0.0026410797 0.001983984 -0.00015613066 -0.0025542134 0.0006491147
0.00025743077 0.0023840538 0.005156599 -0.029021295 0.07373765 -0.065693505 -0.023908086 0.034539018
-0.0534809 0.077928424 -0.028378544 -0.00025254264 0.012913345 -0.06787592 0.08635038 -0.0051024933
0.030989764 0.05282692 -0.07544767 0.01896263 0.0008526894 -0.08817521 0.05932229 -0.02399072
-0.08394634 -0.03283452 0.0666637 0.04273971 0.018664911 0.016960075 -0.00086771057 -0.04668514
-0.008583503 0.057020392 0.0008814452 0.003636102 0.06726244 0.020349259 0.047876243 0.06484618
0.03477195 0.032958616 0.025629986 0.031685263 -0.08078056 -0.008548114 -0.004117047 -0.025552414
-0.003086756 0.00071556296 -0.0075219264 -0.06427207 0.028570136 0.076272145 -0.052876756 -0.06482261
-0.0032086223 -0.038491506 -0.07748555 0.0037337223 -0.0051653776 0.055137943 -0.013516191 -0.009510701
0.085693106 -0.083039805 -0.06986205 -0.08993478 0.02482275 0.009360803 0.009336908 0.061120916
-0.022577405 0.002674108 0.044839125 0.00465515 -0.0011630665 -0.010950509 -0.00067114533 -0.00072561385
0.020803876 -0.05882389 0.03532467 0.020531002 0.030040687 -0.04197695 0.03577042 -0.069076635
0.09180557 6.5296817e-06 0.00270128 0.008416953 -0.005147958 -0.0030792428 -0.07101059 -0.005520722
0.070211686 -0.013236291 0.009287728 0.032034308 0.0037803377 -0.040495362 0.0019251542 0.010725363
0.036746748 0.06940376 0.02486192 -0.0699988 -0.010055896 0.057191227 0.07333949 0.0010149
-0.046857476 -0.07515251 0.01452886 -9.28183e-05 -0.00046498075 -0.019263826 0.002162878 0.002628752
0.0016920993 -0.03189998 -0.00036692095 0.0036219168 -0.0019467672 -0.00082248996 0.00017155035 0.0734549
-0.0034571514 0.07668762 -5.700431e-05 0.023770241 -0.06063028 0.059405055 0.040114943 0.028813655
-0.007421984 0.03131011 -0.083394736 -0.00030105552 0.072533764 -0.013456177 0.017071027 -0.006345154
-0.053257544 -0.018285941 -0.008784392 -0.057186007 -0.0047600134 -0.07364302 0.01745054 0.018834652
0.05670672 -0.06655691 -0.06405666 -0.031894986 0.099529564 0.07347691 -0.00031330652 -0.022492
0.0027601835 0.009813545 -0.0011559668 -0.004563475 -0.031866677 -0.00067514804 0.04365098 -0.043570794
-0.0028928139 0.053998426 0.02308644 0.06437945 -0.017654264 0.003910635 -0.010084882 0.07920759
0.0032771314 -0.06077185 0.0077971984 0.08676805 0.023636237 -0.029123576 0.08538828 0.032828603
-0.0017068309 0.0057835765 0.061713595 0.0015160862 0.0020869824 0.011743081 -0.059807435 -0.026999878
-0.021028118 0.028306048 0.046267875 0.03800702 0.023921696 -0.08427981 0.0042060846 -0.04321735
-0.07315285 -0.00025537674 -0.059298526 -0.026201775 -0.00017409289 -0.04119828 0.00050524424 -0.002408903
-0.022862092 -0.085246034 -0.06771872 -0.07245094 0.049517304 -0.004353572 -0.07523094 -0.022728693
0.010744936 -0.002330175 0.0040485114 -0.03222034 0.003010959 -0.005061288 0.051409397 0.007017004
0.02783283 0.015253221 -0.015470737 -0.008143724 0.0286714 0.043619696 0.005825003 0.046511736

net.4.bias f4 [2]
00000000: a7f6 82bd 095c 963c
-0.063947015 0.018354433

exp_avg f4 [128, 4]
00000000: db49 8136 b4be 9c35 9693 2db5 5c40 f832
00000010: 0000 0000 0000 0000 0000 0000 0000 0000
00000020: 989d 1ab6 ee24 6337 8147 0a35 d85b 7ab5
00000030: 873b 4236 0651 7e36 fe14 1fb5 4cbf c8b4
00000040: 88b0 d4b4 6ff1 4237 6f89 da35 4084 b234
00000050: 0000 0000 0000 0000 0000 0000 0000 0000
00000060: b07d acb5 9e24 25b7 febf 2a36 2399 d834
00000070: 1dff cf35 6825 31b6 85a5 48b5 847e 2f33
00000080: 040b 5ab5 00ba 4137 d4c2 8d34 9aaa 63b5
00000090: 5b3a abb5 609f 5235 743b 06b5 5b81 89b4
000000a0: 3bb1 0a37 66be 0037 8082 9cb5 1b1a 04b5
000000b0: a12e a336 bcf0 9f37 c991 9d35 98b1 b0b4
000000c0: 4002 aab4 edd2 1a37 eb47 1fb5 a12c f3b4
000000d0: a9ff 59b6 cc33 6236 d949 fb35 9e89 2db5
000000e0: 3441 9035 e206 0437 dcb3 bf34 f42c a233
000000f0: d081 da34 c8c7 9435 10fa 5eb5 b4b1 beb1
00000100: d024 ea36 eba9 5537 1804 86b3 a87a afb4
00000110: ec72 0836 c6b5 84b7 4cbf e135 e07e b535
00000120: 0a6c c235 38c9 3d37 b0d9 3534 20f8 e9b4
00000130: c221 27b7 0b22 b5b6 a723 0337 f59b ac35
00000140: 20cd 1b35 4803 83b7 3dac 0b36 37c8 b235
00000150: c1ff ed36 815a 0837 d51f 09b6 ec03 95b4
00000160: 0153 0eb7 9883 c5b6 bc02 9336 34ec d234
00000170: b264 5f36 00ec 99b3 3363 81b5 a6db 7134
00000180: dc87 8f35 584a 7b37 e08d c2b2 cf23 44b5
00000190: 98d0 71b6 e6a3 82b5 bd0a 8636 def3 3835
000001a0: 406f 0535 af88 43b6 1c06 27b5 348f 0431
000001b0: 0049 2c34 1666 4db7 0c7d 5936 e9af 3935
000001c0: cc82 1636 4619 48b6 0adb 97b5 841c 9334
000001d0: b6f1 3db6 50bf 5136 2934 09b4 d9ce e733
000001e0: bc9b 5235 3377 0d35 62ac 0fb5 1046 35b4
000001f0: 09fc 8eb6 e4ce 6bb6 e2e5 9e36 dcbe 8235
00000200: a045 d636 06ed 6b37 78f1 5234 cf4c 6db4
00000210: 18a7 86b6 4032 c835 bb51 9b36 c4d3 1135
00000220: 2046 4e34 1cf5 30b7 efbf 1436 a7f8 5335
00000230: 0c83 a936 2074 2437 2d49 25b6 a867 d1b4
00000240: 74c9 5bb6 4b7d c0b6 0827 2f36 bc56 0135
00000250: 9040 ceb4 4f16 a037 6876 7b34 a962 9ab5
00000260: 97fd 5036 06f8 01b6 bf66 90b5 28d5 39b4
00000270: 6c72 70b5 1f45 7137 063e a735 7dcb 3334
00000280: fe7c 8736 faca b136 6806 7cb5 33b1 17b5
00000290: 8ecc 1236 bdc0 3037 9758 5e35 207f d5b1
000002a0: eaaa 8a35 d84a bcb4 0c96 d6b5 d4fd 22b4
000002b0: 0000 0000 0000 0000 0000 0000 0000 0000
000002c0: c417 e4b6 d4b4 1eb6 afe9 8136 6731 d9b4
000002d0: 074e 4b35 5a31 8435 13bb 1bb4 a3f7 d7b3
000002e0: 8cc9 3236 ac94 1d36 59e7 46b5 9c41 d1b3
000002f0: d071 7935 ef6f 8fb5 e226 0936 a52b 5f35
00000300: 8e02 ee35 be76 4736 982b e4b4 43d5 8034
00000310: 807a c0b5 d982 c3b6 b05d c735 7a0f a234
00000320: 2fc2 b7b6 8cf3 d3b6 46f3 a236 2a3a 7135
00000330: ff42 0934 68f5 0734 9569 ab2f 987b 12b1
00000340: 68ad fcb6 9d84 31b5 2192 6435 7310 8633
00000350: 0b06 a5b6 4b73 ccb6 2c46 9f36 8f81 df35
00000360: 0000 0000 0000 0000 0000 0000 0000 0000
00000370: c554 8735 bb6b f836 09f3 9036 bc51 5db4
00000380: cc63 01b7 46ec f7b5 4292 fa36 6dda 6235
00000390: b0c3 1036 99b1 89b7 0998 b334 b885 9435
000003a0: 40f9 a1b2 ae39 90b5 a0c9 a0b4 dc85 e433
000003b0: 8c44 98a6 5fd2 96a6 d680 3ea2 2d83 a223
000003c0: ee20 1bb6 a262 5a36 1e14 4034 8e52 81b4
000003d0: f0f4 2c35 fe28 edb6 3196 4b35 1b00 4635
000003e0: 9924 f0b6 2897 beb6 22b7 9536 a0f1 b634
000003f0: 98d7 4236 ea78 f5b6 9efc dfb4 4de0 da34
3.8530975e-06 1.1678408e-06 -6.466229e-07 2.8900267e-08 0.0 0.0 0.0 0.0
-2.303952e-06 1.3538853e-05 5.151306e-07 -9.326591e-07 2.8942902e-06 3.7896111e-06 -5.9262663e-07 -3.739209e-07
-3.961652e-07 1.1619514e-05 1.6282264e-06 3.3251308e-07 0.0 0.0 0.0 0.0
-1.2851579e-06 -9.843292e-06 2.5443728e-06 4.0344557e-07 1.549695e-06 -2.6396829e-06 -7.474667e-07 4.0860428e-08
-8.122736e-07 1.1547003e-05 2.6405053e-07 -8.481235e-07 -1.2757476e-06 7.846302e-07 -5.0005406e-07 -2.5612357e-07
8.266706e-06 7.673725e-06 -1.1660886e-06 -4.921182e-07 4.863207e-06 1.9066378e-05 1.1739841e-06 -3.291177e-07
-3.1666605e-07 9.228225e-06 -5.933677e-07 -4.529475e-07 -3.2484334e-06 3.3706774e-06 1.872245e-06 -6.464778e-07
1.0747813e-06 7.869416e-06 3.5707387e-07 7.55189e-08 4.0700115e-07 1.1085003e-06 -8.3065333e-07 -5.5499303e-09
6.978029e-06 1.2735351e-05 -6.240606e-08 -3.2685534e-07 2.0332473e-06 -1.5820271e-05 1.6819481e-06 1.3522476e-06
1.448557e-06 1.1312128e-05 1.6936133e-07 -4.3580167e-07 -9.9618355e-06 -5.3981835e-06 7.816509e-06 1.2860388e-06
5.8040496e-07 -1.5617945e-05 2.081287e-06 1.3320304e-06 7.092924e-06 8.127304e-06 -2.043312e-06 -2.7756266e-07
-8.483185e-06 -5.886377e-06 4.3812597e-06 3.9287409e-07 3.3288202e-06 -7.167546e-08 -9.64012e-07 2.2524782e-07
1.069387e-06 1.4978075e-05 -2.264909e-08 -7.30678e-07 -3.6033216e-06 -9.733455e-07 3.9947613e-06 6.8900215e-07
4.970825e-07 -2.9136825e-06 -6.222124e-07 1.928993e-09 1.6045306e-07 -1.2242721e-05 3.2408307e-06 6.9173853e-07
2.2427876e-06 -2.9817033e-06 -1.1314125e-06 2.7401632e-07 -2.830389e-06 3.1254785e-06 -1.2778095e-07 1.0794401e-07
7.845772e-07 5.270005e-07 -5.35225e-07 -1.6882427e-07 -4.2612705e-06 -3.5138155e-06 4.735529e-06 9.741302e-07
6.3858024e-06 1.4062278e-05 1.964562e-07 -2.2100288e-07 -4.0129635e-06 1.4915786e-06 4.6288746e-06 5.432487e-07
1.9210756e-07 -1.0547486e-05 2.2165439e-06 7.896546e-07 5.0518483e-06 9.802199e-06 -2.462951e-06 -3.9004703e-07
-3.2750804e-06 -5.736632e-06 2.6099751e-06 4.818246e-07 -3.8417465e-07 1.9083875e-05 2.3419273e-07 -1.1502608e-06
3.1142024e-06 -1.9366867e-06 -1.0758739e-06 -1.7307013e-07 -8.9573473e-07 1.4380813e-05 1.2460521e-06 1.6744703e-07
4.0378645e-06 5.2986406e-06 -9.388664e-07 -5.650974e-07 2.1874762e-06 1.0535293e-05 8.283036e-07 -6.2135683e-09
1.0331544e-06 -3.5072185e-07 -1.5987912e-06 -1.5179768e-07 0.0 0.0 0.0 0.0
-6.797696e-06 -2.364909e-06 3.871704e-06 -4.0455345e-07 7.573694e-07 9.84913e-07 -1.4503557e-07 -1.00567625e-07
2.6641383e-06 2.3481361e-06 -7.4097403e-07 -9.744255e-08 9.292535e-07 -1.0686907e-06 2.0437224e-06 8.3137485e-07
1.7733125e-06 2.9722428e-06 -4.2500028e-07 2.3997026e-07 -1.4340767e-06 -5.8266855e-06 1.4853922e-06 3.0186112e-07
-5.476431e-06 -6.3166426e-06 4.856297e-06 8.9864136e-07 1.2783492e-07 1.2662133e-07 3.117974e-10 -2.1316051e-09
-7.5303724e-06 -6.6130616e-07 8.5149264e-07 6.242853e-08 -4.9180867e-06 -6.0930956e-06 4.7467383e-06 1.6652501e-06
0.0 0.0 0.0 0.0 1.0082955e-06 7.4035174e-06 4.3198274e-06 -2.0611964e-07
-7.712235e-06 -1.8471699e-06 7.4676072e-06 8.450941e-07 2.1571577e-06 -1.6414373e-05 3.3451968e-07 1.1065777e-06
-1.8856213e-08 -1.0745623e-06 -2.9949024e-07 1.0641426e-07 -1.0565698e-15 -1.0465362e-15 -2.5818007e-18 1.761963e-17
-2.3115967e-06 3.2541943e-06 1.7888712e-07 -2.408819e-07 6.4431424e-07 -7.0679225e-06 7.584195e-07 7.37609e-07
-7.156818e-06 -5.680038e-06 4.4618655e-06 3.4075947e-07 2.9033745e-06 -7.3156452e-06 -4.172079e-07 4.0768865e-07

exp_avg_sq f4 [128, 4]
00000000: a228 952f 8116 1c2f 4b8d 4a2c 37b9 a62b
00000010: 0000 0000 0000 0000 0000 0000 0000 0000
00000020: 7b61 0630 5558 9e2f 569f 672c 4f1b eb2b
00000030: 4c00 fe2e add2 4c2e 1697 3a2b c683 a82a
00000040: 4945 b52f 4c03 932f 998f ee2c fdc5 482c
00000050: 0000 0000 0000 0000 0000 0000 0000 0000
00000060: d948 3631 588b 8330 b882 0c2e 9ce1 162d
00000070: 4339 422f 84e1 072f bd71 892b 17fb 052b
00000080: adc4 b52f 9ef5 4f2f a982 672c 371b 942b
00000090: f2ce 742f 6437 e92e 2b03 392c 1b9c b42b
000000a0: 6a7f cf2e d87f 9b2e ed1e 622b a452 ca2a
000000b0: 31fe a430 eb7d 5530 825e 8e2d c0c5 dd2c
000000c0: fa7f 0131 6d1c 5b30 3a7e 6a2d 5cd4 ab2c
000000d0: 55f9 2930 8aa9 cd2e c6e5 352d a9fc 002c
000000e0: 4ccf 372f cc49 ca2e 9cda 302c 23a5 762b
000000f0: 2f3a 0930 26c8 842f 59ed 742c 6c10 a32b
00000100: dcab 0f30 912f 7d2f e5a2 b52c 8b51 fc2b
00000110: 7cd8 1031 44f2 7330 05b6 cb2d f947 1d2d
00000120: bb86 922f 5488 212f 45d9 3c2c 478b a12b
00000130: 7267 0532 ba08 2631 75f5 012f 1a27 a52d
00000140: ef87 0731 c32a 7a30 8200 c22d 5837 1f2d
00000150: 30a0 0231 2678 4e30 13cd 902d a4e8 a72c
00000160: c097 9931 7f1c e930 428a 502e acac 622d
00000170: e925 902f 4718 862f 3e2c 502c 0ab1 022c
00000180: 6b7e 2830 ef1d 8d2f 71af 892c 0034 cc2b
00000190: 8429 c630 d514 f42f 67d5 b72d 1d1a 922c
000001a0: 619f 8c2e 8169 482e 5146 142b f74b 4f2a
000001b0: d325 8531 4131 c030 620b 4d2e 7adc 6b2d
000001c0: b31d 7e2f 6cf6 802f ac79 e62b 086b 4a2b
000001d0: eaed 5d2f 651b 842f ba4c f62b 588f 782b
000001e0: 54ea a22e d6b9 792e 7148 072b 4e51 932a
000001f0: 1ea9 2831 f9c9 5830 10dc 282e a4e6 2d2d
00000200: 773e 4630 5e57 eb2f ff3b 202d b8f5 752c
00000210: a73b 8631 db6c ad30 ccac 582e 8abd 312d
00000220: 3663 ca30 e0f9 1e30 865b a22d 0c7d ba2c
00000230: edca 1031 3f86 3930 9b65 9f2d e472 bb2c
00000240: e034 f330 7417 3230 f2f7 b32d 929e bd2c
00000250: ee02 3430 4b95 d32f 7a6e b82c ce83 222c
00000260: a09c 362f 5367 e02e 18e8 5b2b b1c6 db2a
00000270: 0f15 dc2f af9a a22f 5153 d92c c744 252c
00000280: ade1 952f 8ff6 c72e 8ebd ea2b 4a5d 4a2b
00000290: 35f8 b02f 980a 642f 6474 a92c cd7b 0f2c
000002a0: 0b24 2930 a64a bb2f c0d0 8f2c 5b57 cc2b
000002b0: 0000 0000 0000 0000 0000 0000 0000 0000
000002c0: f93c c931 e8f6 2131 7b5b 872e fff9 9e2d
000002d0: 18c1 f32c 91b4 d72c a054 4929 3ea3 0229
000002e0: 2fe5 8d2f ff86 092f 6b84 482c 0324 ad2b
000002f0: ecd3 652f c623 552e 5f55 a42b c073 ee2a
00000300: 5859 9e2f 50ab 4a2f 2df5 872c 6208 0e2c
00000310: 0bd3 7730 b785 ba2f 3fb9 362d d663 5a2c
00000320: 78ce 6331 25a6 9f30 b374 592e 182d 6d2d
00000330: 8dc2 bd28 59a0 b728 e4c4 ba22 f837 2a23
00000340: 19ea 0530 e892 222e 6fe4 d02c 725f 072b
00000350: 9a8d 4031 dec1 9b30 e608 3b2e 9044 832d
00000360: 0000 0000 0000 0000 0000 0000 0000 0000
00000370: 0da7 9031 3e2b 7830 7ee2 572e f234 ea2c
00000380: d313 e331 eaf1 ed30 87eb d42e a1b8 6e2d
00000390: 2776 8430 54b6 2330 9a9d e32c 3835 c32c
000003a0: 48dd c92e 6083 052f dac1 5a2b a738 282b
000003b0: 4cbb 1327 39f4 0f27 608d 8a20 0e35 7a21
000003c0: cf76 7d2d 2646 d02d 463b 962a 514e 8529
000003d0: db4c 1930 59a6 952f 25ea cf2c b2ef 142c
000003e0: 3692 a431 b222 e230 281a 542e 8eb3 542d
000003f0: 4f43 6b2f 1448 3c2f a7a6 802b e917 632b
2.7131813e-10 1.4196112e-10 2.878436e-12 1.1846417e-12 0.0 0.0 0.0 0.0
4.8887444e-10 2.8802796e-10 3.2915524e-12 1.6705334e-12 1.15506354e-10 4.6571347e-11 6.629015e-13 2.993423e-13
3.2972938e-10 2.6741487e-10 6.7803094e-12 2.8531615e-12 0.0 0.0 0.0 0.0
2.6525895e-09 9.571108e-10 3.1948416e-11 8.576608e-12 1.766454e-10 1.2358298e-10 9.766004e-13 4.759955e-13
3.3063455e-10 1.8913801e-10 3.2899605e-12 1.0523586e-12 2.2265192e-10 1.06054526e-10 2.629184e-12 1.2833097e-12
9.4359034e-11 7.0712936e-11 8.0334247e-13 3.5939752e-13 1.2004816e-09 7.766789e-10 1.61855e-11 6.3031524e-12
1.8844717e-09 7.971213e-10 1.3329388e-11 4.883689e-12 6.1836164e-10 9.352437e-11 1.0339679e-11 1.8330149e-12
1.67174e-10 9.1990054e-11 2.5132457e-12 8.762593e-13 4.9922994e-10 2.4152874e-10 3.480624e-12 1.1586405e-12
5.2267324e-10 2.3027115e-10 5.1624143e-12 1.792831e-12 2.1077815e-09 8.8747165e-10 2.3159261e-11 8.940398e-12
2.6652977e-10 1.4691298e-10 2.6837016e-12 1.1478395e-12 7.76514e-09 2.416114e-09 1.1819686e-10 1.8775693e-11
1.9722355e-09 9.101024e-10 2.2055472e-11 9.050392e-12 1.9008546e-09 7.5113105e-10 1.6461976e-11 4.7722538e-12
4.470138e-09 1.696108e-09 4.7416522e-11 1.28849535e-11 2.6220384e-10 2.4391708e-10 2.9583137e-12 1.8572388e-12
6.1297695e-10 2.566902e-10 3.913252e-12 1.4509505e-12 1.4418196e-09 4.4398143e-10 2.0899461e-11 4.1524687e-12
6.394774e-11 4.556844e-11 5.2677746e-13 1.8411649e-13 3.8751096e-09 1.3983837e-09 4.6621713e-11 1.3407159e-11
2.3111717e-10 2.3458158e-10 1.6376254e-12 7.191335e-13 2.0184357e-10 2.4030125e-10 1.7500647e-12 8.830623e-13
7.408532e-11 5.67811e-11 4.806217e-13 2.6168862e-13 2.454335e-09 7.886736e-10 3.8394232e-11 9.885124e-12
7.212075e-10 4.280833e-10 9.108269e-12 3.4952995e-12 3.906695e-09 1.2618345e-09 4.926619e-11 1.0103371e-11
1.4725632e-09 5.783516e-10 1.8457912e-11 5.300321e-12 2.1070108e-09 6.7493383e-10 1.8121329e-11 5.327615e-12
1.7695605e-09 6.478935e-10 2.0460054e-11 5.389308e-12 6.548778e-10 3.8486755e-10 5.24186e-12 2.309475e-12
1.6608448e-10 1.0204695e-10 7.8126524e-13 3.9040085e-13 4.003273e-10 2.9577538e-10 6.176761e-12 2.348609e-12
2.7263294e-10 9.09327e-11 1.6679312e-12 7.189428e-13 3.2190575e-10 2.0740243e-10 4.816191e-12 2.0390245e-12
6.153306e-10 3.4068143e-10 4.0874804e-12 1.4519318e-12 0.0 0.0 0.0 0.0
5.8568017e-09 2.3568933e-09 6.1553394e-11 1.8073541e-11 6.927913e-12 6.1307144e-12 4.4704366e-14 2.900739e-14
2.5810595e-10 1.2508038e-10 2.8495216e-12 1.2302385e-12 2.0902718e-10 4.8462366e-11 1.1676596e-12 4.235761e-13
2.8803515e-10 1.8432655e-10 3.8641508e-12 2.0184067e-12 9.0157987e-10 3.3928213e-10 1.0386635e-11 3.1035083e-12
3.3150211e-09 1.1615994e-09 4.9443737e-11 1.3481903e-11 2.1067588e-14 2.0386621e-14 5.0623867e-18 9.22757e-18
4.871779e-10 3.6965014e-11 5.937077e-12 4.809409e-13 2.8020168e-09 1.1332835e-09 4.252678e-11 1.4923424e-11
0.0 0.0 0.0 0.0 4.209943e-09 9.0283325e-10 4.9086506e-11 6.656558e-12
6.6088233e-09 1.7312776e-09 9.682482e-11 1.35697295e-11 9.637845e-10 5.955816e-10 6.4692253e-12 5.548142e-12
9.179729e-11 1.2142953e-10 7.771818e-13 5.976421e-13 2.0501882e-15 1.997763e-15 2.3471663e-19 8.477351e-19
1.4407766e-11 2.3678014e-11 2.6686482e-13 5.919972e-14 5.5770294e-10 2.722114e-10 5.909289e-12 2.1165123e-12
4.7896505e-09 1.6453525e-09 4.822645e-11 1.2090674e-11 2.1397038e-10 1.7124108e-10 9.141202e-13 8.067978e-13

exp_avg f4 [128]
00000000: 05b7 3bb6 0000 0000 2078 d5b6 2951 0b36
00000010: acb2 62b7 0000 0000 6251 9b37 90c6 4136
00000020: 6c7f c1b6 fc86 5ab5 8a87 0bb7 c5a4 9fb7
00000030: d63a 00b7 259f a136 cabc efb6 12b1 96b5
00000040: 0d49 35b7 ec52 5137 03c1 17b7 e55a ca36
00000050: ecc5 6137 d4f7 6ab7 a24a 5137 ca35 a5b6
00000060: ac9b d1b5 817a 9c36 b568 1436 006a c237
00000070: edb9 b935 9da1 90b6 2509 aab5 3d7b 9e36
00000080: 8fd4 80b7 d400 cf36 8ae6 2d37 b0bf c1b6
00000090: d48d 2a37 bc42 2cb7 11d4 1635 42dc 6bb7
000000a0: 0ae4 5936 4123 20b7 9600 24b5 0000 0000
000000b0: 34b3 9e37 3733 5735 535a 81b5 1063 95b4
000000c0: 1620 afb6 8c3d 1637 5fae f936 6c05 9db3
000000d0: ce34 8e36 564d 1f36 0000 0000 5cf6 6036
000000e0: 6b63 9f36 e01a 6637 1a9c 87b5 fa2f 2e26
000000f0: 5002 3cb6 4c7a c936 de5f 5737 24c3 a136
00000100: 0c10 73b7 1a1a 91b7 0160 b2b5 6fa8 2137
00000110: c8e8 15b6 5734 fa36 6ea8 a635 da78 3837
00000120: 07d1 88b7 2cef 8f37 cc91 2136 0000 0000
00000130: a12d c036 499e 6e34 7a7d 0337 9a09 59b7
00000140: 50d0 7735 a80b 3337 a4d3 4036 3612 aa36
00000150: d949 2b36 0000 0000 9492 b037 748f cb35
00000160: 58c8 a936 7559 72b7 0a76 6d35 471b 2436
00000170: dce3 4f36 f8b4 e9b4 6f16 3435 350e d0b6
00000180: bed9 58b6 6e43 23b7 92de ebb6 d665 1436
00000190: f54f b435 d05d 8d36 7f7a 6437 6051 8833
000001a0: 4aed bb36 0000 0000 85b8 2836 8a4a 4237
000001b0: f453 27b5 a07e 0434 cc8f 5136 9c4d 9fb6
000001c0: 3e18 aeb7 1848 9135 387c c834 ca29 fdb4
000001d0: 0000 0000 62b9 9935 7291 dcb5 4457 bb37
000001e0: d8e6 82b7 c0da 5b37 2252 6db5 4cc0 f0b5
000001f0: e2c0 94b5 328f 7736 4016 5036 3ec9 24b5
-2.7971703e-06 0.0 -6.361879e-06 2.0759855e-06 -1.351225e-05 0.0 1.8515337e-05 2.887482e-06
-5.766682e-06 -8.1407757e-07 -8.316603e-06 -1.9031004e-05 -7.643093e-06 4.8167008e-06 -7.144733e-06 -1.1227405e-06
-1.0805449e-05 1.24766775e-05 -9.04524e-06 6.0306506e-06 1.3457127e-05 -1.4005189e-05 1.2474748e-05 -4.923645e-06
-1.561702e-06 4.6634236e-06 2.2114666e-06 2.3175962e-05 1.3837686e-06 -4.3103487e-06 -1.2668648e-06 4.7231138e-06
-1.535777e-05 6.169177e-06 1.036528e-05 -5.7741636e-06 1.0165812e-05 -1.0267537e-05 5.618795e-07 -1.4058374e-05
3.2468256e-06 -9.544951e-06 -6.1095614e-07 0.0 1.8918516e-05 8.016827e-07 -9.637537e-07 -2.782549e-07
-5.2191417e-06 8.955027e-06 7.4410777e-06 -7.3118684e-08 4.238077e-06 2.3737862e-06 0.0 3.3522e-06
4.750143e-06 1.3715326e-05 -1.0103715e-06 6.0433397e-16 -2.801553e-06 6.004504e-06 1.2837319e-05 4.8208913e-06
-1.4487665e-05 -1.7297501e-05 -1.3289974e-06 9.635564e-06 -2.2338227e-06 7.4566738e-06 1.2416983e-06 1.0995393e-05
-1.63098e-05 1.7158301e-05 2.4075734e-06 0.0 5.727358e-06 2.2223061e-07 7.837423e-06 -1.2936443e-05
9.2317805e-07 1.0671945e-05 2.873342e-06 5.068515e-06 2.552397e-06 0.0 2.104909e-05 1.5166429e-06
5.0599156e-06 -1.4445152e-05 8.846115e-07 2.4453782e-06 3.0978035e-06 -4.3531304e-07 6.708787e-07 -6.200537e-06
-3.231325e-06 -9.731257e-06 -7.0294564e-06 2.2112995e-06 1.3434316e-06 4.2130487e-06 1.361838e-05 6.3477955e-08
5.6006584e-06 0.0 2.5141355e-06 1.1580656e-05 -6.2334516e-07 1.2339524e-07 3.1227128e-06 -4.747604e-06
-2.0753705e-05 1.0824324e-06 3.7343284e-07 -4.7155328e-07 0.0 1.1453342e-06 -1.6433607e-06 2.2332773e-05
-1.5604703e-05 1.3104349e-05 -8.84089e-07 -1.7937359e-06 -1.1082996e-06 3.6889219e-06 3.1007366e-06 -6.1387607e-07

exp_avg_sq f4 [128]
00000000: 172e a02f 0000 0000 28a9 b72f 3e0e 8b2e
00000010: b9ae e42f 0000 0000 0639 c430 c84d 162f
00000020: 12c2 a72f aac5 e92f 13a4 772e da94 7930
00000030: 4562 6530 7eb3 ae2f a6fc 232f d83a db2f
00000040: c87d b82f 9e1f ad30 18e8 7d2f ae9c 5f31
00000050: 420b 9d30 cc66 5730 3534 0531 bb68 be2f
00000060: faf0 c82f 1e04 2730 fcd5 df2d ace9 1831
00000070: a205 492f 8268 982f 149c 562e a123 a430
00000080: 50e4 0530 c7e2 e330 091b 8230 25b0 9530
00000090: 0d68 6130 e44a 0530 0736 bd2e acb2 fd2f
000000a0: e55c 382f cac4 a82f 5aca ac2f 0000 0000
000000b0: af0e 5b31 fccf b22c 8f60 b82f 2d56 b02e
000000c0: c30b 0430 1585 f52f faa0 fa30 38f1 f727
000000d0: 0f7e 4a2f 501f c530 0000 0000 a95e e330
000000e0: fabf 3531 5c3c 2e30 2137 db2e 2a5c 4126
000000f0: 44d7 842d ea3f 1330 eebe 0a31 41b1 272f
00000100: 08b8 c02f 3008 b130 c04f 9d2f 6b5f c72f
00000110: 346f da2f 06ed fc30 ec2c 142f 3891 6b30
00000120: 6d11 0930 5749 0c31 d01e 4831 0000 0000
00000130: e2ad 2f31 360e 092c 07ea 9030 5b73 4430
00000140: ee88 8231 8132 dc30 2a8e bd31 d068 4d30
00000150: 1651 8c2f 0000 0000 32f8 ef30 3021 0431
00000160: 7759 cb2f 24cf 0230 87c8 f22d d758 d42f
00000170: 6bbe 5731 b4b1 a72e fc46 ff2b a7c5 672f
00000180: 5897 9e2f 1dca aa2f c909 692f 955e fe30
00000190: f4a6 362e 8f2c 3e30 3ec0 6a31 0761 3d2f
000001a0: ef72 b830 0000 0000 f163 522f f4c7 ba30
000001b0: 1789 152f 0127 7230 bfe8 892e 67ad 0930
000001c0: 65b9 3d30 31fe 7731 d068 a92f 467a 712c
000001d0: 0000 0000 dc07 112f 0a6f e62e 31e9 f930
000001e0: 9c16 7130 d739 8c30 4644 0f30 13e1 d72d
000001f0: af98 552f fbf9 cd2f 1b09 0d2f f787 872d
2.913658e-10 0.0 3.34077e-10 6.323518e-11 4.1597106e-10 0.0 1.4277084e-09 1.3670054e-10
3.0515018e-10 4.2522902e-10 5.6307025e-11 9.0797203e-10 8.3449364e-10 3.1777952e-10 1.4914522e-10 3.987768e-10
3.3558778e-10 1.2596393e-09 2.3092672e-10 3.2539833e-09 1.1426453e-09 7.836263e-10 1.9383724e-09 3.4635214e-10
3.6551012e-10 6.0760097e-10 2.5447193e-11 2.2251738e-09 1.8282845e-10 2.7722896e-10 4.8796592e-11 1.1942697e-09
4.870957e-10 1.6580878e-09 9.466429e-10 1.089124e-09 8.200239e-10 4.8491544e-10 8.604322e-11 4.6147386e-10
1.6767705e-10 3.069885e-10 3.1430397e-10 0.0 3.187704e-09 5.082155e-12 3.3538014e-10 8.018861e-11
4.8038035e-10 4.46598e-10 1.8235646e-09 6.88178e-15 1.8416578e-10 1.4342536e-09 0.0 1.6543328e-09
2.6448093e-09 6.3386607e-10 9.96876e-11 6.708523e-16 1.510226e-11 5.3569116e-10 2.0190174e-09 1.5251535e-10
3.505536e-10 1.2880772e-09 2.86148e-10 3.6265688e-10 3.9732984e-10 1.8402779e-09 1.3476481e-10 8.569887e-10
4.9865073e-10 2.041437e-09 2.9121345e-09 0.0 2.5564693e-09 1.947676e-12 1.0543894e-09 7.1468315e-10
3.799065e-09 1.6021461e-09 5.516786e-09 7.4727513e-10 2.5523467e-10 0.0 1.746008e-09 1.9227393e-09
3.6989053e-10 4.758809e-10 2.7601267e-11 3.86257e-10 3.1394858e-09 7.625847e-11 1.8138542e-12 2.1079548e-10
2.884757e-10 3.106643e-10 2.1194703e-10 1.8507814e-09 4.1530293e-11 6.918492e-10 3.4160759e-09 1.7223921e-10
1.3420428e-09 0.0 1.9134895e-10 1.3590111e-09 1.3600175e-10 8.8094515e-10 6.271383e-11 5.008673e-10
6.902126e-10 3.6087722e-09 3.0815395e-10 3.4316035e-12 0.0 1.3190465e-10 1.04789136e-10 1.8183411e-09
8.770742e-10 1.020278e-09 5.212012e-10 2.4542623e-11 1.9426481e-10 3.7466905e-10 1.282711e-10 1.5408104e-11
